Exercise2/saves/checkpoint.pt (torch, 377071 bytes, 6 tensors)

weight f4 [30, 3072]
00000000: 2844 63be 5142 b6bd 4545 ccbd 958e b9bd
00000010: 94bb 403c 01bf 733d e344 b63c f347 4dbd
00000020: a6de 093d 9427 aa3d 7405 003d 4c69 fb3d
00000030: 8956 3e3e 60be 623e 7a16 013e 9556 1abc
00000040: 7c24 99bd 5fff 00be 7335 49bd c015 113d
00000050: 3481 96bd a12e 81bd 4e90 afbb 524c a93d
00000060: 52a5 eb3d f70c c63d f177 ad3d ba7c c0bd
00000070: ad31 c3bd ac82 d2bd 9a3e 0ebd ec2f 3abe
00000080: d18b 3ebe 76a0 04bd 20f8 683a 3300 bebd
00000090: 7e6a 903d c185 533e 2785 a93d 1de5 953d
000000a0: 3482 093e cbb9 233d 362a e63a 0ee5 933c
000000b0: 780e cd3d 045e e43d 2a54 8f3c dd3d 473b
000000c0: 51c4 0b3d 109a 193c bc75 183d a337 a53d
000000d0: 4624 a6bd b9f0 6cbd 927a 243c f84a 683d
000000e0: 8d62 103e d6e6 0f3e ab0e 343e c5e9 743d
000000f0: d156 99bc a705 2e3d e37a 033e 8279 dbbb
00000100: 7118 b3bd 030f 143e dd07 db3d bf15 e5bd
00000110: d745 afbd a1bd 863c 4e9c fbbc cdec 85bb
00000120: e387 56bb fe2d 61bd 646d f7bc c98b dc3a
00000130: 2b3b cc3d c147 423d 1f81 813d 9b80 a23d
00000140: 8a25 d13b ca44 803c 5b15 613d 4346 083e
00000150: f2cd bc3d e463 9eb9 b508 d8bc 0032 e3bc
00000160: 379b 9f3d 9d0d 213d ecfd 5f3d 239c 803d
00000170: 6afa 503d dae9 e83d 7646 273e 1a93 023d
00000180: f8f6 46bd d3c1 203e 570d 1f3e 2a50 8e3b
00000190: 45a7 2d3d 60b9 2f3d 91fb 06be b8f8 89be
000001a0: 7920 20be 7beb e7bd 570f f2bd d203 97bd
000001b0: 1470 1e3e c59f c53d 8aa1 7f3c 81e0 773c
000001c0: a961 a4bd cd8b 57bc 79c1 8d3d 82fe 103e
000001d0: 8542 1c3e 3dbb 89bd 8b04 0ebe 5a9a cabd
000001e0: 279b 59bd 89c3 94bd 7b05 773c 861c 603d
000001f0: ef32 1b3e ee02 293e 7519 0e3e a699 2e3c
00000200: 7f3d 013e 4d14 173e b323 7b3e e2eb 543e
00000210: 15cc 173e 4929 9e3d e33c eb3a 0a03 cabd
00000220: 17d4 56bd 3b26 71bd a0d8 13bc c36a f1bd
00000230: c803 2e3d 7e7a e03c f377 143d 76ab f73c
00000240: e525 933b a3bc 05bc 1010 283e 995c 113e
00000250: 676f 48be ab30 43be 7a5a 32be 9776 58be
00000260: 72f4 98bd 10ec 183c 2a72 2f3e f10c 2d3e
00000270: 42a6 543e 918a f33d e436 0d3e 74a9 e93d
00000280: b5a9 453e 7d4a 1a3e 651f 2e3e 0c6c 543e
00000290: 668c f43d 54d7 8c3d bef1 fb3d 2f94 26bd
000002a0: 97f5 ecbd 5093 04be 215a 88bc 4844 bcbe
000002b0: 39f7 a8be 171b 81bd 66fd a83d 6e01 033d
000002c0: 0cb0 ebbc f207 dfbd 41ed 0abe 2895 5dbe
000002d0: 4938 d4be 7ecf 6dbe 581c fbbd 27f3 8dbd
000002e0: ff84 2c3b f65c 9c3d aa2a 123e 60a2 463e
000002f0: 9cc5 093e 7b45 5a3d 4737 713d 0e9d e13c
00000300: 20dd 713e 32de 8b3e 6566 4c3e b043 6c3e
00000310: 0366 083e 237c abbd 3f68 54bd eb67 76bc
00000320: 1e57 35be 69c1 57be b26c c2bd 254f cbbe
00000330: 67e8 83be 6a75 013e 0547 a63d faa4 8e3d
00000340: 2bad 6d3d 4aa7 35bd b010 a3bd 3c20 a3be
00000350: 8283 3dbe c0a0 72be efb7 6bbe dfa9 d0bd
00000360: 9a65 19bd 81fa 3c3d eea7 ae3c 800c e83d
00000370: 4859 373e 9ab2 5f3e 7e2e 033e 3f84 d13d
00000380: 3021 d43d abec 693e 7693 273e 3b03 f63d
00000390: a556 0fbd fef3 6ebe 7e7a a5be a552 84be
000003a0: 645e f5bd 2aae 45bd 6d8b ebbd 2ee4 85be
000003b0: c102 2bbd 5e72 143e c1ce a93c 8294 92bc
000003c0: 08ee cebc 5e4a 8cbd 4ac5 14be c21a d6be
000003d0: 2ef8 90be 84e6 3cbe 3d34 19b9 a05b 4f3d
000003e0: 9098 15be a536 be3d 5588 2a3e 2685 7e3d
000003f0: b1df 873e 8aef b43e c932 423e 94df a03d
-0.22193968 -0.088993676 -0.099741496 -0.090603985 0.011763472 0.059508327 0.022249645 -0.050117444
0.0336596 0.0830833 0.0312552 0.12275943 0.18587698 0.22142935 0.1260623 -0.009420057
-0.07477662 -0.12597416 -0.04912324 0.035421133 -0.07348862 -0.06307722 -0.0053577786 0.0826651
0.11506142 0.096704416 0.08470143 -0.0939879 -0.09530959 -0.1027883 -0.03472767 -0.18182343
-0.18608023 -0.03237959 0.0008887071 -0.09277382 0.07051562 0.20656492 0.0827735 0.073190905
0.13428575 0.039972108 0.0017560187 0.018053558 0.10012525 0.111507446 0.017496187 0.0030401864
0.03412277 0.00937511 0.037221655 0.080672525 -0.08112387 -0.05784676 0.010038989 0.05671212
0.14100094 0.140529 0.1758372 0.059793252 -0.018718155 0.04248586 0.12839846 -0.0066978345
-0.08744896 0.14458852 0.10694859 -0.11185788 -0.08558243 0.016447844 -0.03071418 -0.0040870667
-0.0032734803 -0.054975502 -0.030203529 0.0016826327 0.09972223 0.04743171 0.06323456 0.07934686
0.006382649 0.015657801 0.054952007 0.13308053 0.092189685 -0.00030210533 -0.02637134 -0.027733803
0.07793277 0.039319623 0.05468552 0.06279781 0.051020063 0.11372729 0.16335472 0.03187857
-0.04857537 0.15698938 0.15532432 0.0043430524 0.04239585 0.042901397 -0.13181902 -0.2694757
-0.15637387 -0.11324211 -0.11819332 -0.073737755 0.15472442 0.09649614 0.015602479 0.0151292095
-0.0802644 -0.01315589 0.069216676 0.14159587 0.1525975 -0.06725166 -0.1386892 -0.098927215
-0.05312648 -0.07263858 0.01507699 0.054714702 0.15156148 0.16505024 0.13876899 0.01065675
0.12621115 0.14753838 0.24525337 0.20793107 0.14823945 0.07722718 0.0017947223 -0.09863861
-0.05244836 -0.05887435 -0.009023815 -0.11787941 0.042484075 0.027402159 0.036247205 0.030233126
0.0044906014 -0.00816265 0.16412377 0.1419548 -0.19573747 -0.19061534 -0.17417327 -0.21138988
-0.07468499 0.009333625 0.17133394 0.16899468 0.20766547 0.11891664 0.1379047 0.11409274
0.1930302 0.15067478 0.17004164 0.20744342 0.119408414 0.06877008 0.12301968 -0.040668663
-0.1157028 -0.1294682 -0.01664454 -0.36770844 -0.33001116 -0.06303995 0.08251457 0.031983785
-0.02877047 -0.10890187 -0.13567068 -0.2163893 -0.41449192 -0.23223683 -0.122612655 -0.06931143
0.002632439 0.076349184 0.14274088 0.19397879 0.13454288 0.053288918 0.058890607 0.02754071
0.23619509 0.2731796 0.19960935 0.23072696 0.13320164 -0.083732866 -0.05185723 -0.015039424
-0.17709014 -0.21069874 -0.09493388 -0.3970882 -0.25763246 0.12642446 0.08119015 0.069650605
0.058026474 -0.044348992 -0.07962167 -0.3186053 -0.18507197 -0.23694134 -0.23019384 -0.1018865
-0.03745041 0.046137337 0.02132031 0.11330509 0.17905152 0.21845475 0.12810704 0.10230302
0.103578925 0.22844188 0.16364846 0.12012335 -0.03499474 -0.23335263 -0.32320017 -0.25844303
-0.11980894 -0.0482618 -0.11501203 -0.2615065 -0.041750673 0.14496753 0.02072847 -0.01789308
-0.025259987 -0.06850122 -0.14528385 -0.4181729 -0.28314346 -0.1844731 -0.00014610677 0.05062449
-0.14608979 0.09287766 0.16653569 0.0621387 0.2653785 0.35339004 0.18964685 0.07855144

bias f4 [30]
00000000: 0c0b 46bf 744d 8c3f 1714 90be 1576 86be
00000010: 68a9 003f a7a0 623f 1590 bc3e a4a5 26bf
00000020: 4e28 9d3e 3254 25bf f46c 84bf 0d80 b53f
00000030: 38e6 cfbe 6777 99bf ca89 733e 1815 7bbf
00000040: 6031 d0bf 550e b4bf 01f0 7b3f 9f72 aa3c
00000050: 260c 7fbe 5c89 673f b6ee 2e3e 9a80 3cbf
00000060: 48f3 a3bf e104 a03e 00e3 0cbf a870 aebe
00000070: 584f 4cbe 1f75 f6be
-0.77360606 1.0961137 -0.28140327 -0.26261964 0.50258493 0.88526386 0.36828676 -0.650965
0.30694813 -0.64581597 -1.034575 1.4179703 -0.4060533 -1.1989564 0.23783031 -0.9807906
-1.6265068 -1.4066874 0.9841309 0.020806609 -0.24906978 0.9044397 0.17083248 -0.7363373
-1.2808619 0.31253722 -0.55033875 -0.34070325 -0.19952142 -0.4813623

weight f4 [30, 30]
00000000: c062 3cbd 7bae 973d ee53 cb3d d946 30be
00000010: 2204 70be af38 ffbd 4b24 2bbe 9cab 9ebd
00000020: 18c0 27be 3613 0abe bf05 173e 4c9c 063e
00000030: bec2 7abd 1619 df3c 0d96 39be f461 c63e
00000040: d714 1a3e 4a22 08bd f21e 353e 5ee9 0b3e
00000050: 9816 223e 845f 38be 16ab 15be 3656 bf3d
00000060: bc87 57bd 848b 0fbe 1d43 37bd 2fd1 adbd
00000070: a421 6dbd faee 6f3d 5156 aebd 39f5 92be
00000080: aaae 0dbf 63e3 d9be 5041 71be b1fe 96be
00000090: e085 3fbd 6902 e4bd fe82 97be c576 0a3e
000000a0: a19f 88bd 959b eebd aa20 83be ec7a ccbe
000000b0: 1b97 4c3c b105 27be 15a2 06bf cda2 8abe
000000c0: 1647 31be f821 b83d 83be a73d c6a8 e1bd
000000d0: d9b8 aa3d 65de d4bc b463 3ebe d1b3 54be
000000e0: 1694 b73d 380c 43be f27c 90bd ee6f 87be
000000f0: 6c8e 96bc 6fbe 55be 9020 fdbd e503 a6bd
00000100: a930 aabc 23ce b0bd b420 ca3d 314b 8abe
00000110: 713d f4bb 0871 eb3d 6c66 f7bd 7a81 80be
00000120: 1f0e c93d 5380 1cbd 918a 46bd 0651 7ebd
00000130: 5b6f 51be bdb7 1d3d 01c8 983d 328a 813d
00000140: d3ae 1cbe cf07 643e 47bf 1e3d b188 22bd
00000150: e646 843d 7974 743e 19ba 153d 17f4 c63d
00000160: d60d 4a3d 0bc0 7ebd 2c35 2dbe fc54 c6bd
00000170: f71a 69be 5313 f7be dd6c 7ebe 7c54 14bf
00000180: 174e 61be 0140 80be ae8e d1be 7119 87bd
00000190: 081f 0ebe f609 35be 16ca b3be 8f39 393e
000001a0: 881e 9cbe ccb3 183d 4f1a 16be 0ea0 a8be
000001b0: f661 9bbe 6747 a6bc 0bba dabe 4379 ab3d
000001c0: 66b4 c43d 4726 61be 27de 54be e7ef cabc
000001d0: b546 003e e734 2a3e 2b95 1fbe 562f 87be
000001e0: ef40 063c 58d6 73be 2fe5 65bb 3278 afbd
000001f0: b0b5 423e 60de 9b3c e6e3 cabe da3a 19be
00000200: 31ff d63d 7986 133e 728b 233d c8d2 79be
00000210: 710a 2e3e 08b1 fe3d c520 3fbc 0e1c 5e3d
00000220: c31f 72bb 37bc 493b b3e0 3cbe 3073 603d
00000230: e531 2a3c 5021 70be 6490 6fbd 7c73 c03d
00000240: 1813 823c 659a 91be 2221 b73c b2bb 24be
00000250: 091f a5be 1b7c bd3d 7046 49be 1b9e 90be
00000260: b069 47be df22 2dbe 8ecb 24bd 19f7 67be
00000270: 1ffa 52be 5a17 59bd 8e8a 5fbe db61 56be
00000280: 54c4 57be 18f9 5bbe 7a32 bb3d 6c9e 8ebe
00000290: 89e9 44be fc27 59be f1b9 a3bd e42a 6b3d
000002a0: ffc2 0a3d 6873 64bd 61cc 2e3d 6a81 1dbe
000002b0: 5fc0 c03d ae7c 86bd 3d02 0cbd 0da7 01be
000002c0: 1065 b5bd e527 9abc ccf5 96bc f571 21be
000002d0: fae7 02be a566 92be 1a8f 8cbd 9ac1 febd
000002e0: f346 40be db0b fe3c 422e 18be a859 b5be
000002f0: 22b7 20be 0833 84be 5fa5 b63d 4012 3bbe
00000300: 9b4c 303d 77fb 17bc 9199 d9bd cc18 dbbd
00000310: bec3 23be 9b3f cf3d 265d 09be c6bd 92bd
00000320: 686d 8bbd 1709 79bd 81a5 d6bd 7d42 64bc
00000330: 5e98 4f3c d652 85bd e439 83be b69d 9bbd
00000340: 5f04 0abe ed26 56be d22b 8dbc 97ef 1ebe
00000350: da61 3b3c 85dc e63c 73c4 00be 7898 71bd
00000360: 84f5 833d 3fa9 14be 6a1c 9cbc a306 5bbe
00000370: 1c2d dd3c a3db 30bd a04b 8c3d 8967 01be
00000380: e4b4 79be 7fa2 16be 9081 35be 8cee 37be
00000390: f8cb d7bd a973 12be 4365 42bd 0460 c6bd
000003a0: 0a09 40bd e151 273d 25d3 6ebe 7f4d f5bc
000003b0: 3e48 19be ce5b 2fbe 6cfe 7dbe 6a38 5ebe
000003c0: d4f0 c8bc f2fc 9f3d 9958 1fbe 23d8 44be
000003d0: 6f83 333e c763 c03d 41cc 2bbd 769e 7a3d
000003e0: 8df7 013e 54bc 3c3d 773f 60be 88cd 833d
000003f0: 8a92 5abe 75ac 8c3c 668d babc df29 1ebd
-0.045992613 0.074063264 0.09928118 -0.17214526 -0.23439077 -0.124619834 -0.16713063 -0.07747576
-0.16381872 -0.13483891 0.14748286 0.1314556 -0.061220877 0.027233642 -0.18123646 0.38746607
0.15047012 -0.033235826 0.17687586 0.13663241 0.15828931 -0.18005186 -0.14616045 0.09342615
-0.05261968 -0.14018065 -0.04474174 -0.08487164 -0.05789341 0.058577515 -0.08512557 -0.28702715
-0.5534464 -0.42556295 -0.23560071 -0.2949119 -0.046758533 -0.11133272 -0.29592127 0.1352187
-0.06671072 -0.11650769 -0.25610858 -0.39937532 0.012487198 -0.16310765 -0.5259107 -0.27077332
-0.17312273 0.08990854 0.08190634 -0.11018519 0.08336038 -0.025984952 -0.18592721 -0.2077172
0.08963792 -0.1904763 -0.070550814 -0.26452583 -0.018378459 -0.20873426 -0.123597264 -0.081062116
-0.020775156 -0.086330675 0.09869519 -0.27010491 -0.0074536134 0.114961684 -0.12080082 -0.25098783
0.098171465 -0.038208317 -0.04847199 -0.06208899 -0.20452635 0.038505305 0.07460023 0.06325187
-0.15301065 0.22268604 0.038756635 -0.03968114 0.06458835 0.23872556 0.03655443 0.09714525
0.0493296 -0.062194865 -0.16914815 -0.09684178 -0.22764193 -0.4825693 -0.24846216 -0.5794141
-0.22002445 -0.2504883 -0.40929168 -0.065966494 -0.13879025 -0.17679581 -0.35115117 0.18088363
-0.30492043 0.037280843 -0.14658473 -0.32934612 -0.30348176 -0.02029772 -0.42720065 0.08372738
0.09604721 -0.21987258 -0.2078787 -0.024772597 0.12526973 0.16621743 -0.15584247 -0.26403302
0.008194192 -0.23812234 -0.003507923 -0.08567847 0.19014621 0.019026935 -0.39626998 -0.14963856
0.10497893 0.14406766 0.039927907 -0.24396813 0.1699617 0.1243611 -0.011665528 0.054225974
-0.00369452 0.003078235 -0.18445091 0.05479735 0.010387872 -0.23450208 -0.05848731 0.09397027
0.015878245 -0.28438106 0.022354666 -0.16087225 -0.3225024 0.09252187 -0.19655776 -0.28245625
-0.1947391 -0.16907834 -0.040233187 -0.22652854 -0.20603226 -0.053000785 -0.21830198 -0.20935766
-0.21070987 -0.2148174 0.09140487 -0.2785524 -0.19229712 -0.21206659 -0.0799445 0.05741395
0.03387737 -0.055774122 0.04267538 -0.15381399 0.09411692 -0.065667495 -0.034181822 -0.12661381
-0.08857167 -0.018817851 -0.018427752 -0.15766127 -0.12783805 -0.28593937 -0.06863232 -0.1243927
-0.18777065 0.031011513 -0.14861396 -0.35419965 -0.1569486 -0.25820184 0.08918261 -0.1826868
0.043041807 -0.0092762625 -0.106249936 -0.10698089 -0.15992638 0.10119554 -0.1341444 -0.07165103
-0.06807977 -0.060799684 -0.10480786 -0.013931868 0.0126706045 -0.0650994 -0.25630105 -0.0759844
-0.1347823 -0.20913287 -0.01723281 -0.15521084 0.011436904 0.028181324 -0.1257494 -0.058983296
0.06443313 -0.14517687 -0.019056518 -0.2138925 0.026999049 -0.043178212 0.06850362 -0.12637152
-0.2438541 -0.14710425 -0.17725205 -0.17962092 -0.10536951 -0.14301933 -0.047459852 -0.09686282
-0.04688362 0.04084957 -0.23322733 -0.02994418 -0.14968964 -0.17124864 -0.24804085 -0.21701208
-0.024528898 0.07811917 -0.15561141 -0.19223075 0.17530607 0.09394031 -0.04194284 0.061186276
0.1269209 0.04607804 -0.2189921 0.06435686 -0.21344963 0.017172078 -0.022772502 -0.03861415

bias f4 [30]
00000000: a9ba 0ebf 4aa7 033d 18dd babc 78d5 93be
00000010: f319 38bd 77ce 5abe e3fc 043a 073d bbbd
00000020: 55f1 d83f ac92 c03f 809d 36be e613 70be
00000030: 669c 06bf 9e67 013f 4e1a 9f3b cd03 3cbe
00000040: 0666 163d 5985 e13d 389b 133e 9ddb c0be
00000050: 9702 283e c183 5f3c d919 7fbe 8bd6 323e
00000060: ab4f 4ebe 06ce 83bb 8da6 c13e e632 f7be
00000070: e1c7 a6be 7942 873f
-0.5575357 0.03214196 -0.022810504 -0.288738 -0.044946622 -0.21367823 0.00050730834 -0.091424994
1.6948649 1.5044761 -0.17833519 -0.2344509 -0.52582395 0.5054873 0.0048554307 -0.18360825
0.03671839 0.11011762 0.1441468 -0.37667552 0.16407238 0.013642252 -0.24912204 0.17464654
-0.20147578 -0.0040223626 0.3782238 -0.4828102 -0.3257437 1.0567161

weight f4 [10, 30]
00000000: 46c0 c23d c475 0c3e b684 e93d d38a e73d
00000010: 27a5 d2bd 0559 a93d 63f7 173e f289 d33d
00000020: 1a34 81bc f755 07bd 6c6d 4cbd 35ca a4bc
00000030: 3702 ba3d ed9c f83b 9d4e b43d 90e8 4d3c
00000040: 77ba 083e 3f77 3f3d 481c 7ebd 79a7 f93d
00000050: 861b abbe 3c8c af3c a84b ec3d 975d 303c
00000060: c650 2e3d c9b9 013e 9795 cfbc 3884 02bd
00000070: 1efb 86bc 108f dfbd 8cca 993e 391d 9d3d
00000080: 4d60 fa3a 1884 0cbd adce a13d 447c 57bd
00000090: 672d 013e 96c9 0e3d d8dd 28be ff6b 39bc
000000a0: 68e0 80bc 3c01 e8bb 4767 623e 51a8 123e
000000b0: 89a4 d83d 1c06 27be e25e 78bd abec ffbb
000000c0: 627a 1cbd 7de0 c73c 2fc3 02bd 79f1 2c3e
000000d0: 0374 95bd da81 4c39 dd40 24bc a8f7 373e
000000e0: bb13 d03b 04ea c33d f505 053c 4893 2fbe
000000f0: 1f8b 8a3c 534d cfbd 7ba1 c83d 316b 3abe
00000100: c78b 0b3d 034b fe3d 7a46 143e aa87 193d
00000110: d5a8 043e 2e08 4f3c ab71 99be 3cd7 293d
00000120: 002d 823d 32c8 093d 98cd d93d bdd7 c33d
00000130: 82ad 363e 6be7 f1bd 714d a13c 4264 7c3d
00000140: de5c 93bc fc75 4ebc 8645 513d 7176 dabc
00000150: 20bd a43d a18c a1bc 832c 7dbd 8a22 76bd
00000160: 1705 fb3d 3766 973d 3631 043c 5ce5 c53d
00000170: cc55 333d 8193 bebd 63fc e33c b211 91bc
00000180: 0c4e be3d d504 d63d 605b 99bc 2156 6c3c
00000190: 20f9 803d 4944 dc3d c734 613c 1c6f c43d
000001a0: 3662 293e 2349 e0bb f01c cabb 609c bfbd
000001b0: 5b45 133e a94c b53c 9786 8a3d 66c3 8c3e
000001c0: ead1 923d b957 4b3d fdee 18bd 58cf dbbd
000001d0: 73b5 19bd 9d60 503c 0769 0d3d 5dca 8b3b
000001e0: 9638 733d 56ad 5a3d 8954 3b3d d089 ef3c
000001f0: 3cec 8a3d 29ca 5f3e f32d 95be d2e0 493e
00000200: cf7f c43d 85b0 3dbd 9495 823b bc0f 29bd
00000210: 75b2 b1bd 950f 233e 27d4 573e 9c4c b5bc
00000220: 2678 39be 1284 c7bd 1e15 91bc 3004 af3d
00000230: cd6c bb3d e144 133e 6a1c 31bd 0c19 ba3c
00000240: 24bc c43d 1764 22bd cf07 29bd 25ef dfbd
00000250: 91a6 233c a217 fe3b c590 5d3d 0a39 e73d
00000260: 5558 363d 857f 1bbe b767 223d d063 d9bc
00000270: 9c0c 243e 2ce2 143d 05b8 5a3d 7397 08bd
00000280: f06d a3bc da73 363e cfa6 ac3b 83b3 793d
00000290: 0364 64bd b673 153c a59e 2fbc c308 e2bd
000002a0: 4e20 2a3e a23e 0f3d 76bc e1bb 485a c53d
000002b0: 3278 803d c7b2 163d 532f 943d a74f 32be
000002c0: 765e 1ebd c3be 58bd b657 6b3b 3d6f 35bc
000002d0: ca65 713d 679a b53c dd87 fdbb 5eea 63bd
000002e0: 766e e6bd c245 3abd 1601 7bbd 47f7 86bd
000002f0: f191 4cbd b934 ff3d 4b9d 61bd df8f a03d
00000300: 4589 19bd d6e5 923d e175 983c a580 89be
00000310: 90be fbbc ff57 2dbe 0b7c 7fba 95b8 13be
00000320: 9d13 42bd 428c 25be f0db b13c 8a4b 1f3d
00000330: 80ee 093d 6c3e a43d 0404 b03d 04c1 f8bb
00000340: b63e e83b 5baa 9fbd aad6 d33c 6871 8bbd
00000350: b2db c3bc e380 b93d 4fe7 093e a286 b73c
00000360: 3e4c d0bc 211b c43d 74b2 b53d 5aae 21be
00000370: 448c 6bbd aadd a03d 5665 533c e9ff 9c3d
00000380: efb4 d93d 1fd1 1d3e 7d29 9b3d 09bd 04be
00000390: d04b 9a3d 18b2 323e 52e3 c93d 9e3a cc3d
000003a0: 3abe 5c3d dc0c 2f3e e73d e3bd 150f 7dbd
000003b0: e8c4 a13d 98dc 50bd c8ad 15bd e573 19bc
000003c0: 5698 1a3e 6624 b7bd e69d b6bd 2273 3fbe
000003d0: 7569 15bd ccbb 5f3d 6d8b 073c 4f58 173c
000003e0: 5647 17be 1c9a 0ebe ddd3 983b a40c 1ebd
000003f0: f925 babb eff4 803d 7917 c33d ffaa dcbd
0.095093295 0.13716799 0.11402266 0.113057755 -0.102854066 0.08268932 0.14840464 0.10329045
-0.015771914 -0.033040967 -0.04990904 -0.020115951 0.09082454 0.0075870664 0.08804057 0.012567654
0.1335238 0.04674458 -0.06203869 0.12190146 -0.33419436 0.021429174 0.11537868 0.010764501
0.0425575 0.12668528 -0.025339885 -0.031864375 -0.016477164 -0.10915959 0.30037344 0.076715894
0.0019102186 -0.034305662 0.079007484 -0.052608743 0.12614976 0.034860216 -0.16490877 -0.011317252
-0.015732005 -0.0070802253 0.2210971 0.1432202 0.105782576 -0.16310924 -0.060637362 -0.0078101954
-0.03820265 0.024399037 -0.031924423 0.1688899 -0.07297518 0.0001950333 -0.01002523 0.17965567
0.0063500083 0.09566119 0.008119096 -0.17146027 0.016912041 -0.1012217 0.09796425 -0.18204953
0.03406885 0.12416651 0.1448001 0.037482895 0.1295503 0.0126362275 -0.29969534 0.04146503
0.06356239 0.033638187 0.10634917 0.09562633 0.17839625 -0.118117176 0.019690247 0.06161905
-0.017988618 -0.012601372 0.051091693 -0.026667805 0.08043885 -0.019720377 -0.061810028 -0.060091533
0.1225683 0.07392543 0.008068373 0.096628875 0.043782994 -0.09305478 0.027830308 -0.017708633
0.0929223 0.104501404 -0.018720329 0.014424832 0.06297517 0.10755212 0.013745493 0.09591505
0.16541371 -0.006844656 -0.0061680004 -0.09355998 0.14381926 0.022131281 0.06763952 0.27492827
0.07168944 0.049644206 -0.037337292 -0.10732907 -0.03752656 0.012718347 0.03452399 0.004266067
0.059380136 0.053387962 0.045734916 0.029240519 0.067833394 0.21854462 -0.2913662 0.19714668
0.0959469 -0.04631092 0.0039851163 -0.04127477 -0.08676616 0.15923913 0.21077023 -0.022131257
-0.18112239 -0.09741987 -0.017710265 0.085457206 0.091516115 0.14381744 -0.04323999 0.022717021
0.096061975 -0.039646234 -0.041267212 -0.10934285 0.009988443 0.007754282 0.05409314 0.11290176
0.044517834 -0.15185364 0.03964969 -0.026536852 0.16020435 0.036348507 0.05339815 -0.03334756
-0.019949883 0.17817631 0.0052689086 0.06096221 -0.05575944 0.009121826 -0.010718976 -0.110368274
0.16613886 0.03497184 -0.0068889214 0.096363604 0.062729254 0.03679159 0.07235589 -0.17413197
-0.038664304 -0.0529163 0.0035910434 -0.011073885 0.058934964 0.022168351 -0.0077371434 -0.05564343
-0.112515375 -0.045476682 -0.061280333 -0.06590133 -0.049943868 0.12461228 -0.055081647 0.07839941
-0.037484426 0.07172744 0.018610897 -0.2685596 -0.030730516 -0.16928099 -0.0009745962 -0.14425881
-0.047381986 -0.16166785 0.02171132 0.0388904 0.033674717 0.080197185 0.08594516 -0.0075913686
0.007087554 -0.077961646 0.025859196 -0.0680874 -0.02390847 0.09057786 0.13467143 0.022403065
-0.02542698 0.09575487 0.08871928 -0.15789166 -0.057506815 0.07854779 0.012902578 0.076659985
0.106302135 0.15411805 0.07576273 -0.12962736 0.07533991 0.1745075 0.09857811 0.09972118
0.05389235 0.17094749 -0.11095791 -0.06178196 0.07898885 -0.050991625 -0.036542684 -0.00936601
0.15097174 -0.08942489 -0.089168355 -0.18696263 -0.036477525 0.054622456 0.008272988 0.009237363
-0.14773306 -0.13925976 0.004663928 -0.038586274 -0.005680796 0.062967174 0.095259614 -0.107748024

bias f4 [10]
00000000: db19 18be e5e3 a3bf 1aeb 1b3f 35b0 193e
00000010: a3bf a23f 9f7a a0be 8151 863f 186c e2be
00000020: 5509 12be b11d 32bf
-0.14853613 -1.2803923 0.6090561 0.15008624 1.2714733 -0.31343552 1.0493623 -0.44223094
-0.14261372 -0.69576555
