Exercise2/saves/model_h_10.pt (torch, 127215 bytes, 6 tensors)

weight f4 [10, 3072]
0	0x3c0c4a0f	0.008562579
1	0xbd02a5fb	-0.031896573
2	0xbd281253	-0.0410331
3	0x3cbea297	0.023270888
4	0x3c21718f	0.009853735
5	0xbcf46084	-0.029831178
6	0xbc5134a9	-0.012768903
7	0xbc837fa4	-0.016052075
8	0xbcf75072	-0.030189727
9	0x3c49d95b	0.012319888
10	0x3d094557	0.033513393
11	0x3d2e73de	0.04259097
12	0x3d2df0e9	0.042466078
13	0x3cbe0226	0.023194384
14	0x3aad4f80	0.0013222545
15	0xbd77501c	-0.060379133
16	0xbda024ce	-0.0781952
17	0xbc85de4a	-0.016341347
18	0xbd403f1a	-0.04693518
19	0xbc716530	-0.014733598
20	0x3c98b504	0.018641002
21	0xbcfc9097	-0.030830665
22	0xbd76ec26	-0.060283802
23	0xbc26ce8f	-0.010181083
24	0x3cb6f070	0.022331446
25	0x3d742214	0.059602812
26	0x3dc69913	0.09697165
27	0x3ccb22cb	0.024796864
28	0x3c1474e4	0.009061072
29	0xbae0f3e2	-0.0017162526
30	0xbbb91025	-0.0056476765
31	0xbd43c2d3	-0.04779322
32	0xbcb2195a	-0.021740604
33	0xbd7c5164	-0.061601058
34	0xbd70a75e	-0.058753364
35	0xbc21f9b8	-0.009886198
36	0xbd0f2993	-0.034951758
37	0xbc8b4579	-0.0170009
38	0x3c7c3337	0.01539307
39	0x3ab2bc29	0.0013636398
40	0xbd249c43	-0.040188085
41	0xbd667025	-0.056259293
42	0x3c694a74	0.014238942
43	0x3cc14e01	0.023596765
44	0xbc74bedb	-0.014938082
45	0xbb003e53	-0.0019568398
46	0x3ba55a7c	0.005046187
47	0xba2c0473	-0.0006561942
48	0xbc198d30	-0.009372041
49	0xbbca08a0	-0.006165579
50	0xbc92d9cb	-0.017926117
51	0x3ce3d81c	0.02781301
52	0xbc0d7f6d	-0.008636338
53	0xbc0ece45	-0.008716171
54	0xbb982dc1	-0.004644126
55	0xbd1e43c6	-0.038638853
56	0x3b9c586b	0.0047712824
57	0x3d1dbab1	0.03850812
58	0x3d9e3513	0.07724967
59	0x3d3b1514	0.0456744
60	0x3c70d593	0.014699358
61	0x3ad199bb	0.001599125
62	0xb8916a08	-6.933889e-05
63	0xbc0d514d	-0.008625341
64	0xbcf63c59	-0.030058073
65	0xbd44a911	-0.048012797
66	0xbbcfbc65	-0.006339597
67	0xbc9ad61a	-0.01890092
68	0x3bceaeb2	0.0063074464
69	0x3d3e896c	0.046517774
70	0x3cf98600	0.030459404
71	0x3c56097e	0.013063787
72	0xbd31f5a0	-0.043447137
73	0xbc26613a	-0.010155017
74	0x3c812467	0.015764428
75	0xbc142cd3	-0.00904389
76	0xbcca9501	-0.024729254
77	0xbceaf8ec	-0.028683148
78	0x3cba4a36	0.022740465
79	0x3c8dd72c	0.017314516
80	0xbac71010	-0.0015187282
81	0x3ba3b968	0.0049964674
82	0x3cb89bdf	0.022535263
83	0x3d23a202	0.039949425
84	0xbcbbe908	-0.022938266
85	0xbc8eab94	-0.0174158
86	0x3d856472	0.06513299
87	0x3d5f5ead	0.05453365
88	0x3b6fe75f	0.0036606414
89	0x3c80e50d	0.01573422
90	0x3d183ebe	0.03716921
91	0x3af7c548	0.0018903399
92	0x3c8273b3	0.01592431
93	0x3b8639e8	0.0040962584
94	0xbd689371	-0.056781236
95	0xbd2de0ee	-0.042450838
96	0xbd23a2d4	-0.039950207
97	0xbb6a4e9d	-0.0035752424
98	0x3bb838d4	0.005622009
99	0xbc8d24b8	-0.017229423
100	0xbc3b53f9	-0.011433595
101	0x3cfe32ee	0.031030145
102	0xba80bffe	-0.0009822843
103	0xbd08ff17	-0.033446398
104	0xbd51f287	-0.051256683
105	0xbb8f11de	-0.0043661436
106	0x3c0ded4c	0.008662533
107	0x3c7d0e86	0.015445357
108	0x3cbde03f	0.023178218
109	0xbc881689	-0.016612308
110	0x3c86a4b2	0.016435955
111	0xbb898e8b	-0.0041979006
112	0xbb82d1a2	-0.0039922753
113	0x3d1df3fa	0.038562752
114	0x3d0a010e	0.033692412
115	0xbb807dc8	-0.0039212443
116	0xbd34a9ed	-0.044107366
117	0xbd60a453	-0.05484421
118	0x3d8727ed	0.06599412
119	0x3d179acd	0.037012864
120	0x3cbf8fb2	0.023383949
121	0xbad1cabb	-0.0016005853
122	0xbc50d093	-0.0127450405
123	0x3be224ae	0.006901345
124	0x3cb55e07	0.022139562
125	0x3ca8d7e4	0.020610757
126	0xbda11067	-0.078644566
127	0x3b91b204	0.00444627
128	0xbc1be544	-0.00951511
129	0xbd6bb5ef	-0.057546552
130	0xbd5bb8d1	-0.05364305
131	0xbb212192	-0.002458666
132	0x3c39e23e	0.011345444
133	0x3d528017	0.051391687
134	0x3d3017c1	0.042991403
135	0x3d2f6c2a	0.042827763
136	0x3d5fdbf8	0.054653138
137	0x3e065034	0.13116533
138	0x39b740dd	0.00034952807
139	0xbc36f13e	-0.011165915
140	0xbbc195c2	-0.005907745
141	0x3cd7eac0	0.026357055
142	0x3d972b87	0.07381349
143	0x3c4824d7	0.012215815
144	0xbc71f9e7	-0.014769054
145	0xbba2e532	-0.00497117
146	0x3bb64b76	0.005563195
147	0xbc4510d0	-0.012027934
148	0xbce6dc9f	-0.028181372
149	0x3b8b796d	0.0042564184
150	0xbae0dec1	-0.001715623
151	0xbc8d558f	-0.017252712
152	0x3c680532	0.014161395
153	0x3d2b60b0	0.041840255
154	0x3b59458d	0.0033153028
155	0xbd1afbcc	-0.03783779
156	0xbcd75751	-0.026286753
157	0xbc68bdf6	-0.0142054465
158	0xbdb51870	-0.08842552
159	0xbcaf2079	-0.021377789
160	0xbc7a0126	-0.015259063
161	0xbcd06499	-0.025438594
162	0xbcde3838	-0.027126417
163	0xbc59166a	-0.013249973
164	0xbc1b2de8	-0.009471394
165	0x3b833816	0.0040044887
166	0x3d21db30	0.039515674
167	0x3d4a8764	0.049445525
168	0x3d0ed4be	0.034870856
169	0x3df0e6dd	0.11762784
170	0x3d358c84	0.04432346
171	0xbc26e1a3	-0.010185632
172	0xbb82ddb3	-0.0039937138
173	0x3ce59035	0.028022865
174	0x3dcdad42	0.10042812
175	0x3dae2670	0.08503425
176	0x3d67ef58	0.05662474
177	0xbbbf64b1	-0.005840861
178	0x3d9071d9	0.07052965
179	0x3c9685d2	0.018374357
180	0x3c36ea38	0.011164241
181	0x3ce986d4	0.028506674
182	0x3b1b0fc9	0.0023660532
183	0x3bf459bf	0.0074569876
184	0x3cd59e53	0.026076471
185	0x3d1ac56b	0.03778593
186	0x3d680e02	0.056653984
187	0xbcdb89a1	-0.026799025
188	0xbd2df598	-0.042470545
189	0x3b990428	0.004669685
190	0xbce8e151	-0.028427752
191	0xbc5cae29	-0.013469257
192	0x3d4a8ac6	0.04944875
193	0x3c796da6	0.015223896
194	0xbc3881f5	-0.011261453
195	0xbd328273	-0.043581437
196	0xbd3321fe	-0.04373359
197	0xbd83b98f	-0.06431877
198	0xbd09df42	-0.03366018
199	0x3c930cd5	0.017950455
200	0xbc69b16e	-0.014263494
201	0x3dcf7934	0.101305395
202	0x3dba08e6	0.090837285
203	0x3decb91a	0.11558743
204	0x3e1d9fd2	0.15392998
205	0x3d0920cf	0.033478554
206	0x3dcef198	0.10104674
207	0x3dedf0d8	0.11618203
208	0x3d0ae6fb	0.033911686
209	0x3c15294c	0.009104084
210	0x3d3ab5eb	0.045583647
211	0x3c10a92d	0.008829397
212	0x3d9304eb	0.071786724
213	0x3d760601	0.06006432
214	0x3b560a1c	0.0032659834
215	0x3cff3b1a	0.031156112
216	0xbd10041f	-0.03516018
217	0xbd78f480	-0.06078005
218	0x3d3c4e50	0.045973122
219	0x3d4234b7	0.047413554
220	0x3c03f31d	0.008053568
221	0x3c4c4516	0.012467643
222	0xbc35ad06	-0.011088615
223	0x3bd01337	0.006349947
224	0x3c29a27d	0.010353682
225	0xbc5ca579	-0.013467186
226	0xbcc2a835	-0.023761848
227	0xbd7e1540	-0.062031984
228	0xbdbb41a1	-0.09143377
229	0xbd27ce38	-0.04096815
230	0x3d0070a6	0.03135743
231	0x3d14d314	0.036334112
232	0xbcebe7ca	-0.02879705
233	0x3dca9643	0.098919414
234	0x3e2b6fc9	0.16741861
235	0x3e000df9	0.1250533
236	0x3d897302	0.06711389
237	0x3d92e353	0.07172265
238	0x3d210f64	0.03932132
239	0x3cbbcd7e	0.022925135
240	0x3db7c7ff	0.08973693
241	0x3db5a32f	0.088690154
242	0x3d7d91fd	0.061906803
243	0xbc705f06	-0.014671093
244	0xbcab7949	-0.020931857
245	0xbd80cc69	-0.06288988
246	0xbc3b5221	-0.011433155
247	0xbca2b3f0	-0.019861192
248	0xbd1c2dae	-0.0381295
249	0xbb84048d	-0.004028863
250	0x3d0fdcae	0.035122566
251	0x3c8c7417	0.0171452
252	0x3bf10a68	0.007355977
253	0xbd3df2d3	-0.046374153
254	0xbd69551d	-0.056965936
255	0xbda81602	-0.08207323

bias f4 [10]
0	0x3f28f2d8	0.6599555
1	0x3ebab35e	0.3646497
2	0xbe3a4f69	-0.18194355
3	0x3f116433	0.56793517
4	0x3f0f3384	0.5593798
5	0x3f49b13b	0.7878606
6	0x3ee8948f	0.4542584
7	0xbeaca255	-0.337176
8	0x3ea78167	0.32715914
9	0xbd428a8d	-0.047495414

weight f4 [10, 10]
0	0xbd6e47e1	-0.058174018
1	0x3eb94c63	0.3619109
2	0xbd2a69c0	-0.041604757
3	0xbe6ea86e	-0.23306438
4	0x3e1b66c9	0.15175928
5	0xbdbcf408	-0.09226233
6	0x3ec37e6a	0.38182384
7	0x3ea15e52	0.31517273
8	0x3d90085b	0.07032844
9	0x3e197c82	0.14988902
10	0x3db6ddb5	0.08929006
11	0xbe8c4e23	-0.27403364
12	0x3ee0258a	0.4377864
13	0x3ee337de	0.4437856
14	0x3da1c776	0.07899372
15	0xbc8d9e57	-0.017287416
16	0xbd19b470	-0.037525594
17	0xbd144e8d	-0.036207724
18	0xbe53d71c	-0.20687526
19	0xbdc92c3b	-0.098228894
20	0xbde8c902	-0.11366464
21	0x3c276e89	0.010219225
22	0x3ee39ec9	0.4445708
23	0xbd0ba508	-0.034092933
24	0xbed232a0	-0.4105425
25	0x3b9e62d1	0.004833557
26	0x3db23a83	0.087025665
27	0xbd04c7a7	-0.032416966
28	0xbdcd64be	-0.10028981
29	0x3e8076dd	0.25090685
30	0x3da697e2	0.08134438
31	0x3d0023bb	0.031284075
32	0xbe2f24e2	-0.17103913
33	0x3e4f85b8	0.20265853
34	0x3ed6e37a	0.41970426
35	0x3eb91f69	0.36156777
36	0xbe7d0e26	-0.24712428
37	0xbdac93b0	-0.08426607
38	0x3d3b0f0b	0.045668643
39	0x3d813483	0.06308844
40	0x3c72bdf3	0.014815795
41	0xbd8fa5d9	-0.07014055
42	0xbcc65726	-0.024211477
43	0x3e1e1126	0.15436229
44	0xbdca5d9c	-0.09881136
45	0x3ec2bb9a	0.38033754
46	0x3dbf10d3	0.09329381
47	0x3e849687	0.25896093
48	0xbde9af71	-0.11410416
49	0xbeaebdf5	-0.341293
50	0x3eab163c	0.334154
51	0xbdad900b	-0.0847474
52	0x3c3d4919	0.011553072
53	0xbe641e4a	-0.2227718
54	0x3cea193b	0.028576484
55	0xbc66d54f	-0.014088943
56	0x3cdf4147	0.027252806
57	0xbd2383d2	-0.039920636
58	0xbe68bfee	-0.22729465
59	0x3d33deaf	0.04391354
60	0x3e744313	0.23853712
61	0x3e4730b0	0.19452167
62	0x3e31a438	0.173478
63	0x3e879ba1	0.26485923
64	0xbe8b84db	-0.27249798
65	0x3e9f379f	0.31097123
66	0x3d6c8315	0.057742197
67	0xbbc8d0e1	-0.006128416
68	0x3f12e7e5	0.5738509
69	0xbdeee462	-0.11664654
70	0x3e521cec	0.20518845
71	0xbd62d2f9	-0.05537698
72	0xbede28d6	-0.4339053
73	0x3d879a8a	0.06621273
74	0xbe138ccd	-0.1440918
75	0x3e54231c	0.20716518
76	0x3ca707db	0.020389488
77	0xbc5df802	-0.013547899
78	0x3ae15e9f	0.0017194337
79	0x3ec70074	0.38867533
80	0x3ed0b1dd	0.407607
81	0x3e9481ba	0.29005224
82	0x3db3e105	0.087831534
83	0x3bd9266e	0.0066268956
84	0x3cb9cb6f	0.022680013
85	0xbc8cb192	-0.017174516
86	0xbdce375c	-0.10069153
87	0x3ee781bb	0.45216164
88	0xbe19c9af	-0.15018342
89	0xbe550e1a	-0.2080616
90	0xbd455812	-0.048179694
91	0xbe9a4a87	-0.30134985
92	0x3e3eda6d	0.1863801
93	0xbe357a07	-0.17722331
94	0x3e592d1a	0.21208611
95	0xbe275256	-0.16340002
96	0x3eec5400	0.46157837
97	0x3ecf5521	0.40494636
98	0x3e9499c7	0.29023573
99	0x3ddc69f6	0.10762398

bias f4 [10]
0	0x3de85852	0.11344971
1	0x3e7e3a29	0.24826874
2	0x3eb3a0bf	0.35083577
3	0x3f8224c9	1.0167476
4	0x3ea7253b	0.32645592
5	0xbd6070f2	-0.054795213
6	0x3c72240d	0.014779103
7	0x3e7416f0	0.23836875
8	0xbe6fc512	-0.2341502
9	0xbe7da915	-0.24771531

weight f4 [10, 10]
0	0x3d511016	0.05104073
1	0x3e0f9050	0.14019895
2	0x3e1a18ee	0.15048572
3	0xbe3bacb9	-0.18327607
4	0xbdb430c6	-0.08798365
5	0xbe2de53c	-0.16981977
6	0xbe6e6649	-0.23281206
7	0x3ece04c4	0.4023801
8	0xbd8a8f33	-0.06765594
9	0x3dd606e5	0.10450534
10	0xbc888aa0	-0.016667664
11	0x3c5cf5d9	0.013486349
12	0xbe917b12	-0.28414208
13	0xbe9fd6ce	-0.3121857
14	0x3cb5df07	0.022201074
15	0xbebf6080	-0.3737831
16	0xbe01e3d1	-0.12684561
17	0xbe0a817e	-0.1352596
18	0x3e095822	0.13412526
19	0x3f0254f7	0.50910896
20	0x3dac35f6	0.0840873
21	0x3e1e90ef	0.15484975
22	0x3d85158d	0.06498251
23	0x3d6a8ff1	0.05726618
24	0x3ebce9f8	0.36897254
25	0xbd0d75ea	-0.03453628
26	0xbe09d8d5	-0.13461621
27	0x3e71f27c	0.23627657
28	0xbedca8e6	-0.4309761
29	0xbe9117ee	-0.2833857
30	0xbe3a5256	-0.18195471
31	0x3d875a33	0.06609001
32	0xbe89f476	-0.2694432
33	0xbdd9fc87	-0.10643869
34	0xbc097f67	-0.0083921915
35	0x3dbd586e	0.09245382
36	0x3e409e54	0.18810397
37	0x3daefe0a	0.08544548
38	0x3c0a1a5d	0.008429137
39	0xbe41d908	-0.18930447
40	0xbd91c5ab	-0.0711778
41	0x3c8352c8	0.016030684
42	0x3e14cb89	0.14530768
43	0x3ec98341	0.3935795
44	0xbdb96dd6	-0.09054153
45	0xbbfd49e8	-0.0077297576
46	0xbe9b4e28	-0.30333066
47	0xbdb73716	-0.08946054
48	0xbe3a59b3	-0.1819828
49	0xbdaffcd4	-0.08593145
50	0xbdec2713	-0.1153089
51	0x3e227b0d	0.15867253
52	0xbe72895a	-0.23685208
53	0xbd93c9c6	-0.072162196
54	0x3d45ef19	0.048323724
55	0x3dc7c917	0.09755152
56	0x3e0b60a9	0.13611092
57	0xbcb29544	-0.021799691
58	0x3e08f64d	0.13375206
59	0xbeb292f6	-0.34877747
60	0xbeb4562c	-0.35221994
61	0xbee1bec2	-0.4409085
62	0xbe350fa3	-0.17681746
63	0x3e9fb840	0.3119526
64	0xbcfdecb8	-0.030996665
65	0xbe029a60	-0.12754202
66	0x3e2ef606	0.17086038
67	0xbd4b8c12	-0.04969413
68	0xbe1e55a1	-0.15462352
69	0xbe57308b	-0.21014611
70	0xbe954490	-0.29153872
71	0x3f0072da	0.5017525
72	0xbb89768d	-0.0041950406
73	0x3e096004	0.13415533
74	0xbed26534	-0.41092837
75	0xbe2905fb	-0.16506188
76	0xbe8028aa	-0.25031024
77	0xbd821dc6	-0.06353335
78	0x3db45813	0.08805861
79	0x3b58ca77	0.0033079663
80	0x3e4bec0b	0.19914262
81	0xbec71f32	-0.38890988
82	0x3e04cc58	0.12968576
83	0xbeecf417	-0.46279976
84	0xbeb22e4a	-0.3480094
85	0x3e299e28	0.16564238
86	0x3e001604	0.12508398
87	0xbecd4f94	-0.40099776
88	0x3e62e7c4	0.22158724
89	0xbe21dd34	-0.15807039
90	0xbe0e4929	-0.13895096
91	0x3d5ccef1	0.053908292
92	0xbe01a886	-0.12661943
93	0xbeba775c	-0.3641919
94	0xbe607778	-0.21920574
95	0xbd1ee8f9	-0.0387964
96	0x3df8d38f	0.121497266
97	0xbeeb2b6a	-0.4593156
98	0x3d818b0d	0.0632535
99	0x3ecc90f5	0.39954343

bias f4 [10]
0	0xbe6a9a94	-0.2291053
1	0xbec03e28	-0.3754742
2	0x3e1e6d3a	0.15471354
3	0x3eb8ab4f	0.36068198
4	0x3e917a7e	0.28413767
5	0x3de2389e	0.11045955
6	0x3eaa8082	0.3330117
7	0x3ddadde0	0.106868505
8	0x3d88e55f	0.06684374
9	0xbea37e10	-0.31932116
