Exercise2/saves/model_sigmoid.pt (torch, 377095 bytes, 6 tensors)

weight f4 [30, 3072]
000000 4e b0 03 3e 38 2e 94 3d 06 d2 96 3d fb df a7 3d
       0.12860224 0.07235378 0.073642775 0.08197018
000010 0b d6 3d bd b4 73 65 3d 88 e3 3b 3c 98 ae 38 bd
       -0.046346705 0.056018546 0.011467822 -0.04508838
000020 cb e7 a0 3b 47 24 38 3d 75 06 07 3d de 04 09 3d
       0.0049104444 0.04495647 0.032965142 0.033451907
000030 1a 95 81 3a 33 72 e2 bc cb a0 87 3c 87 8a 22 bc
       0.0009886355 -0.027642345 0.016556164 -0.009920723
000040 62 f1 c1 bc 4b c2 17 bd 69 09 2f bc ca e1 9c 3b
       -0.02367467 -0.037050527 -0.010683396 0.0047876583
000050 02 37 2e bd 6a ae 8f 3c 78 b0 ac 3d c5 07 d1 3d
       -0.04253293 0.017539222 0.08432096 0.1020656
000060 36 e2 91 3d 04 aa 65 3d 84 9e c0 3c eb 08 36 bd
       0.071232244 0.056070343 0.023513086 -0.0444421
000070 f9 92 1c bd 06 35 8f bc 9d dd b4 3d 08 82 18 3e
       -0.0382261 -0.017481338 0.08831332 0.14893353
000080 05 a2 b0 3d d4 85 26 3d 9c 1d ad 3c e6 be d2 bb
       0.08624653 0.040654972 0.021132283 -0.0064314483
000090 c8 74 5f bc 5c dc b9 3c 41 75 36 3c 6e 07 eb bc
       -0.013638683 0.022688083 0.011136354 -0.028690066
0000a0 47 ca 31 3c 3a 65 78 3c df 65 25 3d 43 38 5a 3d
       0.010851449 0.015160853 0.040380355 0.05327631
0000b0 f5 e9 81 bb 56 40 27 bd 71 dd 25 bd 28 1d 85 bc
       -0.0039646574 -0.04083284 -0.040494386 -0.016249254
0000c0 56 55 5a bd 51 8c 61 bd d2 c8 0b 3c 1c 12 a6 ba
       -0.05330404 -0.055065457 0.008531766 -0.0012670192
0000d0 1c 63 b0 bd 3d 55 a5 bd ed e2 a1 bc cd 97 bd bc
       -0.086126536 -0.080728985 -0.019761527 -0.023143673
0000e0 e6 a4 98 3c 44 4e bd 3c 45 93 12 bc c1 d5 a8 bc
       0.018633317 0.023108609 -0.008946245 -0.020609738
0000f0 b7 a7 8c bd ba ee 9b bd 21 49 55 3d 5b a6 ea 3d
       -0.068679266 -0.07613893 0.052071694 0.11457511
000100 b8 d8 bf 3c 84 0d 7f 39 eb 41 de 3c 66 df 18 3d
       0.02341877 0.0002432373 0.027131042 0.037322424
000110 c0 fa b0 3d d0 08 ac 3d 94 1c f6 3c a6 70 cf 3b
       0.08641577 0.08400118 0.030042924 0.0063305674
000120 65 a9 37 3c 7a 4c 63 3d ba 3f 47 3d 2a f2 0c 3c
       0.01120982 0.055492856 0.04864476 0.008602658
000130 73 11 43 bc 78 48 73 bd 75 e3 17 bd 84 fa 05 bd
       -0.011906016 -0.059395283 -0.037082154 -0.032709613
000140 b3 ec be bc 56 f4 04 bd 38 f8 6b bc 36 0e 05 3d
       -0.023306226 -0.03245958 -0.014402442 0.032484256
000150 88 c3 85 bd e8 60 da bc aa 29 4a b9 b0 4e 27 bd
       -0.06531435 -0.026657537 -0.00019279742 -0.040846527
000160 4a 95 f2 3b e1 a3 1b 3d 59 18 b7 3d d4 66 b1 3a
       0.0074030505 0.037998084 0.08940191 0.0013534673
000170 f1 3f c1 bd f2 5c 8d bd d3 82 d9 bc 88 6c db 3d
       -0.09436024 -0.069024935 -0.02655164 0.1071406
000180 91 84 48 3d a9 9b c9 3c 3c 10 1a 3d 1c 45 e5 3d
       0.04895455 0.024610357 0.03761314 0.11194822
000190 27 2d 94 3d 45 47 91 3d 36 67 8c bb b6 f2 b6 39
       0.072351746 0.07093672 -0.0042847646 0.0003489458
0001a0 25 56 7f 3d 30 1d b9 3c 22 f1 5b bc 9f b3 2f bd
       0.062338013 0.022596925 -0.01342419 -0.04289591
0001b0 2f 7c 69 bd 3c 90 ce bc ce de b8 bb 45 cb e1 bc
       -0.057003196 -0.02521526 -0.0056417948 -0.027562747
0001c0 b0 0f d6 bc 89 ed 90 bc 83 40 d9 3a 62 b7 25 bc
       -0.026130527 -0.01769139 0.0016575012 -0.010114523
0001d0 b5 a8 6f bd 92 52 0a bd 9a 67 b5 bc f6 05 a6 bd
       -0.0585105 -0.03377015 -0.022144128 -0.08106606
0001e0 71 09 9e bd 91 1f 60 bd 1a 91 a5 bb 05 1e e4 bc
       -0.077166446 -0.054717604 -0.005052698 -0.027846346
0001f0 0d f2 a4 bd 36 de 5c bd bb b0 f2 3b 33 ea ae 3d
       -0.0805398 -0.053922854 0.007406322 0.08540764
000200 a4 f0 a8 3d dc 4e 20 bc 41 c9 8f bc 17 23 45 3d
       0.082490236 -0.009784427 -0.01755202 0.048129167
000210 e5 4f 07 3d 55 e2 79 3d 5c e0 36 3d 9d 4c 3e bd
       0.033035178 0.061006863 0.04464756 -0.046459783
000220 bf e4 9e bc dd 11 f8 bd 64 13 be bd a5 77 92 bd
       -0.019396184 -0.12112782 -0.09281042 -0.07151727
000230 cf 1f d9 bd 7f 5a e8 bc ea 93 da bc fb 1a 19 be
       -0.1060177 -0.028363464 -0.026681859 -0.14951698
000240 86 25 a9 bd d7 8a a9 bc 98 79 7a 3d 24 52 38 bd
       -0.0825911 -0.020696087 0.061151117 -0.04500021
000250 85 3a d6 bc d3 56 06 3d 4c 96 cb 3c 07 b2 3c bd
       -0.026150951 0.032797646 0.02485194 -0.046068218
000260 6e 21 8e bd ab cb 27 bd c6 13 ae bc 50 7e 51 3d
       -0.0693997 -0.040965717 -0.021249663 0.05114585
000270 6e 82 21 3c c2 c3 4a 3d 3e 1b 33 3d 9d 03 86 3d
       0.009857757 0.049503095 0.043727152 0.06543658
000280 0a ca 71 ba fd 8e 63 bd 88 8d 7d bd 2c 23 98 3d
       -0.00092235266 -0.055556286 -0.061902553 0.074285835
000290 b4 d7 e0 3d 30 ce 6f 3d 8d 9a b8 3d 3d c4 86 3c
       0.10978642 0.058546245 0.09013853 0.016450996
0002a0 5c 29 2e bd 19 f1 12 be 1c 08 57 be a1 41 ab bd
       -0.042519912 -0.14349784 -0.20999187 -0.08362127
0002b0 77 90 37 bd 72 b1 0e 3d ac f6 26 bd 2a 77 43 be
       -0.044815507 0.034837194 -0.04076259 -0.19088426
0002c0 d8 65 8d bd 67 9b 2c bd f8 b2 4a 3d c8 9e 72 3c
       -0.06904191 -0.04214039 0.049487084 0.014808364
0002d0 66 6f 5f bd 0c 47 ba 39 aa 79 4d 3c 48 2b bc 3b
       -0.054549597 0.0003552962 0.012541214 0.005742464
0002e0 2d f8 03 bd 17 90 06 bd 8d b2 91 3c 8f 19 90 3d
       -0.0322191 -0.03285226 0.017785335 0.07036125
0002f0 28 20 f5 3d ad 43 93 3d 97 b0 9d 3d 69 ba 99 3d
       0.11969024 0.071906425 0.076996975 0.07506258
000300 77 97 8f bd bd c3 da bb ed f1 27 bd 05 c8 30 3d
       -0.070113115 -0.006676166 -0.041002203 0.043159503
000310 f9 73 97 3d 88 59 de bc c5 ad 2e 3d 5f 18 6e bd
       0.07395167 -0.027142301 0.04264619 -0.05812871
000320 9f 3d 00 3d 99 e9 41 bd 63 47 36 be 37 15 ad bd
       0.031308766 -0.047341917 -0.1780067 -0.08451312
000330 db fa 80 bd df 1a 01 bd 51 c3 7a bd 39 df f4 bd
       -0.06297847 -0.031519767 -0.061221424 -0.11956639
000340 ab ec 45 bd 3d 42 6b 3c a6 fb c9 3d 06 ff 08 3d
       -0.048321407 0.014359054 0.09862451 0.033446334
000350 cf ff 4b ba 8c a0 2f 3d 72 38 ac bb 25 b2 94 bc
       -0.0007781954 0.04287772 -0.0052557522 -0.018151352
000360 73 f5 67 3c 06 98 67 bb d6 17 68 bc 62 ef 30 3c
       0.014157641 -0.0035338416 -0.014165839 0.010799261
000370 55 bc 95 bc 1c cd 36 3d aa 56 96 3d b6 06 08 3c
       -0.01827828 0.0446292 0.073407486 0.008302381
000380 27 ab 6c 3c d7 95 33 bb 20 3c cf bc 6d e9 9b 3c
       0.014445103 -0.0027402544 -0.025297225 0.019032205
000390 31 07 43 bc e3 1e 42 3d 94 14 86 3d 37 b0 3b bd
       -0.01190357 0.047392737 0.06546894 -0.04582235
0003a0 1b 2c 9e 3a a4 9d df bc 8d 47 86 bd 3d 69 84 bc
       0.0012067588 -0.027296849 -0.06556616 -0.016163463
0003b0 37 81 61 bc ed 28 55 bb ce 56 99 bc 35 39 f8 bc
       -0.013763717 -0.0032525614 -0.01871815 -0.030300716
0003c0 c8 cb 40 3d 58 dd a1 3c ec 44 ad 3d 64 b4 b9 3b
       0.04706934 0.019758865 0.084604114 0.005667256
0003d0 7d 0a a4 3c 15 7c be 3d d5 f8 a1 3d b1 2e 2a bc
       0.020024532 0.093010105 0.07908789 -0.010387109
0003e0 b6 47 dd 3d 09 0f 98 3d c1 d3 bf 3d 36 cd a1 3d
       0.108046934 0.07424743 0.09366561 0.07900469
0003f0 4e db 45 3d c2 56 18 3e 4b a4 7c 3d be 9c b1 3d
       0.04830485 0.14876845 0.06168012 0.08672474

bias f4 [30]
000000 ba c3 a1 3d 4a 1c 71 3e a2 4a db bf 06 41 3f 3f
       0.0789866 0.23545948 -1.7132151 0.7470859
000010 c1 48 8f 3f 4c f7 83 3f 14 7b 7e be ba 32 d0 be
       1.1194078 1.0309844 -0.24851638 -0.406637
000020 5a a4 a7 3e 92 3b 77 3e 93 3f 27 3f 23 ea 74 bf
       0.32742578 0.24143818 0.6533138 -0.95669764
000030 31 bf 26 bf a4 8c 06 3f ca a8 28 bf 33 8e 29 bf
       -0.65135485 0.5255835 -0.6588255 -0.66232604
000040 04 bf 48 3e cb 05 da 3e 69 31 ac bd 75 02 46 be
       0.19604117 0.42582545 -0.08407862 -0.19336875
000050 9e 58 85 3d c6 4c 72 bf 55 8b 81 bf 90 5d 47 bf
       0.06511043 -0.94648397 -1.0120646 -0.7787714
000060 26 e8 49 3f 29 28 6d 3e 5f b2 82 bf 05 cf 85 be
       0.78869855 0.23159851 -1.0210685 -0.26134506
000070 80 88 a6 3d bc e8 ec be
       0.08131504 -0.46271312

weight f4 [30, 30]
000000 af ee 82 be 37 6b 8e be ac 66 d4 3e 10 cb 20 3f
       -0.25572726 -0.27816173 0.41484582 0.6280985
000010 58 a0 0e 3f 86 ef e7 3e 43 42 12 bf 8f 84 cb be
       0.55713415 0.4529993 -0.5713236 -0.39749572
000020 8e 53 e3 3e 46 fc 47 be bd 30 57 3f 77 3a 9d bd
       0.44399685 -0.19529828 0.84058744 -0.07677167
000030 32 b2 1c be 54 f2 0c 3f 74 b5 e4 be de a9 08 bf
       -0.15302351 0.55057263 -0.44669688 -0.53384197
000040 5f 74 82 3e 3a 1d 22 3e b0 a6 b6 3e 89 0e 07 bf
       0.2547941 0.15831462 0.35674047 -0.52756554
000050 c6 96 a1 3e 16 50 f9 3d 8e 66 74 3e d8 1e 97 3e
       0.31560344 0.12173478 0.23867247 0.2951572
000060 ef 3e 69 3f f2 19 16 3f 3e b0 0e be e2 71 14 3e
       0.91111654 0.5863334 -0.13934419 0.14496568
000070 76 c8 05 bf f3 e6 70 be ff cb ce be 38 61 20 bf
       -0.52259004 -0.235256 -0.40390012 -0.62648344
000080 15 1d 75 3f 39 43 f5 3e 1a 54 e7 be 84 87 e6 be
       0.957475 0.4790285 -0.45181352 -0.45025265
000090 6e b7 39 3f 3d 3e 3e 3f 4a 57 38 bf da 5b be 3e
       0.72545516 0.7431372 -0.7200819 0.37179452
0000a0 94 2b eb be b1 4b bd 3e 8f 84 17 be b5 c1 5a be
       -0.45931685 0.3697181 -0.14796661 -0.21362956
0000b0 04 43 2c 3e c6 61 00 3f 09 bc 91 bf 1d d7 6c bf
       0.1682244 0.5014919 -1.1385509 -0.92515737
0000c0 b7 d2 20 3f dc bc e5 3e 78 56 c3 be 3f 47 0c 3f
       0.62821525 0.4487065 -0.38151908 0.5479621
0000d0 f0 97 ba 3e 22 91 ad 3e 0d 6f e2 be d5 8b 1a bf
       0.36444044 0.3389979 -0.4422535 -0.60369617
0000e0 2d 59 a5 bd 91 c5 62 bf 8c 32 a9 3d b2 6e 71 bf
       -0.080736496 -0.8858271 0.08261594 -0.9430953
0000f0 68 00 8c 3e e9 0d 14 3f c7 c7 86 3e d5 e7 15 be
       0.2734406 0.57833725 0.26324293 -0.14639218
000100 3f 0f 14 3d b3 ba ac be 14 92 11 3f 91 2b 17 be
       0.036147352 -0.3373619 0.5686352 -0.14762713
000110 07 33 90 bd 87 8c 47 3c 2d 7a e7 be ce 63 60 3f
       -0.07040983 0.0121795 -0.452104 0.8765229
000120 a8 ab 00 3b b4 b0 a4 be 69 7b 94 be eb 32 c3 3e
       0.0019633565 -0.32166064 -0.29000404 0.38124785
000130 59 a7 da be 6d 85 57 be ce 1d ae 3e 6c 69 4c bc
       -0.427058 -0.21046992 0.34007114 -0.012476306
000140 32 86 84 bf 7f 3f 37 be 5e b6 b6 3e 7e 9b 9b bd
       -1.0353453 -0.17895316 0.3568601 -0.07598017
000150 f1 ee 38 bf 82 f5 e1 be 83 8c 2e 3f ec 03 bc be
       -0.72239596 -0.4413262 0.68183154 -0.36721742
000160 ac f4 67 3f 99 60 1f 3e 1e 0d 9b 3d 02 d1 6a 3e
       0.90607715 0.15564193 0.07570861 0.22931293
000170 e8 8e fc be a1 17 9c 3e 3d b1 97 3e 97 84 96 3f
       -0.4932778 0.30486777 0.2962741 1.1759213
000180 73 09 bd be d5 97 80 be c8 3f 5a 3e f6 df 2a bf
       -0.36921272 -0.2511584 0.21313393 -0.6674799
000190 a1 1a b2 3e 35 aa 36 be 8b 2a 2b 3e 91 72 05 3f
       0.3478594 -0.17838366 0.16715448 0.5212794
0001a0 70 58 d2 be cb 5c b2 be 9b f9 cf 3d 49 0e d0 3e
       -0.41083097 -0.3483642 0.1015503 0.406359
0001b0 18 3e b1 bd bf ee b2 be ed f5 9e 3d 64 52 3d bf
       -0.086544216 -0.34947774 0.0776175 -0.73953843
0001c0 ef 5c 05 bf 4d 29 30 bf fc 27 5a 3d d3 1e f9 3e
       -0.5209493 -0.6881302 0.05326079 0.4865633
0001d0 b6 dc 2c bf 17 41 22 3f 32 bb ae 3e 62 4c dc 3e
       -0.6752428 0.6338057 0.34127194 0.43027025
0001e0 24 90 8d be 50 5d 32 bf 0c 61 28 bf 16 09 61 3f
       -0.27649033 -0.69673634 -0.6577308 0.8790449
0001f0 c9 66 06 3d 20 42 92 bb b6 d9 7c bc cb 70 79 3e
       0.032812867 -0.004463449 -0.015432766 0.24359433
000200 b1 d6 02 bf 0b 47 06 3f 2f 51 0b 3f 40 33 81 be
       -0.51108843 0.5245215 0.5442075 -0.25234413
000210 e5 4d 6c bf 81 3c 1d 3f e5 5c d3 3e fd 39 ad 3e
       -0.9230636 0.61420447 0.4128181 0.33833304
000220 ad 9b 8a 3f 40 05 48 3f 46 93 51 3d 02 56 08 bd
       1.0828758 0.7813301 0.05116584 -0.03328515
000230 24 5b 19 bf a6 f1 b5 3e 74 ea 10 3f 38 26 3f 3e
       -0.59904695 0.35535926 0.5660775 0.18666923
000240 93 f3 1d 3f aa 25 58 3f 23 9c 35 bf a7 de 16 bf
       0.6169979 0.8443247 -0.7094137 -0.5893349
000250 ae 61 92 be 9e 7f 0d bf 26 cb 99 3e 33 a8 86 3e
       -0.2859015 -0.55272853 0.30037802 0.263002
000260 96 b7 96 bf 49 93 ab 3e f4 66 92 3e 07 dd 28 3f
       -1.1774776 0.33510807 0.28594172 0.6596226
000270 e1 ee 96 be c6 d4 a0 be 29 4b f0 bd eb d3 a7 bd
       -0.29479125 -0.31412333 -0.11733086 -0.08194717
000280 f7 3f 69 3c 23 86 26 be 60 10 72 be c0 b0 0f be
       0.014236442 -0.16262107 -0.23639059 -0.14032269
000290 a3 ef a5 be 3f bf ac be b0 6a 25 3f 39 07 42 3f
       -0.3240939 -0.3373966 0.6461592 0.7579227
0002a0 75 ae 3d be 27 a3 13 bf 93 1c e0 be aa ce 27 bf
       -0.18523581 -0.57670826 -0.437718 -0.6554972
0002b0 45 03 44 be d4 88 4a bf 37 c8 3a 3e bd 02 31 3f
       -0.19141872 -0.79115033 0.18240438 0.69144803
0002c0 6d 0b 40 bf 0e f8 4c 3e bf 30 fe 3e b1 8b 9b 3e
       -0.75017434 0.200165 0.49646565 0.30380014
0002d0 3b 8c dc 3d 00 cc 5e be 3b 34 34 3f 82 c6 e2 be
       0.10768934 -0.21757507 0.703922 -0.44292074
0002e0 cb 86 7b 3f e8 10 ae 3e bb f0 d8 be 31 14 8d be
       0.9825255 0.33997273 -0.42371163 -0.27554467
0002f0 a3 2a cd 3e d2 44 9b 3d 66 79 8d 3e 07 fc 86 bf
       0.40071592 0.07581486 0.27631682 -1.0545663
000300 6e 52 b6 3e 88 d2 22 be 21 30 71 be 17 61 11 bf
       0.35609764 -0.15900624 -0.23553516 -0.5678877
000310 88 e2 2b bd 15 da 47 bd 05 cd 14 bc d0 fb 50 be
       -0.041964084 -0.048791964 -0.009082084 -0.20408559
000320 ef 05 8c 3f a0 4d 3b 3f 78 e6 15 bf 36 93 dc be
       1.0939311 0.7316532 -0.5855479 -0.43081063
000330 ff 25 0e 3e 2a 25 32 3f 1d 38 4c be 1b 02 cb 3e
       0.13881682 0.6958796 -0.1994328 0.39650044
000340 ed 62 f1 be c7 3e c2 3e 31 c9 30 bf e1 df c8 be
       -0.47145787 0.3793852 -0.69056994 -0.39233306
000350 b9 22 8a 3f 5e db a5 be ea 7f ca 3e 8e a2 25 bf
       1.0791847 -0.32393926 0.39550716 -0.64701164
000360 9e b3 7b 3e a3 72 cd 3e 32 a8 c3 be 1a 4a ca 3e
       0.24580237 0.40126523 -0.3821426 0.3950966
000370 98 1d 5d 3d 37 33 14 3e fe 4b f4 3d b9 75 06 bf
       0.0539833 0.14472662 0.11928557 -0.5252338
000380 b1 96 2b bd 9d 24 1d 3d 1d 87 e2 be 33 d8 16 bc
       -0.041891757 0.038364995 -0.44243708 -0.009206819
000390 94 32 f1 3e fb 20 5b 3f f4 0e 5c 3f 53 86 4e 3f
       0.471089 0.855972 0.85960317 0.8067371
0003a0 85 28 60 3f 47 2f 89 3d d5 8a 90 3c 41 a2 25 be
       0.8756183 0.066984706 0.017644325 -0.16175176
0003b0 0f 11 4b 3e 33 ca 12 3e d0 b5 89 bf 94 86 f5 be
       0.19830726 0.14334945 -1.075861 -0.47954237
0003c0 7a e3 52 bf b4 8b 07 bf 36 fc ba 3e 10 ed de 3e
       -0.8237835 -0.52947545 0.36520547 0.4354024
0003d0 ac 0c 0f 3e 25 db 0b bf f2 54 ae 3e 07 22 6d 3e
       0.13969678 -0.54631263 0.34049183 0.23157512
0003e0 fa 74 26 bf c9 c7 a9 3e d0 b0 54 bd e3 f8 6b be
       -0.6502224 0.33160236 -0.051926434 -0.23044161
0003f0 ab 63 e1 be 0c 35 7e be a1 2b 18 3e 7d 0c 15 3e
       -0.44021353 -0.24824923 0.14860393 0.14555545

bias f4 [30]
000000 14 6a 99 3e 07 d1 f4 bd 6b 70 77 3d 26 5c 84 bd
       0.29963744 -0.11953931 0.060409945 -0.064628884
000010 1c cf 92 bd db c7 c7 3e 17 42 62 3e 63 b6 48 bc
       -0.07168409 0.39019665 0.22095524 -0.012250516
000020 a3 ca 69 be e4 50 49 3e cb 64 8a 3e af 12 8c be
       -0.22831206 0.19659764 0.27030024 -0.27358004
000030 74 29 ee 3e f7 e3 ba 3e b3 ba a5 3e d7 c6 7b 3c
       0.46516 0.36502048 0.32369003 0.015367231
000040 68 4a fb bd f6 01 f9 bc 6d 3c bf be ab 4f 24 3e
       -0.12270051 -0.030396443 -0.3735079 0.16046016
000050 41 0c cd bd 82 0f a0 bd d0 67 7e 3d 39 43 75 be
       -0.10012103 -0.07815458 0.062110722 -0.23951425
000060 8d dc ea 3d 09 53 aa 3e da 27 18 3d 56 fa 25 3e
       0.11467848 0.33266476 0.03714738 0.16208777
000070 62 e5 28 3e 36 68 af bd
       0.16493753 -0.085647985

weight f4 [10, 30]
000000 1c 20 2a bf 04 ba 79 be e5 95 c4 3e a4 c2 29 bf
       -0.66455245 -0.24387366 0.3839561 -0.66312623
000010 20 5a 81 be d3 e9 9c bb 28 33 e2 be 61 9b cc bb
       -0.25264072 -0.004788616 -0.44179654 -0.0062441085
000020 a7 91 0c bf 52 41 65 be b2 91 ec 3e a8 db 09 3f
       -0.5490975 -0.22388199 0.46204907 0.53850794
000030 88 e4 1e bf ca 5c 0e bf 3b 26 9c 3e 6e 14 85 be
       -0.6206746 -0.55610335 0.30497918 -0.2599215
000040 3d 1a a2 3e 88 e4 94 3e e7 82 af 3e 86 cd 8b 3d
       0.31660643 0.29080606 0.34279558 0.0682631
000050 ae cf b3 3e 11 a6 f7 3d 34 9e f1 3e a1 e1 fe 3d
       0.35119385 0.120922215 0.47191012 0.12445379
000060 ae a7 b0 3b e4 fd 23 3f 90 9b 6a 3f 50 5a 85 3e
       0.0053910827 0.6405928 0.9164362 0.26045465
000070 5b 61 75 3e 18 39 b0 be 19 e3 c5 3e 25 30 4d 3f
       0.2396292 -0.3441856 0.38649824 0.8015159
000080 20 e3 13 be f2 36 1a bf 54 bb 1f 3f 27 fc 77 bf
       -0.1444211 -0.6024009 0.62395215 -0.9686913
000090 dd 3f 09 bf 14 69 0e 3f 32 6c 19 3f 6a 21 51 bf
       -0.5361307 0.55629086 0.5993072 -0.8169161
0000a0 a2 66 0f bf 2a 1d 57 3f 6a 83 5b be 05 23 36 bf
       -0.5601598 0.84028876 -0.21436849 -0.71147186
0000b0 8e c0 40 bf 14 84 3e 3f a6 73 16 3e 5d bd 25 3f
       -0.75293815 0.74420285 0.14692554 0.6474207
0000c0 69 76 ca 3d 84 9f 06 3f fe 66 45 3e 30 6a f1 bd
       0.09885866 0.5258715 0.1927757 -0.11787832
0000d0 7c 5c 6f bf fc f8 4a 3f 92 40 d1 3e 60 29 7e bf
       -0.93500495 0.7928617 0.40869576 -0.99281883
0000e0 c5 89 60 be c1 28 97 bf e6 02 c1 3e ea c2 21 bf
       -0.21927555 -1.1809312 0.37697524 -0.6318804
0000f0 10 fa 89 39 37 35 4e bf 98 f7 e1 be 74 ee 19 3d
       0.00026316987 -0.8054995 -0.44134212 0.037580922
000100 1f fd 62 3e 88 49 ae 3e 8d 87 04 3f 53 c2 88 be
       0.2216687 0.34040475 0.51769334 -0.26710758
000110 e3 e7 88 bd 5b e4 cf 3d 81 28 1a 3f 2a cc c5 be
       -0.06684854 0.10150977 0.60218054 -0.38632327
000120 a1 b1 99 bb 45 3d 1b be 4d b6 c1 3e 80 cf cc 3e
       -0.0046903645 -0.15160091 0.37834397 0.4000206
000130 dd ae 1c bf cc ae 83 3c 12 7b a3 3e 52 91 4d 3e
       -0.6120432 0.01607456 0.31929833 0.20074967
000140 38 f0 64 3e 91 7a 0b 3f 2f 21 5e 3e d9 43 bf be
       0.22357261 0.54483896 0.21692346 -0.3735645
000150 b1 2a 41 be 13 59 13 bf 6e ac 84 3d 14 5f 96 3e
       -0.18863942 -0.5755779 0.06478201 0.29369414
000160 11 04 23 bf 86 b6 b6 bb 5a e4 c3 3e a3 01 89 be
       -0.6367808 -0.0055759577 0.38260156 -0.2675906
000170 a6 b7 91 be f9 c5 4f 3e c4 3b 54 be 54 c9 6d 3e
       -0.28460425 0.20290364 -0.20725924 0.23221332
000180 5c 4b b1 3e 01 51 07 3e 5b 34 db bd 83 76 00 3f
       0.34627807 0.13214494 -0.107033454 0.50180835
000190 14 66 b5 3e 85 c4 55 be fa 0d b1 3e f6 b0 59 3e
       0.35429442 -0.20875748 0.34580976 0.21258911
0001a0 35 de dd 3e 75 54 4a bf f2 25 0c bf 25 41 29 bd
       0.43333593 -0.7903512 -0.547454 -0.041321892
0001b0 ec c2 2b bf 46 e7 34 bf 5f 0d dd be cd 7a c7 be
       -0.670943 -0.70665395 -0.43174264 -0.38960877
0001c0 f1 7b 58 3e d4 84 85 be 16 9f f7 3e 26 a2 2b 3e
       0.2114103 -0.26077902 0.4836356 0.16761073
0001d0 3b 23 fe be 4d 54 92 be 6e ac 1a 3f 4e 92 2f be
       -0.49636254 -0.2857994 0.60419357 -0.17145655
0001e0 bf 88 38 be bf 4d 7e be 38 4c d9 be fd 39 e9 3e
       -0.18020914 -0.24834345 -0.42440963 0.45552054
0001f0 33 a6 da 3e b1 f5 df 3e 8e 8f 41 be 90 de 63 bf
       0.42704925 0.43742135 -0.18902418 -0.8901148
000200 2b 04 06 bf c6 32 f1 3e 89 8d 11 3e 05 05 52 be
       -0.5235011 0.4710905 0.14214148 -0.20509727
000210 3c 85 0f 3e 6d 99 cb 3e 74 91 dd 3e ec d0 15 3f
       0.14015669 0.39765492 0.43275034 0.58521914
000220 18 4f 4b be cd e9 3d be 2f 82 dc bd b5 4c b1 3e
       -0.1985439 -0.18546219 -0.10767018 0.34628835
000230 f9 9c 1b be 62 29 06 3f 42 d7 f0 be 06 b8 4a bf
       -0.15196599 0.52406895 -0.4703923 -0.7918705
000240 74 bf 2b 3d be 2a 25 bf 22 0b aa 3e 0b 8d 63 3e
       0.04193063 -0.64518344 0.3321162 0.22221772
000250 1a 30 45 bf 9f b9 26 3f 9c c9 b5 3e b7 b6 13 bf
       -0.7702652 0.65126985 0.35505378 -0.57700676
000260 be ee 14 3e 21 78 17 3e d4 2c 54 bf 01 19 ba be
       0.14544198 0.1479192 -0.828809 -0.363472
000270 72 16 0a 3f 6e b5 fd bd f0 48 1c bf 47 62 d6 3d
       0.539405 -0.123881206 -0.61048794 0.10467964
000280 16 a1 d9 3e dd 1f de be bf 93 0d 3f 21 dc de 3e
       0.4250571 -0.43383685 0.5530357 0.4352732
000290 a0 88 27 3f cf 7b dc be 86 e0 cd be 97 5a 33 3e
       0.6544285 -0.43063208 -0.4021036 0.17515026
0002a0 ae ed 3d bf 5f 6a da be 7f 30 0a be da cc bf be
       -0.74190795 -0.4265928 -0.13495062 -0.37460977
0002b0 c5 68 ac be 5e d0 ac be 5e 25 fb 3e 82 82 ad 3e
       -0.33673683 -0.33752722 0.49051946 0.33888632
0002c0 9a 34 0e be c8 56 56 be f0 73 8c 3e b2 24 9c 3e
       -0.13887253 -0.20931542 0.27432203 0.30496746
0002d0 76 ef 02 3f 39 cb 60 bf 42 37 5a bf 33 4d e5 3e
       0.5114664 -0.87810093 -0.85240567 0.4478546
0002e0 64 2e 56 3e 1b c4 99 3e 7d f5 ad 3e 83 21 ee 3e
       0.20916134 0.3003243 0.33976355 0.46509942
0002f0 80 c3 3b 3f 19 d3 8e 3e 85 b7 28 bf 8a d4 39 bf
       0.73345184 0.2789543 -0.6590503 -0.72589934
000300 79 3f 84 bc b1 29 bd 3e bb f5 93 be 00 ea c0 be
       -0.016143547 0.3694587 -0.28898415 -0.37678528
000310 d0 91 36 bf 8a 10 1f bf b6 ff 03 bf a5 8a dd bb
       -0.7131624 -0.6213461 -0.5156206 -0.0067609125
000320 c8 7c 5d bf 1b b8 e7 3e 6f f7 ba be 3d 0f 50 bf
       -0.86518526 0.4525765 -0.36516902 -0.8127325
000330 7f 43 07 3f e3 b1 fd 3e e0 17 3e bf 1a a6 00 3f
       0.52837366 0.4954978 -0.7425518 0.5025345
000340 80 9a 46 bf 6b 9a 1a 3e 0f 38 98 3e 61 73 b3 bd
       -0.775795 0.15097968 0.2973027 -0.08762241
000350 28 24 06 3f 16 18 e1 3e fd be 79 3e 92 4c 0c 3f
       0.5239892 0.4396369 0.24389262 0.5480434
000360 89 d1 3d bf a5 c8 74 bf 1e 32 14 bf 57 98 40 3e
       -0.7414785 -0.9561866 -0.5788897 0.18808113
000370 06 14 34 be 61 71 27 bf 10 b5 1b 3f f3 9b 14 3e
       -0.17585763 -0.6540738 0.60823154 0.14512615
000380 02 0f db 3e 02 11 b0 be 9f 97 11 3e 63 c4 7e bf
       0.42784888 -0.34387976 0.14217995 -0.9951841
000390 c1 6d e2 be 5c 34 21 3f 35 7a b0 3e 3d 1a 3d be
       -0.4422436 0.6297052 0.34468237 -0.1846704
0003a0 80 c4 80 3e 39 ef 0a bf af 98 4a bf 3c 0a c5 3e
       0.25149918 -0.54271275 -0.79139227 0.3848437
0003b0 d4 26 65 3f 62 c0 ef 3d b6 5e c8 be c3 a2 2a be
       0.8951237 0.11706616 -0.3913476 -0.16663651
0003c0 4b 10 28 bf 88 e5 25 3f 8e e2 fe 3e f1 75 67 be
       -0.6564986 0.6480336 0.49782223 -0.22603585
0003d0 b3 30 3f bf 17 94 49 bf ff 06 a4 bd d2 40 11 3f
       -0.74683684 -0.7874159 -0.08009147 0.5673953
0003e0 32 cf 1f 3e 3f da bf be f9 3d b2 3e 29 bc b0 3e
       0.15606382 -0.37471196 0.34812906 0.34518555
0003f0 49 bf 47 bf 74 21 14 bf f4 cd 3f bf b8 dc de be
       -0.78026253 -0.57863545 -0.74923635 -0.4352777

bias f4 [10]
000000 2c fc 85 bd 69 a1 43 3d 6d bc 98 3d f1 83 1c be
       -0.065422386 0.047761355 0.07457814 -0.15284707
000010 d3 fe c0 bd 2e a3 90 bd e7 55 8a 3d fa 50 0f bd
       -0.09423604 -0.07062374 0.06754666 -0.034989335
000020 77 9e 9d bc 1e df 11 bb
       -0.019240601 -0.0022258232
