Exercise2/saves/model_hl_5.pt (torch, 394667 bytes, 14 tensors)

weight f4 [30, 3072]
0	0xbd38dbad	-0.045131374
1	0xbad51433	-0.001625663
2	0x3cca30d2	0.024681482
3	0x3cbbd393	0.022928035
4	0x3bb199b5	0.0054199346
5	0xbc997e36	-0.01873694
6	0xbca8964d	-0.020579481
7	0x3bd50541	0.0065008705
8	0x3d5d3330	0.054003894
9	0x3d82d40b	0.063881
10	0x3d9ec3f2	0.07752217
11	0x3d1d8fe0	0.038467288
12	0x3c6f19bd	0.014593539
13	0x3da079e0	0.07835746
14	0x3cf1a832	0.029499147
15	0xbc209dae	-0.009803219
16	0x3c6b7fe8	0.014373757
17	0x3d1835c9	0.03716067
18	0xbbad7ea9	-0.00529464
19	0xbc7dc89a	-0.015489722
20	0x3adadb3f	0.001669742
21	0x3b6c7dd4	0.0036085742
22	0xbba76a2f	-0.0051090936
23	0x3d3b10ed	0.04567044
24	0x3d1143a8	0.035464913
25	0x3d9d9a77	0.076954775
26	0x3d81f01d	0.06344626
27	0x3d86eb88	0.06587893
28	0xba890646	-0.001045414
29	0xbcc3158e	-0.023813989
30	0xbda1eef1	-0.079069026
31	0xbdc77af7	-0.097402506
32	0xbb4b57e0	-0.003102772
33	0xbc6f11e2	-0.014591666
34	0x3c6ff367	0.014645434
35	0x3d21a742	0.03946615
36	0x3c75456d	0.014970166
37	0xbb75180d	-0.0037398369
38	0xbc8081e3	-0.015686935
39	0x3d057785	0.032584686
40	0x3d04aafb	0.032389622
41	0x3d30cdd0	0.043165028
42	0x3d395681	0.045248512
43	0xbc505dc0	-0.012717664
44	0x3bb486b0	0.00550922
45	0x3d27097d	0.040780533
46	0x3d36bb18	0.04461202
47	0x3c9edbd3	0.01939193
48	0x3cb5783c	0.022152059
49	0x3d8b8dec	0.06814179
50	0x3d23ec0c	0.040020034
51	0xbcdf7cf0	-0.027281255
52	0xbcfe483c	-0.031040303
53	0x3c80a5a1	0.015703978
54	0x3cd30e4b	0.025763651
55	0x3d89afd9	0.067229934
56	0x3c20b8e3	0.009809705
57	0x3d316aa9	0.04331461
58	0x3d7750c5	0.060379762
59	0x3d9d839a	0.07691117
60	0x3dab4ccb	0.083642565
61	0x3ce86c46	0.028371941
62	0x3ccd7e51	0.025084646
63	0xbd41c2c8	-0.0473049
64	0x3c57e4ec	0.013177138
65	0x3cf2297d	0.029560799
66	0x3ce0ee27	0.02745731
67	0x3b1e570f	0.0024160778
68	0x3bc027ea	0.005864133
69	0x3d3defb1	0.046371166
70	0x3d533940	0.05156827
71	0x3d6e9475	0.05824705
72	0x3db3b867	0.08775406
73	0x3d680294	0.056643084
74	0x3cb91a86	0.022595655
75	0xbd35394c	-0.044244096
76	0xbd18cebc	-0.037306532
77	0x3c1623d9	0.00916382
78	0x3d369f96	0.044585787
79	0x3cb51c66	0.022108268
80	0x3a186f19	0.00058148947
81	0xbb324c47	-0.002720611
82	0x3cd32bdd	0.025777752
83	0xbd683535	-0.056691367
84	0x3c76bef7	0.015060178
85	0x3d9cdda1	0.0765946
86	0x3d6c07d9	0.05762467
87	0x3d905b4d	0.07048664
88	0x3ce7d67f	0.028300522
89	0x3cdee3c1	0.02720821
90	0x3d198b7d	0.037486542
91	0x3d457a56	0.04821237
92	0x3df8877f	0.12135219
93	0x3db41f7b	0.08795067
94	0x3d4e3c1c	0.050350294
95	0x3b616180	0.003439039
96	0xbb1b320b	-0.002368095
97	0x3cc656f2	0.02421138
98	0x3cb3a58a	0.021929521
99	0x3c3a8f8c	0.011386763
100	0xbc99a5df	-0.018755851
101	0xbca2cb41	-0.01987231
102	0xbbbc5797	-0.005747746
103	0x3cf9a1c6	0.030472647
104	0x3daf1710	0.08549321
105	0x3dbf0bd0	0.09328425
106	0x3d50872a	0.050910152
107	0xbc956425	-0.01823623
108	0xb9ec8fb1	-0.00045120486
109	0x3d0cb3b2	0.03435106
110	0x3d4e7bf3	0.050411176
111	0x3d134172	0.035951085
112	0xbd353b81	-0.0442462
113	0xbd0669ff	-0.03281593
114	0xbc81b2dd	-0.015832359
115	0xbc92de54	-0.01792828
116	0x3c8e2b8c	0.01735475
117	0x3d89bbdf	0.06725287
118	0x3db7d007	0.08975225
119	0x3de31440	0.11087847
120	0x3d90701a	0.07052632
121	0x3d050f20	0.032485127
122	0x3d6bf308	0.05760482
123	0x3cb35282	0.021889929
124	0x3d6cd6b8	0.05782196
125	0x3d86e6ab	0.06586965
126	0x3d0ba8aa	0.034096397
127	0xbc8a6f91	-0.016898902
128	0x3cb3dcb6	0.02195583
129	0x3d446233	0.047945213
130	0xbc4aa68c	-0.012368809
131	0x3b7a5069	0.00381949
132	0x3d0266a3	0.031836163
133	0x3d42726a	0.047472395
134	0x3d1b879e	0.03797113
135	0x3da9d56e	0.082926616
136	0x3dd5b8ad	0.10435615
137	0x3dfdb03c	0.1238713
138	0x3c312a3e	0.010813294
139	0xbc83462d	-0.016024673
140	0x3c820ecd	0.015876198
141	0xbb9b9ac5	-0.0047486746
142	0x3cedbf91	0.02902201
143	0xbc59a96b	-0.013285021
144	0xbdb7b542	-0.08970119
145	0xbd8bd3a6	-0.06827478
146	0xbc6500fc	-0.0139772855
147	0x3c3fee6d	0.01171456
148	0x3cb4d5cd	0.022074604
149	0x3dd433a5	0.10361413
150	0x3dbb21a1	0.091372736
151	0x3d8280b7	0.06372207
152	0x3dc5f6b6	0.09666197
153	0x3dbb29bd	0.0913882
154	0x3d05081b	0.032478433
155	0x3cff30f9	0.031151282
156	0x3c8be4c4	0.017076857
157	0xbce29631	-0.027659507
158	0xbd49d7e0	-0.04927814
159	0xbba0a46f	-0.0049024145
160	0x3d6c4487	0.05768254
161	0x3db103a4	0.086432725
162	0x3d526878	0.05136916
163	0x3d25a726	0.04044261
164	0x3d582ce9	0.052777205
165	0x3d1a7c1c	0.037716016
166	0x3cf70ff5	0.030158976
167	0x3d6a1c94	0.05715616
168	0x3d80675e	0.06269716
169	0x3dc9bfd4	0.098510414
170	0x3c922580	0.017840147
171	0x3bb20f3f	0.0054339464
172	0x3cdafc6a	0.026731689
173	0xbcb0863e	-0.021548387
174	0xbb0057dc	-0.0019583618
175	0xbd0802b1	-0.03320569
176	0xbe0eb07c	-0.13934511
177	0xbdb33cb4	-0.087518126
178	0xbd4947d4	-0.049140766
179	0xbcdc7b1a	-0.026914168
180	0x3d2b3ef1	0.041808072
181	0x3d66797a	0.056268193
182	0x3c2e1287	0.010624534
183	0x3d2646fe	0.040595047
184	0x3d00eaae	0.031473808
185	0x3d5ffb3f	0.054682966
186	0x3d4eb380	0.050464153
187	0x3d873d7f	0.06603526
188	0x3d8dbf10	0.06921208
189	0xbc07312e	-0.008251471
190	0xbd07d096	-0.033157907
191	0x3d676b3e	0.05649876
192	0x3dada76c	0.08479199
193	0x3d8c938d	0.068640806
194	0x3db552e9	0.088537045
195	0x3c2b14b5	0.010441949
196	0x3c8f9eee	0.017531838
197	0x3ccb5405	0.024820337
198	0x3c2986ab	0.010347049
199	0x3c7f8b54	0.015597183
200	0x3ca943cf	0.020662216
201	0x3d3884b5	0.045048434
202	0x3b40edce	0.0029438618
203	0x3ccacf34	0.024757005
204	0x3d5c6e5c	0.053816184
205	0xbd48e142	-0.049042948
206	0xbd0bfb87	-0.034175422
207	0xbd23f351	-0.040026966
208	0xbe0b1328	-0.13581526
209	0xbda67c7f	-0.081292145
210	0xbd857863	-0.065171026
211	0xbd38a45f	-0.04507863
212	0x3d55f520	0.052235723
213	0x3baa377f	0.005194604
214	0xbcecf327	-0.028924538
215	0xba493a93	-0.000767627
216	0xbcb8a50d	-0.02253964
217	0xbc417d88	-0.011809714
218	0x3d42e774	0.047584012
219	0x3da6cc90	0.08144486
220	0x3d9dc766	0.07704048
221	0x3c464f97	0.012103937
222	0x3cda42e3	0.026643222
223	0xbb59339f	-0.003314234
224	0x3d8cf3b1	0.06882418
225	0x3d3defd0	0.04637128
226	0x3c7472f8	0.014919989
227	0xbc1663bb	-0.009179051
228	0xbc9d3ab5	-0.019193033
229	0x3bba3d15	0.005683551
230	0x3d268cf0	0.040661752
231	0x3cd884b3	0.026430463
232	0x3d16caf9	0.036814664
233	0x3d58905e	0.052872054
234	0x3d164cfb	0.036694508
235	0xbd16e2dd	-0.036837447
236	0xbd875f45	-0.06609968
237	0xbdbc3674	-0.091900736
238	0xbd464294	-0.048403338
239	0xbdb02ace	-0.08601914
240	0xbdcda043	-0.10040333
241	0x3c6ee051	0.014579848
242	0xbd0e9cfd	-0.034817684
243	0xbd8e7ae0	-0.0695703
244	0xbb941171	-0.0045186807
245	0xbda59727	-0.08085471
246	0xbda4212e	-0.08014141
247	0xbb8f94cb	-0.004381751
248	0xbd7fae77	-0.062422242
249	0x3bef7f37	0.0073088664
250	0x3d6df615	0.05809601
251	0x3d95f441	0.07321978
252	0x3d607f4c	0.0548089
253	0x3d409287	0.04701474
254	0x3d63b482	0.055592068
255	0xbc98aedd	-0.018638069

bias f4 [30]
0	0x3ed20d8e	0.41025966
1	0x3d98665c	0.074413985
2	0x3ed75781	0.42058948
3	0xbc7dd4c8	-0.015492626
4	0x3edf9b9b	0.43673405
5	0xbe7c47d9	-0.24636783
6	0x3e8816e0	0.26579952
7	0xbbc13cb8	-0.005897131
8	0xbe0d7f8b	-0.13818185
9	0xbebbff9c	-0.36718452
10	0x3e52707a	0.20550719
11	0xbe1c37a6	-0.15255603
12	0x3e3c7f04	0.18407828
13	0xbdd1d8ab	-0.10246404
14	0x3e5924a3	0.21205382
15	0x3d6290e5	0.055313963
16	0xbcd5c2b8	-0.026093826
17	0x3dfd61ca	0.123721674
18	0x3ca3ac52	0.01997963
19	0x3e1cb753	0.15304308
20	0x3e2b3930	0.16721034
21	0x3e903aa7	0.28169748
22	0xbd74bd6d	-0.059750963
23	0x3e671b6c	0.22569054
24	0xbd684f6a	-0.05671636
25	0xbe8021ff	-0.25025937
26	0xbe4c633f	-0.19959734
27	0x3e08a523	0.13344245
28	0x3e9ee9b1	0.31037667
29	0xbe476e4c	-0.19475669

weight f4 [30, 30]
0	0x3e4cd763	0.20004039
1	0xbdbcc2f0	-0.09216869
2	0xbe2e92f2	-0.17048243
3	0x3d5966dd	0.053076614
4	0xbe02bff6	-0.1276854
5	0x3e1eae36	0.15496144
6	0xbddc2ba7	-0.107505135
7	0x3ddf34cc	0.10898742
8	0xbe2d2195	-0.16907342
9	0xbe05989f	-0.13046502
10	0xbd174cd0	-0.03693849
11	0x389f859c	7.6065975e-05
12	0x3e663535	0.22481234
13	0xbd02b112	-0.03190715
14	0x3c5e41fb	0.013565536
15	0x3e06783e	0.13131806
16	0x3c99e627	0.018786503
17	0x3d87765a	0.06614371
18	0xbe24c89c	-0.16092151
19	0x3e507886	0.20358476
20	0x3c823d77	0.01589845
21	0xbd2a55fc	-0.041585907
22	0x3d09a1dc	0.033601627
23	0x3c8b24ea	0.016985375
24	0xbd2279fc	-0.039667115
25	0xbd9231d3	-0.071384095
26	0xbdd66917	-0.10469263
27	0xbdbd5489	-0.092446394
28	0x3d8667d5	0.06562773
29	0xbe13a83e	-0.14419648
30	0xbcd0c98f	-0.025486736
31	0xbcc32f9a	-0.02382641
32	0xbc1fec5e	-0.009760944
33	0xbd3673d3	-0.044544052
34	0x3ddb5987	0.10710435
35	0xbdd4b750	-0.103865266
36	0xbd4a4320	-0.04938042
37	0x3c9a92a7	0.018868757
38	0x3c9005ec	0.017580949
39	0xbe1a68f9	-0.15079106
40	0x3e415ede	0.18883845
41	0xbd0e180b	-0.034690898
42	0x3d659512	0.056050368
43	0x3dbbbebd	0.0916724
44	0xbdb70443	-0.0893636
45	0xbd4f9728	-0.050681263
46	0x3e18e265	0.14930113
47	0x3e3d3adc	0.18479484
48	0x3cbf3837	0.023342235
49	0x3e11fea9	0.14257301
50	0xbd39f2a7	-0.045397427
51	0xbce6c047	-0.028167857
52	0xbd5f837e	-0.05456876
53	0x3e5430d3	0.2072175
54	0xbdd090e0	-0.10183883
55	0xbe213a27	-0.1574484
56	0x3cc10881	0.023563625
57	0x3e00e923	0.12588935
58	0xbdf8c943	-0.121477626
59	0x3bc8b2ec	0.006124845
60	0x3e273a3c	0.16330808
61	0x3e10f0ac	0.14154309
62	0x3d7fadd0	0.06242162
63	0x3e2c95ad	0.16853972
64	0x3dbedaa6	0.09319048
65	0xbe0039ff	-0.12522124
66	0x3dec500f	0.115387075
67	0x3a69e2fb	0.00089220674
68	0xbe3bc625	-0.18337305
69	0xbdd54301	-0.104131706
70	0xbe32f010	-0.17474389
71	0xbe6028bb	-0.21890537
72	0xbcb77f6f	-0.022399632
73	0x3e493ee1	0.19652893
74	0xbdab7109	-0.08371169
75	0x3e0a57d9	0.13510074
76	0x3e966221	0.2937174
77	0xbd2219eb	-0.0395755
78	0x3dbb7106	0.09152417
79	0x3e3a2616	0.18178591
80	0x3df8cf72	0.12148942
81	0xbcc961c4	-0.024582751
82	0xbe678644	-0.22609812
83	0xbd927d03	-0.0715275
84	0x3e219089	0.15777792
85	0xbcf4955a	-0.029856373
86	0x3e466d3f	0.19377612
87	0xbdf8e835	-0.12153665
88	0x3e49f8fc	0.19723886
89	0x3dc573f7	0.09641259
90	0xbd9b6b15	-0.07588784
91	0x3d13145e	0.035908096
92	0xbc487205	-0.012234216
93	0xbd8a194f	-0.067431085
94	0x3e695986	0.22788057
95	0x3e106e6b	0.14104621
96	0x3d1c7f6f	0.038207468
97	0xbe033287	-0.12812243
98	0x3e003ef9	0.12524022
99	0xbe2f095a	-0.17093411
100	0xbe204f56	-0.15655264
101	0xbc9cee2e	-0.019156542
102	0x3df4800f	0.11938488
103	0xbdc4394e	-0.095812425
104	0x3b6b54a2	0.00359086
105	0xbda75df4	-0.08172217
106	0xbe211a5b	-0.1573271
107	0x3dc252fe	0.09488486
108	0x3d9c8614	0.07642761
109	0x3dfc265f	0.12312006
110	0x3d33084f	0.043709096
111	0xbe2ad7b9	-0.16683854
112	0xbd6daa2a	-0.05802361
113	0xbe8ceab0	-0.27522802
114	0x3e79e3d0	0.2440331
115	0xbe1011c4	-0.14069277
116	0x3e12abd1	0.14323355
117	0xbd15846f	-0.03650325
118	0x3e065869	0.13119663
119	0xbc94ba79	-0.018155323
120	0x3d6669c4	0.05625321
121	0xbdaf6cd5	-0.0856568
122	0xbdb35cb2	-0.087579146
123	0xbe1b3484	-0.15156752
124	0x3e1ab7ef	0.15109228
125	0xbe0943b2	-0.1340473
126	0x3d05f2e8	0.032702357
127	0xbd88b010	-0.06674206
128	0x3b8fde63	0.0043905242
129	0xbc15d367	-0.0091446405
130	0x3d7b2d94	0.061322764
131	0xbd027a03	-0.03185464
132	0x3e5457a1	0.20736553
133	0x3d1d7c16	0.038448416
134	0x3e42050f	0.18947242
135	0x3d055e19	0.03256044
136	0xbda48acb	-0.08034285
137	0x3dac0d99	0.08401031
138	0xbd0f4820	-0.034980893
139	0xbdf28633	-0.11842003
140	0x3e654f17	0.22393452
141	0x3c1c4408	0.009537704
142	0x3d8c6b97	0.06856459
143	0x3da81146	0.0820642
144	0x3e0f013c	0.13965315
145	0xbe3fd7fb	-0.18734734
146	0xbcff6617	-0.03117661
147	0x3e3c0349	0.18360628
148	0xbcb7277b	-0.022357693
149	0x3e0f66c3	0.14004044
150	0xbe13b17f	-0.14423178
151	0xbe12bcea	-0.14329877
152	0xbc67ba74	-0.014143575
153	0xbe1251f3	-0.14289074
154	0x3d42976a	0.04750768
155	0x3dcba325	0.09943227
156	0x3e64ac4d	0.22331353
157	0x3b33b97c	0.002742379
158	0x3ddcb6b6	0.10777037
159	0xbdc06d8f	-0.09395897
160	0x3d33a956	0.043862663
161	0x3e3b075b	0.18264525
162	0x3db1512b	0.0865806
163	0x3da0db46	0.07854323
164	0x3d4c7ae5	0.04992189
165	0x3d0d81b1	0.03454751
166	0xbd7e63e3	-0.06210698
167	0x3de27e2b	0.11059221
168	0x3e5b70e8	0.21429789
169	0xbd2919c9	-0.041284356
170	0x3d6407c5	0.055671472
171	0x3e2c4cbd	0.16826148
172	0xbca8e077	-0.020614846
173	0xbc96980b	-0.018383047
174	0x3e1d7e62	0.15380242
175	0xbe0d6411	-0.13807704
176	0xbd55be6d	-0.052183557
177	0x3dbf082a	0.09327729
178	0xbc8db469	-0.01729794
179	0x3e7c5d5d	0.2464499
180	0xbcd4a122	-0.02595574
181	0x3e41e106	0.18933496
182	0xbdb0ffa7	-0.08642512
183	0x3e352de1	0.17693283
184	0xbde498f9	-0.1116199
185	0xbd9c5c1a	-0.076347545
186	0xbdd3c58d	-0.10340414
187	0x3e367ab5	0.17820247
188	0xbe038fae	-0.12847778
189	0x3e6b3849	0.2297069
190	0xbda3aa58	-0.07991475
191	0xbb187fe3	-0.0023269586
192	0xbd70ee46	-0.058820985
193	0xbd8b54f0	-0.0680331
194	0xbe1963d5	-0.14979489
195	0xbe460a55	-0.19339879
196	0xbc667153	-0.014065105
197	0x3cb750c6	0.022377383
198	0x3e3c2761	0.18374397
199	0x3dd3fe3e	0.10351227
200	0x3c63acb9	0.013896161
201	0xbcccff98	-0.02502422
202	0x3d0ecafb	0.034861546
203	0x3d96638e	0.07343207
204	0x3d96f1c0	0.07370329
205	0x3dd3c9ac	0.103412
206	0xbdbb3fc5	-0.091430224
207	0xbd31c88d	-0.04340415
208	0x3dcba336	0.099432394
209	0xbcec1c7d	-0.028822178
210	0xbc3ccab1	-0.011522935
211	0x3e0029e7	0.12515984
212	0xbe1103be	-0.14161584
213	0x3e29ae30	0.16570354
214	0xbd6f41d3	-0.058412384
215	0x3dc323e9	0.09528334
216	0x3e38076d	0.17971583
217	0xbe094f0a	-0.13409057
218	0xbdd5db8b	-0.10442265
219	0x3ca6e2ff	0.020371912
220	0xbe05271a	-0.13003197
221	0x3d5f730f	0.054553088
222	0x3d9a8559	0.07544965
223	0x3dd8953f	0.105753414
224	0x3df7e130	0.12103498
225	0xbe029d8c	-0.12755412
226	0x3df259eb	0.11833557
227	0x3d00b810	0.031425536
228	0x3ddb0bd0	0.106956124
229	0x3cfe7bec	0.03106495
230	0xbe730edf	-0.23736142
231	0xbd22d34d	-0.039752293
232	0xbc33ebb2	-0.010981487
233	0x3c8e544c	0.01737418
234	0x3dfecf75	0.12441913
235	0x3dc393ba	0.09549661
236	0x3e248f42	0.16070274
237	0x3e40deb3	0.18834953
238	0x3d3101b6	0.043214522
239	0x3da1e06d	0.07904134
240	0x3e927fb6	0.2861306
241	0xbd396539	-0.04526255
242	0x3bb8abe0	0.0056357235
243	0xbd59c9d7	-0.053171005
244	0x3e8bf69a	0.2733658
245	0xbd7adc81	-0.061245445
246	0xbe12f4cc	-0.14351195
247	0x3e88804f	0.26660392
248	0x3dc822cf	0.09772264
249	0x3d980b0e	0.074239835
250	0x3ddd0c36	0.10793345
251	0x3dcaef4e	0.09908925
252	0x3d113139	0.035447333
253	0xbd3f9785	-0.04677536
254	0x3c777eb7	0.015105895
255	0x3e805216	0.25062627

bias f4 [30]
0	0x3ef8bbb1	0.48580697
1	0x3e9c332d	0.30507794
2	0x3dc5606b	0.09637531
3	0x3f05b61d	0.5223101
4	0x3ef65fdb	0.48120007
5	0xbe2ed0d0	-0.17071843
6	0x3d26e1e0	0.040742755
7	0x3e00c5a1	0.1257539
8	0x3e6c9051	0.23101927
9	0x3e245ba6	0.16050586
10	0x3ee7165f	0.45134255
11	0x3e6e74df	0.2328677
12	0x3d2fbdc6	0.04290559
13	0x3ded36d1	0.11582721
14	0x3d3b8750	0.04578334
15	0xbd91eead	-0.07125602
16	0xbc4dc921	-0.01256016
17	0x3e79e771	0.24404694
18	0x3e10e729	0.1415068
19	0x3df960b0	0.12176645
20	0x3ee69ac4	0.45039952
21	0xbd5a702b	-0.053329628
22	0xbec71d2f	-0.38889453
23	0xbd205677	-0.03914496
24	0x3eca0f27	0.39464685
25	0x3e41e2d4	0.18934184
26	0x3e401b35	0.18760379
27	0x3bc28016	0.005935679
28	0xbe228840	-0.15872288
29	0xbe3e7923	-0.18600897

weight f4 [30, 30]
0	0x3ea0a630	0.3137679
1	0xbdebc734	-0.11512604
2	0x3dc669dc	0.0968816
3	0x3d33d941	0.04390836
4	0xbdace5d1	-0.084422715
5	0xbcf2c6b1	-0.02963576
6	0x3cfd4ceb	0.030920466
7	0xbdbe1f55	-0.0928332
8	0x3c776ca8	0.015101589
9	0x3e4fd3a8	0.20295584
10	0x3dd0fa84	0.10204032
11	0xbe07b8bb	-0.13254063
12	0xbe1a8fe1	-0.15093948
13	0x3d199128	0.037491947
14	0x3da649b4	0.081195265
15	0xbd5230d8	-0.051316112
16	0x3d03a6ad	0.032141376
17	0x3d9abecc	0.07555923
18	0x3d7f022e	0.062257938
19	0xbe742eea	-0.23846021
20	0xbe03ce27	-0.1287161
21	0xbd22bb02	-0.039729126
22	0xbdf2c013	-0.118530415
23	0xbdfc660b	-0.12324151
24	0xbe1a92b1	-0.15095021
25	0xbe4a3b22	-0.1974912
26	0x3dead27d	0.11465929
27	0x3df67fef	0.1203612
28	0x3dd283f0	0.10279071
29	0x3e629ca1	0.22130062
30	0x3bf1a94b	0.0073749176
31	0xbdf15e7f	-0.11785602
32	0xbe55c12c	-0.2087447
33	0xbd5a42d3	-0.053286385
34	0x3d01ed99	0.03172073
35	0x3e26986e	0.16269085
36	0x3e291dab	0.16515224
37	0xbe099fa2	-0.13439801
38	0xbd215e69	-0.039396677
39	0x3e19979b	0.14999239
40	0x3e1a5163	0.15070109
41	0x3e0af9e6	0.13571891
42	0x3d495fdd	0.049163688
43	0xbd9d4a00	-0.0768013
44	0xbd84cff6	-0.06484978
45	0xbe68d6b2	-0.2273815
46	0xbdde43b1	-0.10852755
47	0xbe4f912a	-0.2027022
48	0x3d93f9d6	0.07225387
49	0xbde8b726	-0.11363058
50	0x3e3ee4b2	0.18641928
51	0xbd652f29	-0.05595318
52	0x3cf762e0	0.030198514
53	0x3e42b77f	0.1901531
54	0x3dcc1362	0.099646345
55	0x3dbf0917	0.093279056
56	0x3dbeaa6d	0.0930985
57	0x3e3958b6	0.18100247
58	0x3d3aaf02	0.045577057
59	0x3e8695db	0.26286206
60	0xbe489705	-0.1958886
61	0x3e98f0f3	0.2987133
62	0xbdfc107a	-0.1230783
63	0xbd06501a	-0.032791235
64	0x3dfb8976	0.12282078
65	0x3a448258	0.00074962294
66	0x3d89c1cb	0.06726416
67	0x3de69979	0.11259741
68	0xbd85356d	-0.06504331
69	0xbe04e9a0	-0.12979746
70	0x3e0299da	0.12754002
71	0x3d74b2c6	0.059740804
72	0x3e8dc83f	0.27691838
73	0x3df32290	0.11871827
74	0xbe869b77	-0.26290485
75	0x3e0df394	0.13862449
76	0x3e3d91bc	0.18512625
77	0xbd9d820a	-0.076908186
78	0xbe4055f9	-0.18782796
79	0xbd199fe9	-0.037506018
80	0x3cfcfc5f	0.030882059
81	0xbe05dc04	-0.1307221
82	0xbdb12820	-0.08650231
83	0x3db66570	0.089060664
84	0xbce43390	-0.027856618
85	0x3c8f9df3	0.01753137
86	0xbe4ff3bb	-0.2030782
87	0x3dc1e794	0.09467998
88	0x3cc831c6	0.024437796
89	0x3e27be1c	0.16381115
90	0xbd9176ba	-0.071027234
91	0x3dd573c3	0.104224704
92	0x3da84f86	0.08218293
93	0xbdee8616	-0.116466686
94	0x3e4de1f4	0.20105726
95	0x3dad7146	0.08468871
96	0x3cb162ed	0.021653617
97	0xbdff50ba	-0.12466569
98	0x3e3aba20	0.18235064
99	0x3dd9f763	0.106428884
100	0xbe16987e	-0.14706609
101	0xbd2c6304	-0.042086616
102	0xbe160446	-0.14650068
103	0xbce88ca5	-0.028387377
104	0x3e47463b	0.19460385
105	0xbe623cdd	-0.2209353
106	0x3e3fab2c	0.1871764
107	0xbd5f8e88	-0.054579288
108	0x3da5d69b	0.08097573
109	0xbe97e541	-0.29667094
110	0x3d7bac33	0.06144352
111	0xbdaed921	-0.08537508
112	0x3d9d2e69	0.07674868
113	0x3e2e42d6	0.17017683
114	0xbe387842	-0.18014625
115	0x3caf087f	0.021366356
116	0x3e4167b9	0.18887223
117	0x3e80cff9	0.2515867
118	0xbdbe2333	-0.092840575
119	0x3dd3f534	0.10349503
120	0x3da1ffc8	0.079101145
121	0x3d537742	0.051627405
122	0x3e295f7a	0.16540328
123	0x3e4f25d2	0.20229271
124	0xbe2d5f7c	-0.16930956
125	0x39ab7713	0.0003270438
126	0xbd0f094c	-0.034920976
127	0x3d6566b4	0.05600615
128	0x3dc22e8c	0.09481534
129	0x3e0104d5	0.125995
130	0x3e01a668	0.12661135
131	0xbe18dca0	-0.14927912
132	0x3e6ea138	0.23303688
133	0x3e0f2f64	0.13982922
134	0x3ceaaee5	0.02864785
135	0xbd58c6c7	-0.052923944
136	0xbdcdbe4a	-0.100460604
137	0x3bc3c376	0.0059742285
138	0xbbeda97b	-0.0072528697
139	0x3e392aa1	0.18082668
140	0x3e2e5882	0.1702595
141	0x3e096e64	0.13421017
142	0xbe3c2b63	-0.18375926
143	0x3e066112	0.13122967
144	0x3d254db9	0.040357325
145	0x3ca7f288	0.02050139
146	0xbd732b25	-0.059367318
147	0xbe4ba644	-0.19887644
148	0xbdc3f831	-0.09568823
149	0x3e523a9f	0.20530175
150	0x3e2db07b	0.16961853
151	0xbdbbc0de	-0.09167646
152	0xbc927348	-0.017877236
153	0x3e27df5a	0.16393796
154	0xbe3cb841	-0.18429662
155	0xbded6940	-0.115923405
156	0xbe0a47f0	-0.13504004
157	0x3e10e270	0.14148879
158	0x3c9f848e	0.019472387
159	0xbe0b53fd	-0.13606258
160	0x3ca7e437	0.020494564
161	0x3e308e0f	0.17241691
162	0xbdcb09b4	-0.0991396
163	0xbcdd74f4	-0.027033307
164	0xbd9d244a	-0.07672937
165	0xbdb1cca6	-0.08681612
166	0xbdae3d9a	-0.08507843
167	0xbd5da4e7	-0.05411234
168	0xbd882dff	-0.06649398
169	0xbd1534bd	-0.03642725
170	0x3e7d8e87	0.24761401
171	0x3e07159a	0.13191834
172	0xbdf8663d	-0.121288754
173	0xbd2edeb4	-0.042692855
174	0x3e5a32b8	0.2130841
175	0xbde8067d	-0.113293625
176	0x3e8040de	0.2504949
177	0x3d5b87eb	0.05359642
178	0x3e878f74	0.26476634
179	0x3e3366c7	0.17519675
180	0xbdd7195f	-0.10502886
181	0xbdd37e23	-0.10326793
182	0x3e1dc274	0.15406209
183	0xbe332e87	-0.17498218
184	0xbd716719	-0.058936212
185	0x3d600528	0.054692417
186	0xbd086882	-0.03330279
187	0xbd8137b9	-0.063094564
188	0x3e315a0d	0.17319508
189	0x3b26545c	0.0025379872
190	0x3cbf9cf0	0.023390263
191	0xbe55a11f	-0.20862244
192	0x3d18d757	0.03731474
193	0x3e330ea1	0.17486049
194	0xbd5620af	-0.052277263
195	0x3e17f849	0.14840807
196	0x3d851881	0.064988144
197	0xbd319a77	-0.0433602
198	0x3e66ac93	0.2252677
199	0x3e7ed473	0.2488573
200	0xbe5d1197	-0.21588741
201	0x3d8dd3fd	0.06925199
202	0x3d3fbe03	0.04681207
203	0xbe035af5	-0.12827666
204	0xbccbdbe4	-0.024885125
205	0x3ddb5bab	0.10710844
206	0x3dcc04f3	0.099618815
207	0xbd710289	-0.05884031
208	0x3e8056af	0.25066134
209	0x3e7fc0a5	0.24975832
210	0x3e43cac9	0.19120325
211	0xbd82acef	-0.06380641
212	0x3d963a4e	0.073353395
213	0xbe23ad13	-0.15983991
214	0x3e133b42	0.14378074
215	0xbd864f3d	-0.06558082
216	0x3cc47244	0.023980267
217	0xbda55e32	-0.08074607
218	0x3c9b99f6	0.018994313
219	0xbc8da4c5	-0.017290482
220	0x3e34381f	0.17599533
221	0xbbbd0cbf	-0.0057693417
222	0x3da4171c	0.0801222
223	0x3e40fc15	0.18846162
224	0xbe280d56	-0.16411337
225	0x3dcc9d41	0.09990931
226	0xbbdcacfb	-0.006734488
227	0x3c800eb9	0.01563202
228	0x3ccbde72	0.024886344
229	0xbe920fc1	-0.28527644
230	0x3d4f8cd1	0.050671402
231	0x3e7e3d37	0.24828039
232	0xbdb99df1	-0.09063328
233	0xbdf5dc33	-0.1200489
234	0x3e722e44	0.23650461
235	0x3e3304f1	0.17482354
236	0xbd2e7b2e	-0.042597942
237	0x3e18194d	0.14853401
238	0x3e2b8247	0.16748916
239	0x3e1e2d82	0.15447047
240	0xbd783a2f	-0.060602363
241	0xbe23bfd8	-0.15991151
242	0x3e69f44a	0.22847095
243	0x3e3babcd	0.18327256
244	0xbe6103d6	-0.2197412
245	0x3e2ea7a3	0.17056136
246	0x3cc378b6	0.02386127
247	0x3e61855e	0.22023532
248	0xbcc1decf	-0.023665814
249	0x3e118beb	0.1421353
250	0x3e187c17	0.14891087
251	0xbe4b5768	-0.19857562
252	0x3d27439e	0.04083597
253	0xbe027cc7	-0.12742911
254	0x3e2a5f98	0.16638029
255	0x3cb86841	0.02251065

bias f4 [30]
0	0x3d5499e9	0.051904593
1	0x3e764bf1	0.24052407
2	0x3e0bc3fd	0.13648982
3	0x3d3ef98c	0.046624705
4	0x3edb1685	0.4279062
5	0x3ec0e2c4	0.37673008
6	0xbe885f14	-0.2663504
7	0x3e3c8258	0.18409097
8	0xbe992b9c	-0.29916084
9	0xbe5ef0ba	-0.21771517
10	0x3f06d14a	0.526631
11	0xbe84427a	-0.25831968
12	0x3f14acc5	0.58076125
13	0xbea2f4e4	-0.31827462
14	0xbd13bd2f	-0.03606909
15	0x3e7f2d4f	0.24919628
16	0x3ec92088	0.39282632
17	0xbc4a402f	-0.012344404
18	0x3e4764b2	0.19472006
19	0x3ebb1cd3	0.3654543
20	0xbd10f2bd	-0.035387743
21	0xbdb724d4	-0.08942571
22	0xbeaedda6	-0.3415348
23	0x3e60bc77	0.21946894
24	0x3e40f017	0.18841587
25	0xbc9fe51e	-0.019518431
26	0xbe4aa4c4	-0.19789416
27	0x3f120f97	0.5705504
28	0x3e87e38d	0.26540795
29	0x3ea90be4	0.33016884

weight f4 [30, 30]
0	0xbda64dde	-0.08120321
1	0x3be37fa0	0.0069427043
2	0xbda96811	-0.08271802
3	0xbbf8886c	-0.007584622
4	0x3e5800c3	0.2109404
5	0x3cee56b0	0.02909407
6	0xbdbcdd8f	-0.092219464
7	0xbc2a2a7c	-0.010386106
8	0xbdc319c7	-0.09526401
9	0xbc0fe4e3	-0.008782598
10	0xbd3a032c	-0.04541318
11	0x3d249721	0.04018319
12	0xbcd5361f	-0.026026784
13	0xbe2b663b	-0.16738217
14	0x3e2d7b9e	0.16941687
15	0x3b860feb	0.004091253
16	0x3db04d7b	0.08608528
17	0xbdf49fa3	-0.11944511
18	0x3ddc0dce	0.107448205
19	0x3d8df9f8	0.069324434
20	0x3e1809ff	0.14847563
21	0xbd9bee19	-0.07613773
22	0xbe0cac54	-0.13737613
23	0x3cd74424	0.02627761
24	0xbbf365c3	-0.0074279024
25	0x3e27a324	0.16370827
26	0xbe8201b8	-0.25391936
27	0x3d9575e5	0.07297877
28	0x3dbd5ba5	0.092459954
29	0x3df011ad	0.117221214
30	0x3e45b22a	0.19306245
31	0x3d0fa888	0.035072833
32	0xbdf83304	-0.121191055
33	0x3e32e098	0.17468488
34	0xbdf633ad	-0.12021575
35	0xbe957f99	-0.29198912
36	0x3caf5d06	0.021406662
37	0xbe309ed9	-0.17248096
38	0xbd0ee39a	-0.034885027
39	0xbdd1bb87	-0.10240846
40	0x3e3d1260	0.18464041
41	0xbdc4cbe1	-0.09609199
42	0x3e80cd6f	0.25156733
43	0xbde89744	-0.11356977
44	0xbe424634	-0.18972093
45	0x3e4b9e99	0.19884719
46	0x3cf73c4d	0.03018012
47	0x3e2ed881	0.17074777
48	0xbc814e30	-0.015784353
49	0x3e4d1868	0.20028841
50	0x3e1115ee	0.14168522
51	0xbe944811	-0.28961232
52	0xbd024adb	-0.03180967
53	0xbe11f5c4	-0.14253908
54	0xbe4d2c8d	-0.20036526
55	0xbcb37b66	-0.021909427
56	0xbd915a06	-0.07097249
57	0xbdeac1df	-0.11462759
58	0xbcfb3ac3	-0.030667668
59	0x3d661abb	0.056177836
60	0xbd58c83f	-0.052925345
61	0x3d05ce7e	0.03266763
62	0xbca40af2	-0.02002475
63	0xbc9ea167	-0.019364072
64	0x3cf29ba9	0.02961524
65	0x3de68fc3	0.11257889
66	0x3e2f0468	0.17091525
67	0xbdd869ca	-0.10567053
68	0x3e4db6c9	0.20089258
69	0xbca914ce	-0.020639803
70	0xbe2e5e22	-0.17028096
71	0x3e284882	0.1643391
72	0xbe5178f8	-0.20456302
73	0x3dda5f87	0.10662752
74	0xbc9ae338	-0.018907174
75	0xbdd29816	-0.10282914
76	0xbe1bd508	-0.15217984
77	0xbd4fc7f8	-0.050727814
78	0x3b4a0380	0.003082484
79	0xbd5c8266	-0.053835295
80	0x3e29f0a5	0.16595705
81	0xbe28df0c	-0.16491336
82	0xbe0ecba9	-0.13944878
83	0x3cd6a89f	0.026203452
84	0x3e3895ad	0.18025847
85	0x3d2dc264	0.042421713
86	0xbdf5e7db	-0.120071135
87	0xbd9ac4a3	-0.07557037
88	0x3e3a8f97	0.18218838
89	0x3ce89162	0.028389636
90	0x3dba85d2	0.091075554
91	0x3dfd733b	0.12375494
92	0x3e04bac0	0.12961864
93	0xbddc1600	-0.10746384
94	0x3dc926d1	0.09821857
95	0x3aa47294	0.0012546354
96	0x3e4ad5b8	0.1980809
97	0xbb8fba8b	-0.0043862513
98	0x3cdc21e9	0.026871638
99	0x3aedb073	0.0018134251
100	0xbe34d5ac	-0.17659634
101	0xbe505103	-0.20343404
102	0x3c343077	0.010997883
103	0x3e4eb23d	0.2018518
104	0xbdd82127	-0.10553198
105	0xbbc7ed8a	-0.006101315
106	0xbe39fa1c	-0.18161815
107	0x3e1f131f	0.15534638
108	0x3de9806a	0.11401446
109	0x3e977d7e	0.2958793
110	0x3e168936	0.1470078
111	0xbeb3d838	-0.351259
112	0x3d0eb8e7	0.034844305
113	0x3cf2a4b0	0.029619545
114	0x3da4b67c	0.08042619
115	0xbbd5f87b	-0.0065298653
116	0x3e8bad1d	0.27280512
117	0xbe3b3923	-0.18283515
118	0x3e16c778	0.14724529
119	0x3e0a12c9	0.13483728
120	0x3daf01d3	0.0854527
121	0xbd9eb328	-0.07749015
122	0x3d9e2a70	0.07722938
123	0x3e4c3a9a	0.1994423
124	0x3c0f09f0	0.008730397
125	0x3d2f9f35	0.04287644
126	0x3dfa1982	0.122118965
127	0x3dde72de	0.10861753
128	0xbc466cf2	-0.0121109355
129	0x3d193661	0.037405375
130	0xbd1cb653	-0.038259815
131	0x3db9fc45	0.0908132
132	0x3deea261	0.11652065
133	0xbe58582e	-0.21127388
134	0xbd24d02c	-0.04023759
135	0xbdb1a5f8	-0.08674234
136	0x3d1aa4fd	0.037755
137	0x3e7ae26e	0.24500439
138	0xbdc2de81	-0.095150955
139	0xbe42d8f6	-0.19028077
140	0x3d473fdc	0.048644885
141	0xbdb4e469	-0.08832628
142	0x3d897bc5	0.0671306
143	0xbd9c044d	-0.07618008
144	0x3d1083bc	0.03528188
145	0xbe0c5edb	-0.1370806
146	0xbe3a799d	-0.18210454
147	0x3e441108	0.19147122
148	0xbde0a3d2	-0.10968746
149	0x3ddd5ab2	0.108083144
150	0x3e276b05	0.16349418
151	0xbe3667dc	-0.17813057
152	0x3e82a47c	0.25516117
153	0x3e6ef8c9	0.23337092
154	0xbc57fdf7	-0.0131831085
155	0xbd1f49d9	-0.038888786
156	0x3cfaa118	0.030594394
157	0xbdbcddc0	-0.09221983
158	0xbd825c13	-0.06365218
159	0xbdde4596	-0.10853116
160	0xbd21a90d	-0.03946786
161	0x3d2d44f1	0.042302076
162	0xbe33356f	-0.17500852
163	0x3cabc092	0.020965848
164	0xbb22707d	-0.0024786287
165	0xbd302d02	-0.043011673
166	0x3e800b22	0.25008494
167	0x3e75afd4	0.23992854
168	0xbe8066e6	-0.25078505
169	0x3e110e21	0.14165546
170	0xbe101153	-0.14069109
171	0xbe50dcaf	-0.20396684
172	0x3dd87a66	0.10570221
173	0xbe2e5acf	-0.17026828
174	0x3dac65a2	0.084178224
175	0x3da829a4	0.08211067
176	0xbdf15a6f	-0.11784827
177	0xbd17ac35	-0.037029464
178	0x3daa4a1b	0.08314916
179	0x3e2f4adc	0.171184
180	0x3dea1dd8	0.114314735
181	0x3d6899ad	0.05678718
182	0x3e899fd2	0.26879746
183	0xbe08c855	-0.1335767
184	0x3d6b7407	0.0574837
185	0x3e9ebe46	0.31004542
186	0x3e1e8bf0	0.1548307
187	0x3e7fad52	0.2496846
188	0xbe2dc029	-0.16967835
189	0xbd5a228f	-0.053255614
190	0x3dc595a2	0.09647681
191	0xbe3a5451	-0.18196227
192	0x3da41444	0.08011678
193	0xbd87ba73	-0.06627359
194	0xbd15221a	-0.036409475
195	0x3df993de	0.121864066
196	0xbe549979	-0.2076167
197	0x3e795ba8	0.2435137
198	0xbc9406ca	-0.018069644
199	0x3eaeb715	0.34124056
200	0x3d5e82bd	0.0543239
201	0xbdabd84c	-0.08390865
202	0xbd5d823a	-0.05407927
203	0x3e043466	0.12910613
204	0x3ce403ce	0.027833845
205	0x3e2cb542	0.1686602
206	0x3dcde311	0.10053075
207	0x3e1ec58b	0.15505044
208	0xbe05cca2	-0.13066342
209	0xbd48aff3	-0.048995923
210	0x3e609ec7	0.21935569
211	0xbcdca38c	-0.026933454
212	0x3d865124	0.06558445
213	0x3d1eb718	0.03874883
214	0x3e7b432a	0.2453734
215	0x3e37a4a0	0.17933893
216	0xbddef961	-0.10887409
217	0x3d3399be	0.04384779
218	0x3c2b7b75	0.010466446
219	0xbd8a850a	-0.067636564
220	0x3e78575f	0.2425208
221	0xbbd3587b	-0.0064497567
222	0x3e6dd157	0.23224388
223	0xbe37db79	-0.17954816
224	0xbd3b1641	-0.04567552
225	0x3e9554d9	0.29166296
226	0x3d32bc3c	0.043636546
227	0x3c56380b	0.013074885
228	0xbdb2aacf	-0.087239854
229	0x3e5540e0	0.20825529
230	0xbdc201dd	-0.09473012
231	0xbdaf1182	-0.08548261
232	0xbc5fd25c	-0.013660993
233	0x3e94a066	0.29028624
234	0x3e620d14	0.22075301
235	0x3e39300d	0.18084736
236	0xbe03b10a	-0.12860504
237	0x3e235a1a	0.1595234
238	0x3a76334b	0.00093917985
239	0xbd46b192	-0.048509188
240	0x3dd01366	0.1015995
241	0x3d5744ec	0.052555963
242	0xbda9e714	-0.08296028
243	0x3dd623e1	0.10456062
244	0x3e09716c	0.13422173
245	0xbe82172a	-0.25408298
246	0xbda1879e	-0.07887195
247	0xbe382b05	-0.1798516
248	0x3c9db374	0.019250609
249	0x3de98044	0.11401418
250	0xbe05a722	-0.13052037
251	0x3d30424e	0.043031983
252	0xbe3ae86d	-0.18252726
253	0xbcc61c47	-0.024183406
254	0x3d31e878	0.04343459
255	0xbdb65df6	-0.089046404

bias f4 [30]
0	0x3e940cdf	0.2891607
1	0x3eb3f0ad	0.3514456
2	0xbe66e984	-0.22550017
3	0xbed752d2	-0.42055374
4	0x3d5b08e2	0.05347527
5	0x3e58393f	0.21115588
6	0x3d55ffa5	0.052245755
7	0x3ee669e2	0.45002657
8	0x3d89e91b	0.067339145
9	0x3c3ca44f	0.011513784
10	0xbe6472f5	-0.22309478
11	0x3eb0fb2e	0.34566635
12	0xbe241b3c	-0.16026014
13	0x3e2dda03	0.16977696
14	0x3ee07f60	0.4384718
15	0xbd96a2cf	-0.07355272
16	0x3d80b197	0.062838726
17	0xbea09d41	-0.31369975
18	0x3ebaf3af	0.3651404
19	0x3ef387d0	0.47564554
20	0x3eda049d	0.42581645
21	0xbe1a52e4	-0.15070683
22	0xbcfbb6f1	-0.030726882
23	0xbd21d80b	-0.039512675
24	0x3e89d581	0.26920703
25	0x3e4d9f64	0.20080334
26	0x3d6e7237	0.058214393
27	0xbe7d52d7	-0.24738632
28	0xbe95580c	-0.29168737
29	0x3f247175	0.6423562

weight f4 [30, 30]
0	0xbb97a1e8	-0.004627455
1	0xbe337418	-0.17524755
2	0xbd55c55e	-0.052190177
3	0x3dcde228	0.100529015
4	0xbe24fd16	-0.1611217
5	0x3db732bd	0.089452244
6	0x3d893148	0.06698853
7	0xbe084c07	-0.13310252
8	0x3ab2a5b5	0.0013629707
9	0xbe353a53	-0.1769803
10	0xbe3e0a49	-0.18558611
11	0x3c4ed670	0.012624368
12	0x3d5bb7c1	0.05364204
13	0xbd4e20e3	-0.050324332
14	0x3daa95a6	0.083293244
15	0xbda121cc	-0.07867774
16	0xbe022a47	-0.1271144
17	0xbe26915d	-0.16266389
18	0xbe10f665	-0.14156492
19	0xbd7805c8	-0.06055239
20	0xbdd10e01	-0.10207749
21	0x3df2fbad	0.118644096
22	0x3d1b16b9	0.037863467
23	0xbe27913a	-0.16363993
24	0xbe3c6cee	-0.18400928
25	0x3e2bc9d4	0.1677621
26	0xbda5a3a1	-0.0808785
27	0x3d8147e9	0.06312544
28	0xbe449b20	-0.191998
29	0x3e396aa8	0.18107092
30	0xbe8134c5	-0.25235572
31	0xbe0a7e7b	-0.13524811
32	0x3cd89a99	0.026440905
33	0xba968dff	-0.001148641
34	0x3e216fe9	0.15765347
35	0xbc739cad	-0.014868897
36	0x3dabcfbc	0.083892316
37	0xbcd0327c	-0.025414698
38	0x3d8fe9d9	0.07027025
39	0x3d40a6d7	0.04703411
40	0xbe2ba5ff	-0.16762541
41	0x3d9c9e50	0.07647383
42	0x3d96e483	0.07367804
43	0xbd6eb26c	-0.058275625
44	0xbd098c8e	-0.03358131
45	0xbe4021cc	-0.18762892
46	0x3e3ecde2	0.18633226
47	0x3d3f9c58	0.04677996
48	0xbe77b462	-0.24189904
49	0x3e537bd4	0.20652705
50	0x3dc659d4	0.09685102
51	0x3e28b70b	0.16476075
52	0x3e40eb1f	0.18839692
53	0xbe9c826d	-0.30568257
54	0xbe5df9ff	-0.21677397
55	0xbdccb9b5	-0.09996358
56	0x3d041f21	0.03225625
57	0x3de8b06d	0.113617755
58	0xbd424092	-0.04742486
59	0x3e3a7ed6	0.18212447
60	0x3daf981c	0.085739344
61	0xbca5e03f	-0.02024853
62	0xbe90a389	-0.28249767
63	0x3da568be	0.080766186
64	0xbe0642cf	-0.13111423
65	0x3e287352	0.16450241
66	0x3d97f3c5	0.07419542
67	0x3db322e1	0.08746887
68	0xbe70dd42	-0.23521903
69	0xbdae6180	-0.085146904
70	0xbe89aed0	-0.26891184
71	0x3e53a4b4	0.20668298
72	0x3e029765	0.12753065
73	0x3d336aa6	0.04380288
74	0xbd95474b	-0.07288989
75	0x3d015f82	0.031585224
76	0xbe313d49	-0.17308535
77	0x3e78227f	0.24231909
78	0x3d788317	0.060671892
79	0x3d98b5e1	0.07456566
80	0x3d8a2a5d	0.067463614
81	0xbdf31993	-0.11870112
82	0xbe164399	-0.14674224
83	0x3d33a88c	0.04386191
84	0x3ca4d4fe	0.020121094
85	0x3e5de0ae	0.2166774
86	0xbe3c6285	-0.18396957
87	0xbdd15b76	-0.10222523
88	0xbd4303f7	-0.047611203
89	0x3e19dd89	0.15025915
90	0x3e306f9d	0.17230077
91	0x3d9b5930	0.075853705
92	0xbcce8b0a	-0.025212783
93	0xbcad01e7	-0.021119071
94	0xbdbb977a	-0.09159751
95	0xbe2f828f	-0.17139648
96	0x3dd3dd25	0.10344914
97	0xbc755f31	-0.014976309
98	0xbda8637b	-0.082220994
99	0xbe16ebe5	-0.14738424
100	0xbc803cef	-0.015654055
101	0x3e6e0f11	0.23247935
102	0x3c6e6faa	0.01455299
103	0x3d941473	0.07230463
104	0x3d5c2152	0.053742714
105	0xbe154da8	-0.14580405
106	0x3d9d26d4	0.076734215
107	0xbe74901d	-0.238831
108	0xbde65443	-0.112465404
109	0x3e42b4bf	0.19014262
110	0x3e0cfbcb	0.13767926
111	0x3d96fd3e	0.07372521
112	0x3d75a770	0.059974134
113	0xbdd54f5a	-0.10415526
114	0x3e8058a4	0.25067627
115	0x3cc9baf5	0.02462528
116	0x3cca6f4d	0.024711275
117	0xbe19170a	-0.14950195
118	0xbe633e2d	-0.22191687
119	0x3e516603	0.2044907
120	0xbd2714f8	-0.04079148
121	0xbb36d64b	-0.0027898725
122	0xbd7c8d80	-0.061658382
123	0xbe2359ea	-0.15952268
124	0xba997f36	-0.0011710885
125	0xbe1c96f8	-0.15291965
126	0xbde5fb0b	-0.11229523
127	0x3d610891	0.05493981
128	0x3d79b81e	0.060966603
129	0xbe0de821	-0.13858081
130	0x3e65812c	0.22412556
131	0xbe86cdb6	-0.2632882
132	0x3e6061b9	0.21912278
133	0xbcce04b6	-0.02514873
134	0x3df8a5f2	0.121410266
135	0x3e1a5d1d	0.15074582
136	0x3e943f41	0.2895451
137	0xbcc89541	-0.024485232
138	0x3d59c4ef	0.053166326
139	0xbd566e27	-0.052351143
140	0x3ce4929c	0.02790194
141	0x3d5b2552	0.05350239
142	0x3e44deaf	0.19225572
143	0x3da9fda1	0.08300329
144	0x3dfc81e1	0.1232946
145	0x3d9881d8	0.07446641
146	0x3ad23642	0.0016037899
147	0x3d194b20	0.03742516
148	0x3e2ae1b6	0.16687664
149	0xbde84a52	-0.113423005
150	0x3e70716c	0.23480767
151	0xbe215eb9	-0.1575879
152	0x3ead85bf	0.33891103
153	0x3e0de397	0.1385635
154	0xbe38c01d	-0.18042035
155	0x3c05c7f5	0.008165349
156	0xbd2eebe4	-0.04270543
157	0xbd66a53e	-0.05630993
158	0xbd911728	-0.07084495
159	0xbd04f255	-0.03245767
160	0x3df9c08b	0.12194928
161	0xbe32e16c	-0.17468804
162	0xbb363aa3	-0.0027805946
163	0xbdbf3661	-0.09336544
164	0x3cabc196	0.020966332
165	0x3c3fa06a	0.011695961
166	0x3e75072e	0.2392852
167	0x3de02f7f	0.10946559
168	0xbd0ffda5	-0.035154004
169	0xbcbb57bc	-0.022868983
170	0xbd51b41d	-0.05119716
171	0x3cb62157	0.022232695
172	0x3dcd78e6	0.10032825
173	0x3d28f504	0.04124929
174	0x3e0275eb	0.12740295
175	0x3e046098	0.12927473
176	0x3dec2710	0.11530888
177	0xbe4d2a0d	-0.20035572
178	0xbe42e37c	-0.19032091
179	0x3e1286f1	0.14309289
180	0x3e12a597	0.1432098
181	0xbc550126	-0.013000762
182	0x3d8e8dfa	0.06960674
183	0xbda04e61	-0.078274496
184	0x3e40bb8b	0.18821542
185	0x3e53d267	0.20685731
186	0xbe3492d1	-0.17634131
187	0xbdd42b6c	-0.103598446
188	0xbc96ebfc	-0.018423073
189	0x3d4a289a	0.049355127
190	0xbe621047	-0.22076522
191	0x3d204db3	0.0391366
192	0x3e041f97	0.12902676
193	0xbb1d4404	-0.002399684
194	0xba084d23	-0.00051994825
195	0xbe11c8b3	-0.14236717
196	0xbe204233	-0.15650253
197	0x3d99940b	0.0749894
198	0xbe44cfaa	-0.19219843
199	0xbd9c9b04	-0.076467544
200	0x3e05412a	0.1301314
201	0x3d8329a0	0.06404424
202	0x3d86d050	0.06582701
203	0xbdb1cb3f	-0.08681344
204	0x3e19a1c1	0.1500311
205	0xbd6d474c	-0.057929322
206	0xbe141fb2	-0.14465216
207	0xbd8070b3	-0.06271496
208	0x3d943095	0.07235829
209	0x3e872750	0.2639718
210	0x3ddf261a	0.10895939
211	0x3c4cc18d	0.012497318
212	0x3e09ca82	0.13456157
213	0x3df0869d	0.117444254
214	0x3e2e63a3	0.17030196
215	0x3a0d4d7c	0.0005390269
216	0xbe179877	-0.14804254
217	0xbdc843a3	-0.09778526
218	0x3db67601	0.08909226
219	0x3d7fadf9	0.062421773
220	0x3da99704	0.08280757
221	0x3e70e2f4	0.23524076
222	0xbd9ee715	-0.07758919
223	0xbcf79fd0	-0.030227572
224	0x3e2de6cf	0.16982578
225	0x3dd1e718	0.10249156
226	0x3cfe5650	0.031047016
227	0xbe6e9624	-0.23299462
228	0x3cf4f669	0.029902654
229	0x3e264202	0.16236117
230	0xbd6053ff	-0.054767605
231	0x3df8e0a9	0.121522255
232	0xbd821e06	-0.06353383
233	0xbe399e88	-0.18126881
234	0x3e906645	0.28203025
235	0xbdd52660	-0.1040771
236	0x3e7dc556	0.24782309
237	0x3d516bcb	0.05112819
238	0xbe1e44e9	-0.15455975
239	0x3e950171	0.29102662
240	0xbdff92d1	-0.12479175
241	0xbe3b140a	-0.18269363
242	0xbd2cefff	-0.042221066
243	0x3d678727	0.056525376
244	0x3d622600	0.05521202
245	0x3e49be95	0.19701608
246	0x3e652a9a	0.22379532
247	0xbdfd39df	-0.12364554
248	0x3e9536ea	0.2914346
249	0xbda67d72	-0.081293955
250	0x3c4d679f	0.012536912
251	0xbbeae7b3	-0.007168734
252	0x3a92141a	0.0011144907
253	0xbe1008ef	-0.14065908
254	0x3dc95e43	0.09832432
255	0x3bf62894	0.0075121615

bias f4 [30]
0	0xbdc1d3d9	-0.09464235
1	0xbc95f40f	-0.018304853
2	0x3d3f24e5	0.046666045
3	0x3ec4fdf8	0.38475013
4	0x3da7a90f	0.08186542
5	0x3cf8ea0a	0.030385036
6	0x3e1d0ce7	0.15336953
7	0x3b04af6e	0.0020246166
8	0x3dc76935	0.097368635
9	0xbe2ae631	-0.16689374
10	0x3ea8e32e	0.32985824
11	0x3e80aa8e	0.25130123
12	0x3e7881aa	0.24268213
13	0x3e626893	0.22110204
14	0x3d1d0976	0.0383391
15	0xbd4eff7c	-0.050536618
16	0xbe94579c	-0.2897309
17	0xbe5c9ed2	-0.2154496
18	0x3e578120	0.21045351
19	0x3e440243	0.19141488
20	0x3e7de4e7	0.2479435
21	0x3eb5e367	0.35525057
22	0xbe0e5abd	-0.13901801
23	0xbe8d75bb	-0.27628884
24	0x3ef7b46b	0.48379835
25	0xbe6e8f1d	-0.23296781
26	0x3e4064c7	0.18788444
27	0x3e8931f6	0.2679593
28	0xbd1e2eee	-0.038618974
29	0xbe9a341c	-0.3011788

weight f4 [30, 30]
0	0xbdc58b19	-0.096456714
1	0xbdd09063	-0.101837896
2	0x3e7aa229	0.24475922
3	0x3e6185da	0.22023717
4	0xbc2e7c82	-0.010649802
5	0x3dd00704	0.10157588
6	0x3d342b09	0.043986354
7	0x3dd5347c	0.10410401
8	0xbcda7d42	-0.026671056
9	0x3eb58da5	0.3545963
10	0x3e3a1a83	0.18174176
11	0x3db1227d	0.08649156
12	0xbda7d3da	-0.08194704
13	0xbdb5bfac	-0.08874449
14	0xbe985c5a	-0.2975796
15	0x3dbd15e8	0.09232694
16	0xbbc3b87c	-0.00597292
17	0xbdfce45f	-0.12348246
18	0x3e16b8e7	0.14718972
19	0x3d0e3912	0.034722395
20	0xbe16dc9f	-0.14732598
21	0x3de1ab51	0.11019004
22	0xbe0f5a7f	-0.13999365
23	0x3c38403d	0.011245784
24	0x3e4ebd16	0.20189318
25	0xbe171e03	-0.14757542
26	0x3d01a36b	0.03164999
27	0xbd2a4394	-0.041568354
28	0xbe0d6b23	-0.138104
29	0xbe1297fc	-0.1431579
30	0x3d7ad714	0.06124027
31	0x3e682176	0.22669014
32	0x3e802d91	0.25034764
33	0x3e348808	0.17630017
34	0xbe56ca45	-0.20975597
35	0x3e4cafe3	0.1998897
36	0x3e47ebd6	0.19523558
37	0x3e713e48	0.23558915
38	0x3e0ff837	0.1405953
39	0x3ea1fc0c	0.3163761
40	0x3b32b7cc	0.0027270196
41	0x3e2614b7	0.1621884
42	0xbcc2e91e	-0.0237928
43	0x3d066d41	0.032819036
44	0x3d612f35	0.05497666
45	0x3dc11c3e	0.09429215
46	0xbe64beb5	-0.22338374
47	0x3e45f355	0.19331105
48	0xbd9d9470	-0.07694328
49	0xbe0cdeb7	-0.13756834
50	0xbe1bfca9	-0.15233101
51	0xbe0620ad	-0.13098402
52	0x3e1f2a21	0.15543415
53	0x3e7f20c2	0.2491484
54	0xbe5b4f7b	-0.21417038
55	0xbd6b3ee9	-0.057433043
56	0xbdda5eda	-0.10662623
57	0xbe76840a	-0.24073806
58	0x3e31dfb2	0.17370489
59	0x3de311ed	0.110874034
60	0x3deb9aa7	0.11504107
61	0x3e0736ab	0.13204448
62	0xbe70e550	-0.23524976
63	0x3d8dde23	0.06927135
64	0x3e2ab7cd	0.16671677
65	0x3e139005	0.14410408
66	0xbd2ce9dd	-0.042215217
67	0x3e223f73	0.15844516
68	0xbddaa50c	-0.106760114
69	0x3df1d6c1	0.11808539
70	0xbe48d89e	-0.19613883
71	0x3e0e9208	0.13922894
72	0x3d6751a5	0.056474347
73	0xbe2df2fd	-0.16987224
74	0x3e124d5d	0.14287324
75	0x3e0759b2	0.1321781
76	0xbc97444e	-0.018465187
77	0x3d857bc8	0.0651775
78	0x3d3da1c0	0.046296835
79	0xbd125396	-0.035724245
80	0xbe900324	-0.28127396
81	0xbd09efa1	-0.033675794
82	0xbe163a11	-0.14670588
83	0x3e1ba7cf	0.15200733
84	0xbd4caee0	-0.04997146
85	0xbdacdbcb	-0.0844036
86	0x3dd0acd6	0.10189216
87	0x3e167a9d	0.14695211
88	0x3da0b79c	0.07847521
89	0xbe24b2ce	-0.16083834
90	0xbd82094d	-0.0634943
91	0x3d0042d6	0.03131374
92	0xbbb28add	-0.0054486827
93	0xbe887641	-0.2665272
94	0xbc187f7a	-0.0093077365
95	0x3e9544df	0.29154107
96	0x3e48c3e4	0.19605976
97	0x3db34828	0.08753997
98	0x3db1c5bb	0.08680292
99	0x3e600887	0.21878253
100	0x3e5fb200	0.21845245
101	0xbe28b713	-0.16476087
102	0xbe57c732	-0.2107208
103	0x3ca64168	0.02029486
104	0xbe6c4e2c	-0.23076695
105	0x3e29acb7	0.16569792
106	0xbd9d02ad	-0.07666526
107	0x3deb186b	0.11479267
108	0x3d59a2d9	0.05313382
109	0xbd2c9fd2	-0.042144604
110	0x3e33c614	0.1755603
111	0x3e2b9dd3	0.16759424
112	0x3cd4e4f8	0.025988087
113	0x3de9266b	0.11384281
114	0x3e2e78e1	0.17038299
115	0x3df82a03	0.12117388
116	0x3db6732c	0.08908686
117	0x3d0ed80a	0.034874
118	0x3d3bdfb4	0.045867637
119	0xbe15033f	-0.1455202
120	0x3d89611b	0.067079745
121	0xbdcbe508	-0.099557936
122	0x3e1e6431	0.15467907
123	0x3da01e1a	0.078182414
124	0xbbde0207	-0.006775144
125	0xbe03bddc	-0.12865394
126	0x3d25eab5	0.040507037
127	0x3ddffa46	0.10936408
128	0xbd834b64	-0.06410864
129	0x3dc3bc94	0.09557453
130	0x3cacd40a	0.021097202
131	0x3b2dfb00	0.0026547313
132	0x3e313927	0.17306958
133	0x3e01a76a	0.1266152
134	0x3e734707	0.23757564
135	0x3bd0952b	0.0063654385
136	0x3e164acf	0.14676975
137	0xbe02b19d	-0.12763067
138	0x3c9d2227	0.019181324
139	0x3e46ce11	0.19414546
140	0x3d960c91	0.073266156
141	0xbd83f1de	-0.06442617
142	0xbe51ef9a	-0.20501557
143	0xbe98ec23	-0.29867658
144	0xbe0b7219	-0.13617744
145	0x3e65fcc8	0.2245971
146	0x3d9cea31	0.07661856
147	0xba7a32c9	-0.0009544311
148	0xbd3ea581	-0.046544556
149	0x3e532c97	0.20622478
150	0xbdd65f99	-0.104674526
151	0xbe2a1ab0	-0.16611743
152	0x3d4afb7d	0.049556244
153	0x3e000063	0.12500148
154	0xbdaefa90	-0.08543885
155	0xbc6ed114	-0.014576215
156	0x3e26ea48	0.16300309
157	0x3d8e782e	0.06956516
158	0xbe6bf45d	-0.23042436
159	0xbd87cb7a	-0.06630607
160	0xbdc8f050	-0.09811461
161	0x3da83ee8	0.082151234
162	0x3e4f3928	0.20236647
163	0xbd9f7ba1	-0.07787252
164	0x3dbe745e	0.09299539
165	0xbe2d6133	-0.1693161
166	0x3e13ce7a	0.14434233
167	0xbd43126f	-0.047625
168	0x3e83a6dc	0.2571324
169	0x3e3d312a	0.18475786
170	0x3df10054	0.11767641
171	0x3ce72918	0.028217837
172	0x3d97891d	0.07399199
173	0xbe091dcf	-0.13390277
174	0x3dd7bd27	0.10534125
175	0xbe5b27af	-0.21401857
176	0x3e115d79	0.14195813
177	0xbd6d423f	-0.057924505
178	0xbe01dc9f	-0.12681817
179	0xbe13f7e3	-0.1445003
180	0x3d909b54	0.070608765
181	0x3d9799a2	0.0740235
182	0xbd693227	-0.056932595
183	0x3edeaa7b	0.4348944
184	0x3df501ca	0.11963232
185	0xbca15d22	-0.01969773
186	0xbcf5cac3	-0.03000391
187	0x3dc3f3ec	0.09568009
188	0x3e8b0320	0.27150822
189	0xbe4a86e4	-0.19778019
190	0x3d9eb2ef	0.077489726
191	0x3dead0d8	0.11465615
192	0x3e602f1c	0.21892971
193	0xbddd34a6	-0.108010575
194	0x3e8e091f	0.27741334
195	0x3e4f9ebf	0.202754
196	0x3d6389df	0.055551406
197	0xbe7902db	-0.24317496
198	0x3cb72a38	0.022358999
199	0xbc326e77	-0.010890595
200	0x3e185cc2	0.14879134
201	0x3ddb7337	0.10715335
202	0xbe152a5a	-0.14566937
203	0xbe2226b1	-0.15835072
204	0x3e2e83ce	0.17042467
205	0xbe78c136	-0.24292454
206	0xbe1d4950	-0.15359998
207	0x3e87d28a	0.26527816
208	0x3cbca5ec	0.023028336
209	0xbd90a907	-0.070634894
210	0x3e005d25	0.12535532
211	0xbcf01127	-0.029305054
212	0xbcb99fd4	-0.02265922
213	0xbe5b8609	-0.21437849
214	0x3e43a492	0.19105747
215	0xbd0b6921	-0.034035806
216	0xbc56bcb6	-0.013106516
217	0x3db76700	0.089551926
218	0xbd995307	-0.07486539
219	0xbe242dd0	-0.16033101
220	0x3e9b98ed	0.3039011
221	0x3e3b89e5	0.18314321
222	0xbd7ff95a	-0.06249366
223	0xbe0dd7f5	-0.13851912
224	0xbe6e9c51	-0.23301817
225	0xbc412c58	-0.0117903575
226	0xbddc75e0	-0.1076467
227	0x3e3a1b2e	0.1817443
228	0x3e92ffac	0.28710687
229	0xbe639f8c	-0.22228831
230	0x3da65e68	0.08123475
231	0x3e563c8f	0.20921539
232	0x3e52cd2c	0.2058608
233	0xbe379fb5	-0.17932017
234	0x3e96e6b5	0.2947289
235	0xbc2d41b6	-0.010574749
236	0xbe3a2431	-0.18177868
237	0x3de2105e	0.11038278
238	0xbe4cefc4	-0.20013338
239	0x3d8da566	0.06916313
240	0xbdab54b8	-0.08365768
241	0xbd76b86d	-0.060234476
242	0xbe77c6c6	-0.2419692
243	0xbe93a98a	-0.28840286
244	0xbd8e284d	-0.069412805
245	0xbe714f78	-0.23565471
246	0xbd5cfebf	-0.053953882
247	0x3d439592	0.047750063
248	0xbd877866	-0.06614761
249	0x3e5f21e3	0.2179027
250	0x3cdbc16c	0.02682563
251	0x3e87214c	0.2639259
252	0xbccbafc7	-0.02486409
253	0xbd07dc33	-0.033168983
254	0xbdc95f2e	-0.09832607
255	0x3e072996	0.13199458

bias f4 [30]
0	0x3e296c81	0.16545297
1	0x3c8eb6c3	0.017421132
2	0xbd1a36a9	-0.037649784
3	0xbd302680	-0.043005466
4	0x3ce0b2a3	0.02742893
5	0x3efac8cf	0.4898133
6	0x3e9a3b75	0.30123487
7	0x3e849526	0.2589504
8	0xbe25c570	-0.16188598
9	0x3d0e0043	0.03466822
10	0x3d656ea9	0.056013737
11	0xbd96d0bc	-0.07364032
12	0xbe0fc07a	-0.14038268
13	0xbd0d0c27	-0.034435418
14	0x3d1aa3ec	0.037753984
15	0x3e050266	0.12989196
16	0x3dbb000a	0.09130867
17	0xbc128288	-0.008942254
18	0xbe9da440	-0.30789375
19	0x3df527fe	0.119705185
20	0xbda9ca02	-0.08290483
21	0xbd182286	-0.0371423
22	0x3bc02401	0.005863667
23	0x3c53c3d4	0.012925107
24	0x3d1feee3	0.03904618
25	0x3dd24eb1	0.102689154
26	0xbbae447e	-0.0053182235
27	0xbd930a0d	-0.071796514
28	0xbe85ad24	-0.26108658
29	0xbd3fd271	-0.046831552
