Exercise2/saves/model_lr_1e-3.pt (torch, 377095 bytes, 6 tensors)

weight f4 [30, 3072]
000000 f9 ac 02 bd 2f 31 de bc b6 92 46 bd 10 21 82 bd
       -0.03190324 -0.027123062 -0.04847976 -0.063539624
000010 08 e5 a1 bc 99 04 df bb 17 cb 16 bc 79 10 36 b9
       -0.01976253 -0.006805968 -0.009203694 -0.00017363009
000020 88 b4 ac 3c 9f 10 b0 bb db 1f 84 bc a4 7c a1 bc
       0.021082178 -0.005373075 -0.016128471 -0.019712754
000030 b0 36 7c bc 96 1a 5a bd e6 a2 7f bd 35 b9 7f bd
       -0.015393898 -0.05324801 -0.06241121 -0.062432487
000040 71 72 e1 bc 81 f7 28 bd c2 dd a1 bc 40 c9 0c bc
       -0.02752039 -0.041251663 -0.019759063 -0.008592904
000050 86 9d 82 bb ac 96 4c bd b7 06 97 bc 4f c6 8c 3c
       -0.0039860634 -0.04994838 -0.01843582 0.017184405
000060 a7 23 03 3d 0a 9d 9a 3d 15 d8 86 3d 44 c4 c7 3c
       0.032016423 0.07549484 0.06584183 0.024385579
000070 0d a4 8b bc 56 e7 0a bd 68 23 6e bd b7 d6 4a bd
       -0.017045999 -0.033912025 -0.058139235 -0.049521174
000080 78 d0 84 3a 8c df 8b bc 86 56 5e bd fc ee 43 bd
       0.0010132929 -0.017074369 -0.054281734 -0.047835335
000090 d4 04 45 bc 24 19 d9 3c 3f 1b 0c 3c 53 71 29 3d
       -0.012025077 0.026501246 0.008551418 0.04136784
0000a0 23 9e ff 3b 24 83 e4 bc e6 de 2f bd 88 4b 5d bd
       0.007800834 -0.027894564 -0.042937182 -0.05402711
0000b0 4d 9f 61 bd 5b 0f 6f bd 71 29 44 bd 0f b4 22 ba
       -0.05508356 -0.058364253 -0.047891084 -0.00062066404
0000c0 d7 dd 58 bc c8 44 05 3c cc 3c d1 3c 48 3a 2c 3d
       -0.0132364845 0.0081340745 0.025541686 0.04204777
0000d0 7d ed 4a 39 67 2d 1e bd fe 18 e5 3b dc 20 87 3c
       0.00019352692 -0.038617518 0.0069915047 0.01649516
0000e0 0f ab 66 3d 19 cb d5 3d 8e cb 9e 3d d9 0c 3f 3d
       0.056315478 0.104391284 0.07753669 0.04664311
0000f0 a9 7a 6d bb 01 23 bd bb 94 ad fa bc 1b 20 8a bc
       -0.0036236441 -0.005771995 -0.030600347 -0.016861012
000100 68 fe 5c ba 87 0f 84 bb 27 f8 62 bc c1 a3 06 bd
       -0.00084302435 -0.0040301713 -0.013853109 -0.03287101
000110 b4 0d fb ba f8 50 4c 3d e5 6c 7e 3d b5 12 26 3d
       -0.0019153864 0.049881905 0.06211557 0.040545184
000120 70 80 da bc c0 28 91 bc 04 30 6d bd ea 05 87 bd
       -0.026672572 -0.017719626 -0.05790712 -0.06592925
000130 ac 05 a6 bd 0b ab 50 bd d0 9d ea 3a b9 f7 48 3b
       -0.081065506 -0.05094437 0.0017899815 0.0030665232
000140 3c df aa ba e6 2c d6 bc 94 18 16 3c c7 b3 31 3c
       -0.00130365 -0.026144456 0.009161133 0.010846085
000150 aa 00 a0 3c 56 8d 13 bc 84 75 95 3c 0f 81 8a 3c
       0.019531567 -0.009005865 0.018244512 0.016907243
000160 90 27 63 3d c5 80 c9 3d ce 0f a9 3c 48 32 56 3c
       0.05545765 0.09839014 0.02063742 0.013073511
000170 bf 55 a3 bb 39 d8 f8 bc fa 04 c5 bc 89 af 80 bc
       -0.004984587 -0.03037654 -0.024050225 -0.015708702
000180 da 8a fd bc cb 9b ff bb c3 d5 02 3b c4 42 c1 bc
       -0.030949999 -0.0078005544 0.0019963838 -0.023591407
000190 16 21 8d 3c d0 23 be 3c 8e 82 af 3d 2d 96 78 3d
       0.01722769 0.023210436 0.08569823 0.060690094
0001a0 8a b1 93 3c 23 9b 11 3d 75 60 6a 3c d3 01 dd 3a
       0.018028993 0.03554834 0.014305224 0.0016861506
0001b0 48 43 8a bc 42 c4 42 bd 8d 8f 27 3c 56 16 c1 3c
       -0.016877785 -0.047550447 0.010227096 0.02357022
0001c0 58 1c 9d bc 36 a4 6b bc f1 26 35 bd 9e fe 3d bc
       -0.019178554 -0.014382413 -0.04422659 -0.01159635
0001d0 6c e2 44 bc fb 28 1a bd 0b d7 62 bc 16 ad 83 bc
       -0.012016874 -0.03763674 -0.013845216 -0.016073745
0001e0 09 13 da 3c e2 2b c7 3c 64 35 22 3d 97 77 4b 3c
       0.026620405 0.024312917 0.0396017 0.012418649
0001f0 8e cb 0d bd 50 25 e8 bc 52 fd 15 bd 8e dc 8b bc
       -0.034617953 -0.028338104 -0.03661854 -0.017072942
000200 32 05 d8 bb 64 1e 7e bc 23 ce 09 bd 58 5c be bb
       -0.006592416 -0.015510175 -0.033643853 -0.005809348
000210 66 63 4f 3c 22 de 9d 3c bd 1c 3b 3d e3 d6 82 3d
       0.012657976 0.01927096 0.045681704 0.06388643
000220 04 a1 90 3d 6a 16 81 3d e2 94 52 3c 2c 8f ac bc
       0.07061961 0.06303103 0.012852879 -0.021064363
000230 8b 2e 0f 3c 8b 3b 73 3c 43 42 5e 3d d8 40 87 3d
       0.008739124 0.014845739 0.05426241 0.06604165
000240 7f 21 0b 3d 44 77 7c bc b4 9f 97 bc f8 88 d8 bc
       0.03396749 -0.0154092945 -0.01850877 -0.0264325
000250 16 bc 41 bd 81 7a df bc 61 76 d8 bc 56 7b 64 bd
       -0.047298513 -0.027280094 -0.026423635 -0.055781685
000260 32 fa fb bc 6d 7b 08 3c 5d a4 7c 3d f1 49 26 3d
       -0.03075895 0.008330208 0.061680187 0.04059786
000270 f9 58 2f bd f1 61 80 bc 56 81 ae bc 8a 5a c1 ba
       -0.04280946 -0.015671702 -0.021301907 -0.0014751714
000280 e8 5e c1 3c 7c 85 bd ba 08 1c 94 bc d7 ec 01 3c
       0.023604825 -0.0014459337 -0.018079773 0.007930002
000290 d3 c5 09 bb 6b bf 5f 3c 9e 09 93 3c b8 df 4c 3d
       -0.0021022453 0.013656477 0.017948922 0.050018042
0002a0 6e 18 50 3d 80 dd 8e 3d 40 46 3b 3d 19 58 f1 3b
       0.050804548 0.069758415 0.045721292 0.0073652384
0002b0 7b 1f 8e 3b 29 26 70 3c 62 c3 f4 3c f1 ee 7f 3d
       0.004337249 0.014657536 0.029878322 0.06248373
0002c0 8e f6 46 3c 81 3f e5 3c 53 95 96 3c 81 43 ad bc
       0.012143744 0.027984383 0.01838175 -0.021150352
0002d0 7c 7a 04 bc f9 3c c9 bc e6 77 22 3b d6 44 1b 3b
       -0.008085843 -0.024565207 0.0024790703 0.0023692152
0002e0 29 a1 cd b9 4b e9 02 3d d1 9b 92 3d 09 4e 03 3c
       -0.0003922072 0.031960767 0.07158626 0.0080142105
0002f0 31 9f 14 bd 19 6e 90 bc aa 6a e0 bc d7 73 d5 bb
       -0.03628463 -0.017630624 -0.027394611 -0.0065140533
000300 b3 11 da 3c 90 fe 95 3b 26 63 04 3b 72 ae b5 3b
       0.026619768 0.0045774654 0.0020200699 0.005544477
000310 55 30 a4 bb 15 73 18 bd 92 80 50 3d 54 80 6e 3d
       -0.0050106444 -0.037219126 0.050903864 0.058227852
000320 c3 41 5d 3d e0 49 c4 3d 28 39 c0 3d a4 a9 36 3d
       0.054017793 0.09584403 0.09385902 0.044595376
000330 2c a3 24 3c 96 8c 46 bd db ae 0b 3c 94 b7 38 3d
       0.010048669 -0.048473917 0.0085255755 0.04509695
000340 9a 7a 6b bc 00 1a c5 bc 82 48 21 bc 66 58 d6 bb
       -0.014372492 -0.02406025 -0.009843947 -0.0065412996
000350 a7 c7 c4 3b f8 1a 83 3c 8a de c2 bb 20 40 62 bc
       0.0060052457 0.01600407 -0.005946939 -0.013809234
000360 d3 5f d1 bb 1e 6f c3 3c f4 6f e6 3c 1b 73 92 bc
       -0.006389597 0.023856696 0.028129555 -0.017877152
000370 50 72 72 bc a0 df 06 3c ad fb 2e bc fd c4 18 bb
       -0.014797762 0.008232027 -0.010680121 -0.0023310774
000380 91 f4 fc 3c 2e 0e 88 3b d0 6c 4b bc ad d3 0c bc
       0.030878337 0.004152081 -0.01241608 -0.008595389
000390 8e 4c 71 3c 0c c9 9f 3c 1b b8 45 3d 7d 8f 6f 3d
       0.014727725 0.019505046 0.04827128 0.05848645
0003a0 ab 58 89 3d 3b 19 b6 3d ff ea 0f 3e 9a a4 c6 3d
       0.06706365 0.08891531 0.14054488 0.09699364
0003b0 36 6f 15 3d 6c d1 67 3c 64 af 04 3d 27 b8 15 3d
       0.036483012 0.014149051 0.032393828 0.036552574
0003c0 96 00 e5 3c 92 fa 52 3c 3b 50 53 bc fc ac 88 bc
       0.027954381 0.012877123 -0.012897546 -0.016684048
0003d0 37 0b 4c bd b5 68 21 bd fd e4 0d bd 0e f7 40 bd
       -0.049815383 -0.039406497 -0.03464221 -0.04711061
0003e0 a7 fe 80 bd b6 49 34 bc 09 56 97 3c 17 bc b5 bb
       -0.06298571 -0.011003902 0.018473642 -0.0055461037
0003f0 6b 65 cd bb ff 6e 3a bb 83 ea fa bc ab 8b 5c 3b
       -0.0062681935 -0.0028447506 -0.030629402 0.0033652585

bias f4 [30]
000000 61 6a 17 3e ed c3 1d bc 46 3c fc 3d 46 49 aa be
       0.14786674 -0.009629232 0.12316184 -0.33259028
000010 df fb 1e bd 6f f8 62 3e ec 99 ea bd f7 45 09 be
       -0.03881442 0.22165082 -0.114551395 -0.13405596
000020 ed 8e ef 3d 00 58 31 be 83 c5 1d 3e 10 ab aa bd
       0.11697183 -0.17318726 0.15407376 -0.08333409
000030 de f2 ab 3d 19 f2 e2 3d 38 92 80 3d 27 8e 65 be
       0.083959326 0.11081333 0.06277889 -0.22417508
000040 58 c6 7c 3e 03 75 c9 3e c1 59 43 3c 1a bb a3 3d
       0.24685037 0.39347085 0.0119232545 0.07994671
000050 cc d3 8f 3e 2e d6 c8 3e 38 ff 3b be 26 70 87 3d
       0.28091276 0.39225906 -0.18359077 0.066131875
000060 e6 0b 43 3e 1f 14 90 3d 80 ac 68 3e 3b ab 20 be
       0.19047508 0.07035088 0.22722054 -0.15690319
000070 7c da bd bb ad 20 08 3f
       -0.0057938676 0.5317486

weight f4 [30, 30]
000000 90 4e 83 3e 3f 1c 00 3e 86 15 4f 3d a5 1f 8c 3c
       0.25645876 0.12510775 0.050557636 0.017104933
000010 31 aa 08 bb 3b 8e 6c 3d 07 98 95 bd 1f 0d a5 3d
       -0.0020853395 0.05775283 -0.073043875 0.08059143
000020 92 db 49 bd 73 20 44 3d 20 f2 1a bd e9 df 3f bd
       -0.049281664 0.04788251 -0.037828565 -0.046844397
000030 43 a5 1c be 98 f7 8c 3d 49 c8 23 3d 65 03 53 3e
       -0.15297417 0.06883162 0.03998593 0.20606764
000040 82 83 3e 3e 26 bb 86 bd 02 f7 cd bc eb 77 98 bd
       0.18604854 -0.065786645 -0.025142197 -0.074447475
000050 d7 56 04 be bc ff 38 bd ac 02 85 bc 9b 3c 95 3c
       -0.12923752 -0.045165762 -0.016236626 0.018217376
000060 03 9e 45 bd d5 b4 0e bd 32 8d 40 be e7 0b 29 3e
       -0.048246395 -0.034840424 -0.18803862 0.16508447
000070 68 e5 76 3e f1 9e 82 bd 65 34 15 be 08 36 88 bd
       0.24110949 -0.06377972 -0.14570768 -0.06650931
000080 d8 10 fc 3d f2 a7 81 3c 1c 65 84 3e 11 ba 94 bc
       0.123079 0.015827153 0.2585839 -0.01815513
000090 e1 94 0e bd 2d 92 a2 b9 4a ac 6a 3d ea 42 2b bd
       -0.03480995 -0.00031007957 0.057293214 -0.04181186
0000a0 08 fe 4d bc 14 80 06 be 89 a4 6b 3e e3 64 dc bd
       -0.012572773 -0.13134795 0.23011984 -0.1076143
0000b0 bf 28 be 3c 50 3c cb bc d3 97 55 3e 16 98 10 3e
       0.023212789 -0.024809033 0.20858698 0.14120516
0000c0 d4 e1 c7 bd 7d 17 16 bd 0c 3d cc 3d 73 42 eb 3c
       -0.0975987 -0.036643494 0.09972581 0.028718209
0000d0 e2 9f 9d 3c fa 79 1b 3e bd 97 06 bd 56 b3 16 3d
       0.019241277 0.15183249 -0.032859553 0.03679212
0000e0 12 de 18 3e dc 1b 42 3c 51 13 38 bd e1 84 ef 3c
       0.14928463 0.0118474625 -0.044940297 0.029238166
0000f0 5c 4f c5 bc 2b 1e 11 3e bc 2f 15 bd b6 45 1d 3d
       -0.024085693 0.14171664 -0.036422476 0.03839656
000100 0d d0 45 3d 05 50 f6 bc 5d 0d 66 3d a5 1b a2 3e
       0.048294116 -0.030067453 0.056165088 0.31661716
000110 6b 51 0f 3e 61 6f ee 3d cc fa c1 bd ae dd 3e 3d
       0.13995902 0.116423376 -0.09471664 0.04659813
000120 89 76 f1 bd 7c 38 16 3e 1d 8a 19 bd af 74 4c 3d
       -0.11790187 0.14669985 -0.03748523 0.049915966
000130 04 52 00 be f9 78 e7 bd 57 fc f2 3d 05 26 dc bd
       -0.12531286 -0.113023706 0.11864536 -0.10749439
000140 3d d3 44 be 59 a4 f0 3c 32 3c 35 bc b0 27 21 3e
       -0.19221206 0.029375242 -0.011061715 0.15737796
000150 43 bb 1f 3e e5 2d 87 3d 6d 4a 3b 3e da 86 21 3d
       0.15598778 0.066005506 0.1829011 0.039435245
000160 ef 0e 47 be a4 78 82 be 79 34 13 3d 65 25 d2 3d
       -0.1943929 -0.25482666 0.035938714 0.10261039
000170 9a 15 32 3e 2a 11 9e bd 38 98 3b 3d 6c c4 46 3e
       0.17391053 -0.077181175 0.045799464 0.19410866
000180 c3 39 0c bd 8e 3a 24 be 0a dc 14 be d4 66 01 be
       -0.034234773 -0.16037962 -0.14537063 -0.12636882
000190 5e 0d 31 bd 2a 19 57 bd cf b9 18 bd 36 5c a9 bd
       -0.04322564 -0.052514233 -0.037286576 -0.08269541
0001a0 10 12 b0 3e 5d cc e9 3c f4 0d e5 bd bd 16 f8 3d
       0.3438878 0.02853983 -0.11184302 0.12113712
0001b0 6d ba 8a bd dc e9 13 3d 76 18 30 3e d1 a1 28 3e
       -0.06773839 0.036111698 0.17196831 0.16467978
0001c0 d2 6a b0 bc 16 94 13 be ee 16 1f 3e 7a 46 3f 3e
       -0.02153531 -0.14411959 0.1553609 0.18679228
0001d0 0a fd 67 3e fa ba c4 bd 41 96 f9 3c c7 76 97 3c
       0.2265512 -0.096059754 0.030467154 0.018489255
0001e0 08 83 94 bd 98 70 2b 3e 08 57 63 bc 02 b6 41 be
       -0.07251555 0.1674217 -0.01387573 -0.18917087
0001f0 73 de 43 be b1 a6 da bc 8f 3e a9 3a ea 7b 51 be
       -0.19127826 -0.026690813 0.0012912321 -0.20457426
000200 73 9c 78 be 68 11 87 bb e0 f1 ad 3d ec 54 03 be
       -0.2427843 -0.004121948 0.084933996 -0.12825364
000210 66 93 60 bd 10 da 65 3c 00 7c e3 3d 21 04 9a 3e
       -0.05482807 0.014029041 0.111076355 0.30081275
000220 ed 30 6d bd 0f 46 48 3c e0 27 ad 3c 9b b2 99 3d
       -0.057907987 0.0122237345 0.021137178 0.075047694
000230 84 a9 02 3e 88 35 f1 bd 59 1a 24 3e d8 2c 5d 3d
       0.12759978 -0.117777884 0.16025676 0.053997844
000240 37 1e 40 3e 80 75 e9 bd 37 9d 45 be 8d 2c f5 3c
       0.18761526 -0.113993645 -0.19298254 0.02992847
000250 8c 13 1b 3e fa 9b b1 3c f9 a4 25 3d 83 03 08 be
       0.15144175 0.02168082 0.040440533 -0.1328259
000260 88 45 e7 bd 6a 80 62 3e 95 c0 80 bd aa aa ee bd
       -0.11292559 0.22119299 -0.06286732 -0.11653645
000270 26 6d 3a 3e 33 89 32 bc c5 84 5e 3d 75 c7 01 be
       0.182057 -0.010896969 0.054325838 -0.12673743
000280 72 41 c2 bd 10 21 20 be 7d d2 0a 3e ea 20 4a 3d
       -0.09485139 -0.15637612 0.13556857 0.049347796
000290 62 93 4f be 89 c0 58 3e 27 45 e5 3d 04 22 cd bc
       -0.20271066 0.21167196 0.111948304 -0.025040634
0002a0 69 8a 07 3d f7 33 9e bd a6 67 d4 bd f9 f3 aa 3d
       0.033090983 -0.07724755 -0.10371332 0.08347315
0002b0 58 d1 f5 bc 64 3d 04 3e 9a aa 77 3d f7 d7 10 3d
       -0.03000705 0.12914044 0.060465433 0.03536221
0002c0 92 8d 94 bd 03 43 dd 3c 9c 85 1e 3d 34 89 b0 3d
       -0.07253565 0.027009493 0.03870164 0.086199194
0002d0 b2 ae b1 3d f9 b5 16 bd 78 ec 39 3e 61 cd 06 bd
       0.086758986 -0.036794636 0.18156612 -0.03291071
0002e0 34 10 02 be 78 03 a6 bc 3c 6e 7a 3d f5 c0 a9 3d
       -0.12701494 -0.020265326 0.061140284 0.08288757
0002f0 8d 16 b4 3d fa 1a 8e bc de 01 5f bd 3f 47 6e ba
       0.08793364 -0.017346848 -0.05444514 -0.0009089596
000300 08 6a 45 bd 0b 1b bb 3d 6b 43 05 3e cd 3e 58 bd
       -0.048196822 0.091360174 0.13013999 -0.052794266
000310 9a ea 9f 3c b7 23 1c 3d 01 0c 34 3e a4 8d 28 3e
       0.019521046 0.038119998 0.17582704 0.16460282
000320 92 5a 1c 3e e6 24 ff 3d da 09 da 3d 3b c3 08 be
       0.15268925 0.1245821 0.1064641 -0.13355725
000330 40 03 0a bc d4 4e 9b bd 3b b3 37 3e 40 2d 1c be
       -0.008423626 -0.07583395 0.17939465 -0.15251637
000340 f2 de 66 be 35 98 31 bd 5c 8b 11 be 00 fe 7b 3d
       -0.22545984 -0.043358047 -0.14213318 0.06152153
000350 d6 ba 5e be 2e 3f cd bb 72 68 85 be 64 74 3b be
       -0.2175096 -0.006263635 -0.26056248 -0.18306118
000360 ef 11 e1 3d d9 fd 0e be d8 8c d0 3d 37 4c 28 bd
       0.10989749 -0.13964023 0.10183114 -0.04108831
000370 fb b6 43 3e 41 50 b0 39 c2 d2 16 3e d3 f2 9f bd
       0.1911277 0.0003362913 0.14728835 -0.07809987
000380 89 1d 20 be 81 f6 17 be 43 ac b5 3d f4 09 1e bd
       -0.15636267 -0.14840128 0.08870747 -0.03858371
000390 a2 d1 df 3d ed 82 e9 ba 4a 74 00 3e 8f 0d df bd
       0.10928656 -0.0017815508 0.12544361 -0.10891258
0003a0 0d d9 d2 bb eb da 40 3d bd a3 34 bb e6 96 71 3b
       -0.006434566 0.047083776 -0.0027563416 0.0036863624
0003b0 68 fa 3b 3e 2e 40 2f be e4 58 ee bd da c0 50 be
       0.18357241 -0.17114326 -0.11638048 -0.20386067
0003c0 53 03 83 3d 15 36 d5 3c 35 48 db bc d6 58 81 bd
       0.063971184 0.026026765 -0.02676783 -0.06315772
0003d0 70 af 24 3e 3c 9b 19 3e 34 bc bd bb 3c 89 2b 3e
       0.16082549 0.15000623 -0.005790258 0.1675157
0003e0 b3 0e 09 3e 11 d5 a0 3c 5b 5b 78 be c0 eb c8 3d
       0.13384514 0.019632848 -0.242536 0.09810591
0003f0 b8 8f a3 bd 0d 36 58 bd 29 d9 37 3d d5 6b 5f 3d
       -0.079863966 -0.05278592 0.044884834 0.054546196

bias f4 [30]
000000 0c 91 24 be 4d 8a ea bd db b6 0f be 75 0f e2 3e
       -0.16070956 -0.1145216 -0.14034598 0.44152418
000010 f2 05 8e 3e 05 d2 a1 3e b7 df 4e 3e 08 a2 82 3e
       0.2773891 0.31605545 0.20202528 0.25514245
000020 cf 5f 5e 3e 51 ca 39 3e b2 29 43 be d0 52 c2 3b
       0.21716236 0.18143584 -0.19058874 0.005930282
000030 c1 b2 ff bd 71 6b 93 bd 4d 02 ea 3e cb cd 10 be
       -0.124852665 -0.07198227 0.4570488 -0.14141004
000040 27 7a 99 3d 95 67 e3 3d d1 39 67 bd 98 d2 0a be
       0.07494002 0.11103741 -0.056451622 -0.13556898
000050 8a 2f 71 be 76 51 8a 3e 50 6f 92 be d5 91 14 3e
       -0.23553291 0.27015275 -0.2860055 0.14508756
000060 a1 9b 56 3e c6 2b b2 bd e6 2a 7b bc 7f 6d 6e 3e
       0.20957805 -0.08699755 -0.015330052 0.23283957
000070 e4 b3 36 be 08 bf cb 3e
       -0.1784206 0.39794183

weight f4 [10, 30]
000000 28 8c b2 bd f0 45 2b be 2a bf 27 be 33 64 85 be
       -0.08718139 -0.16725898 -0.16381517 -0.26053008
000010 b6 f7 d9 3d 66 30 af bd 30 a2 27 3e e5 ae d7 3d
       0.1064295 -0.08554153 0.16370463 0.10531405
000020 a6 75 e5 3d 80 2d 70 bc 21 82 e8 bc af 89 48 3d
       0.1120408 -0.014659286 -0.028382363 0.04895943
000030 62 9e 56 be 33 8a 01 be f9 c6 51 bd 27 9e db bd
       -0.20958856 -0.12650375 -0.051215146 -0.107235245
000040 34 19 89 bc bc a3 6c bc 09 3c 5d 3d d8 c1 b9 3d
       -0.01673565 -0.014443334 0.054012332 0.09070176
000050 9b 9e 1a be 25 16 5b 3c 1a 45 17 3e b8 da 8b bc
       -0.15099566 0.013371979 0.14772454 -0.017072067
000060 90 14 10 3e c0 6d 19 bd e8 72 06 3e b9 27 68 3e
       0.14070344 -0.03745818 0.13129771 0.22671403
000070 42 87 07 3e 3c 9f b5 3d 5f c7 66 3d 5f 59 14 3e
       0.1323519 0.08868262 0.05634248 0.14487217
000080 51 aa 58 3e 8d 97 b2 be 3e 8d 34 be 9c 01 06 3e
       0.2115872 -0.3488125 -0.17632005 0.13086551
000090 0e 7c e7 3c 8a f9 6d be 3b da 7a 3d 94 19 83 3d
       0.028257396 -0.23239723 0.061243277 0.06401363
0000a0 b5 cc af bd 5d 15 88 be 9d 7b b6 bd fe f3 b7 3d
       -0.08583967 -0.265788 -0.08910296 0.08982085
0000b0 79 bf 80 be 99 8c 0b 3e ab 16 79 bc 53 6b 38 bd
       -0.25146082 0.13627852 -0.015203158 -0.045024227
0000c0 76 18 b6 bd 1a 75 fa 3d 96 c4 98 3d ce 76 eb bd
       -0.08891384 0.122293666 0.07459371 -0.114972696
0000d0 fa 34 19 3e ca 0b 73 3c d8 5f c8 bd a7 aa ca bd
       0.14961615 0.014834354 -0.09783906 -0.098958306
0000e0 ed 68 88 3e 57 c1 7c 3c b6 1e 4c 3e 8b 69 0d be
       0.26642552 0.015426955 0.1993359 -0.13809793
0000f0 de b5 a3 bd fc 12 6b 3d 6e b9 9d 3c 2e c3 1d 3e
       -0.07993673 0.05739115 0.019253459 0.15406486
000100 58 91 9b bc 5a fa 6a bc e5 c5 c9 bd eb 63 d3 3c
       -0.018990204 -0.014341915 -0.098521985 0.02580448
000110 9a 4a 4f 3e 9a 5f 03 be ea 3c fe bc db 33 31 3e
       0.20243302 -0.12829438 -0.031034905 0.17304938
000120 82 93 c8 3d b1 48 da bd 1d c8 a7 3c 01 37 5e be
       0.0979376 -0.10658396 0.020481164 -0.2170067
000130 29 19 34 be c8 24 5b 3d 3f 5d b2 bd 6f 16 34 be
       -0.17587723 0.053501874 -0.087091915 -0.17586683
000140 1d 92 1a 3d 2b 55 b7 3d b9 92 0e be 6e 58 bf bd
       0.037737 0.089517914 -0.13923158 -0.093430385
000150 47 74 00 3e 86 ef 2d be 9a 83 42 bd 82 2c 44 3e
       0.12544356 -0.16985902 -0.047488786 0.19157603
000160 92 e0 12 bb 5c b7 93 3e 49 f9 5e 3d ee dd e3 3d
       -0.0022411686 0.2885083 0.054436956 0.11126314
000170 64 4b 09 be 5e b2 61 3d 13 0b dc bd 92 93 21 be
       -0.13407665 0.055101745 -0.107443 -0.1577895
000180 b4 9b 0a 3e bb 66 53 bd a3 a6 a5 3d b0 b2 d5 bd
       0.13535959 -0.051611643 0.08088424 -0.104344726
000190 6a c5 7e bd 0d 42 04 3e 18 6e 52 3e 17 2a 1e be
       -0.062199987 0.12915821 0.2054981 -0.15445744
0001a0 d6 53 95 bd 88 e2 15 be d8 34 c7 bd 87 0b 33 be
       -0.07291381 -0.14637196 -0.09726876 -0.17484866
0001b0 4e 61 ce 3c b3 77 1e bd 78 f1 e6 3c ed e1 fe 3d
       0.025192883 -0.038688373 0.028191313 0.12445436
0001c0 68 0b 10 3d ec 32 a4 3d 19 d8 c4 bd 87 57 1c 3e
       0.035167128 0.08017525 -0.0961153 0.15267764
0001d0 22 bd 5c be 29 78 a5 bd d1 09 25 3d e9 99 94 3d
       -0.21556523 -0.08079559 0.040292565 0.072559185
0001e0 fc 1b 36 be 38 f6 29 be fb cd 44 bd 37 76 58 3e
       -0.17784113 -0.16597831 -0.048048 0.21138845
0001f0 7f 2a 34 3e 4c bf 1f 3e 1c e6 11 3d 0b 8b 72 3d
       0.17594336 0.15600318 0.03561984 0.059214633
000200 36 ce 80 bd 8f d2 4f 3e 88 aa 89 bd b5 34 93 bd
       -0.062893316 0.20295165 -0.067219794 -0.071877874
000210 fb 03 05 be 69 43 7d be ac f6 6e 3e 01 a8 97 bb
       -0.129898 -0.24732746 0.23336285 -0.004628182
000220 fc f4 8e bd e3 e6 83 3c 28 5b c6 3d d4 46 5d be
       -0.06980321 0.016101306 0.096853554 -0.2160905
000230 62 af 2e 3e 2a 89 ea 3d 2e 1f 0f bb da 14 71 bd
       0.1705909 0.11451943 -0.0021838653 -0.058857776
000240 47 34 53 bd 51 8b be bd 0f d4 3a 3c 0c 6d 34 3d
       -0.051563527 -0.09303916 0.011403098 0.044049308
000250 22 08 8a bd b7 bf cf 3d 02 b3 71 3d 52 37 29 3e
       -0.067398325 0.101439886 0.059008606 0.1652501
000260 32 fc 3c be 5c 6d 3d 3e e6 50 02 be a9 5b 1f be
       -0.1845558 0.18498749 -0.12726173 -0.1556231
000270 0f 7b bd bd 6b 2a 05 bd d8 be 16 3c 73 8a b7 bd
       -0.09251987 -0.032511156 0.009200774 -0.08961954
000280 ba 5f 94 bc ef 98 59 3e e3 f8 6a 3e c6 df 3d 3c
       -0.018112052 0.21249746 0.22946505 0.011588996
000290 87 62 ba bd 85 12 9c bd a6 f8 f3 bd 9e 7e 87 3d
       -0.09100824 -0.0762072 -0.1191266 0.06615947
0002a0 ae 8d dd 3d 77 68 2a be 26 61 e0 bd 1e 29 52 3d
       0.10818039 -0.16641413 -0.109560296 0.051308744
0002b0 2e ad 8a bd ba 6f bd bd 24 6f 2a be 50 f5 5b 3e
       -0.06771313 -0.09249826 -0.1664396 0.21480298
0002c0 9f 98 1c be 31 3b 5e bc 69 10 be 3d 2e 63 e7 bd
       -0.15292595 -0.013563917 0.09280474 -0.11298214
0002d0 13 b0 c7 3d 80 66 06 3e 80 45 0b be 17 86 eb bd
       0.0975038 0.13125038 -0.13600731 -0.11500185
0002e0 bf 9d 4c be 62 a2 ba 3d 28 7c d0 3d 23 fa b3 bd
       -0.1998205 0.09113003 0.10179931 -0.08787944
0002f0 82 58 26 3e b8 a0 7a 3e f1 46 c0 bd 32 ca 48 bd
       0.162447 0.24475372 -0.09388531 -0.049020953
000300 b2 ae 78 3c 54 c1 34 bc db 68 c1 3d 5e 95 50 be
       0.015178369 -0.011032421 0.09443828 -0.20369479
000310 38 21 30 3e 87 55 bc bd 28 36 d5 bc 6a 80 31 be
       0.17200172 -0.091960005 -0.0260268 -0.17334142
000320 b2 cb 35 be 23 12 58 be ee 33 7f be 1c b9 fc 3d
       -0.17753485 -0.21100669 -0.24922153 0.12339994
000330 7f 44 69 bd f9 59 22 3d 7c da 7c bd 1e 41 1b 3e
       -0.05695009 0.039636586 -0.0617318 0.15161559
000340 cf 0a bf bd 0c 72 2a 3d 95 1a 9a 3e 01 b2 28 be
       -0.093282335 0.04161267 0.30098405 -0.16474153
000350 23 11 89 3d 99 5b c7 3d c3 91 22 3e b3 b5 96 3d
       0.06692722 0.09734268 0.15875916 0.07358875
000360 de aa 04 be 73 63 0f be ca 58 35 bc ae c0 8e be
       -0.12955806 -0.1400278 -0.011068532 -0.27881378
000370 01 61 8f 3d 54 cf db bc 46 01 c3 3d 23 e5 84 be
       0.07000924 -0.02683226 0.09521727 -0.25956067
000380 f6 39 2a 3b 66 7a a3 3d b3 67 82 3e d1 7e 8c 3e
       0.0025974489 0.0798233 0.2546974 0.27440503
000390 08 15 cd bd ac ad 48 be 0e 17 01 bd cb 4c df 3d
       -0.10013777 -0.195975 -0.031516127 0.10903319
0003a0 2b 90 1c 3d a6 23 92 be c4 8b ec bd 87 51 a4 3c
       0.038223427 -0.28542823 -0.11550096 0.020058407
0003b0 a0 8d 24 3d 78 22 80 bd 75 06 1e bd 9d 58 12 3c
       0.040174127 -0.062565744 -0.038580377 0.00893226
0003c0 c8 30 e5 bc 77 e3 45 be 18 76 5a 3e 89 fd 2c be
       -0.027977362 -0.19325052 0.21334112 -0.16893591
0003d0 1a b0 93 bd a1 66 29 bc c7 8f 73 3e 2a 9e 4a bc
       -0.07211323 -0.01033941 0.23785315 -0.012366811
0003e0 0d a7 a0 be 73 e4 9d 3d 13 81 97 3d 4a 8e 03 be
       -0.3137745 0.07709589 0.07397666 -0.12847248
0003f0 78 c9 34 be 40 33 ec bc e0 d6 8c 3d 85 5b 1b 3e
       -0.17654979 -0.028833032 0.06876922 0.1517163

bias f4 [10]
000000 6f 8b d8 bc 1d 6a 99 be 96 35 95 3e 6a bd 06 be
       -0.026433675 -0.2996377 0.29142445 -0.13158193
000010 3b 08 82 3e f1 8f d6 bb 49 7f 81 3e fc a9 8f 3c
       0.25396904 -0.006547921 0.25292423 0.01753711
000020 56 7a 8b 3d d3 81 87 bd
       0.06810443 -0.06616559
