Exercise2/saves/model_lr_1e-4.pt (torch, 377095 bytes, 6 tensors)

weight f4 [30, 3072]
00000000: 67ff 18bb 3c1f afbc 8187 d13b ed8e 6ebc
00000010: ab2f 013c c1ac 02bb 36c1 a93b dd11 59bc
00000020: e45d 70bb 27e9 9abc 75c4 0dbd 3e67 d5bc
00000030: a71e a63c 681a 5bbb bafe e1bb d06a db3c
00000040: 252d a63b 224e bd3b 44ac 993c 6db6 bc3a
00000050: 2eef 423c 32bf 35ba 7328 d2bb 2fa3 91ba
00000060: 00fe 83bb 75f0 23bb 8370 a3bc 9b0c 1ebd
00000070: 6abf 37bd 9f15 36bc accd 8bbc 9cff 7dbc
00000080: 2d7b 99bc 8d94 293c 294f 44bc c72c 8f3b
00000090: 04f5 923c 1b13 f13a 2092 5a3c fc81 243c
000000a0: 1b76 07bc 89e4 7dbb f074 c0bc 9be7 a3bb
000000b0: 2c33 463c b406 f3bb 8481 a13c b871 0f3c
000000c0: 841b afbc e4c3 12bc caa8 60bb fd32 24ba
000000d0: e201 3abc 513f c13b f7dc 96bc 3d8c 4e3c
000000e0: 64f7 e93a 658e 6abc ce58 963a 0632 db3b
000000f0: 6690 913c a51f 40bc 6eab 87bb 485a 14bd
00000100: 2d8d 8bbc 9f82 cbbc 8773 413c f54e 9abb
00000110: 53e5 febc ab60 0fbc 7c00 553c fbab 863c
00000120: d0c0 763c 83f0 013c ed12 5fbc cbcb dabc
00000130: abbc 663c d1e8 92bc 00e6 43bc 7ad0 13bc
00000140: 64e5 7abc 54a7 a9bc e2dd b6ba 45cc 8fbb
00000150: 799e 25bb f328 8d3c 54b8 52bc 2806 0b3c
00000160: 6d42 413c 16a6 dabc 35b9 a138 8659 b93b
00000170: 9bc8 63bb c1a9 673c b41a a5bc 01d4 09bd
00000180: fc19 56bc df63 ec3b b52a 4d3c 7d76 8bbc
00000190: 087e 53b9 b8b2 09bd 8454 083c 0915 1bbc
000001a0: 0f5e 27bc eb33 ccbc 5b6a 06bd 30c5 91bb
000001b0: 4248 923c afbf c0bc d936 b8ba 8549 0bbc
000001c0: cbcc b4bc 8449 26bd 3be3 523c 0b82 60bc
000001d0: 625f 493b 4868 e739 91a4 82bb 8cde e33c
000001e0: b8b8 583c 2302 db3c 6056 213c 1009 353b
000001f0: f461 a83c b37a 0d3b 506b 3b3a 9216 b5bc
00000200: 0ff4 adbc 1abb 1b3c 302b d33b b36c abba
00000210: 2848 4a3c e82f 5abc 294e e63b a1bb fd3a
00000220: 7a22 83bc b76b b9bc cf58 d7bc 630f 623c
00000230: 574d 033b a239 01bd f83c 56bd 4deb 38bd
00000240: d645 46bd e9b3 28bd 58cd 56bc e468 07bd
00000250: ab1d 51bb 10e8 04bd 1584 8fbc 17c1 1abb
00000260: 7a13 b5ba 8399 fd3c c6b4 3a3b e7b7 74bc
00000270: ff09 cd3c 3812 913c 956e d9bb 9d19 01bd
00000280: 1335 033b fd69 cb3c 776c a73c 65bb 183b
00000290: 275b ecb9 1836 eebb 6efb a4bb 1b39 0cbb
000002a0: 59db 3c3c 834b b93b 2e44 acbc 1603 adbc
000002b0: 72f7 9bbb fc29 4abc a330 adbc 0313 56bd
000002c0: 6136 56bd 9914 2abd 10ae 1bbb 01e0 87bb
000002d0: cdce 24bd 7e5c 38bd 42f6 bebc 8068 cebc
000002e0: 1345 b73b 0dff 6e3b 5a8d 95bc 81e9 b3bc
000002f0: 0c70 82bb d7a2 0abc a8bc eebb dab4 cebc
00000300: 638c b03c 44a1 9b3c e111 813c 23ec c5bb
00000310: 5b0c 71bb dbbe a338 11a7 cfbc 8fee ce3a
00000320: f18f e13b 2713 efbc db95 eebc 5d15 26bd
00000330: 6fcc 3abc 726f c2bc 9cc2 d2bc ea58 9fbd
00000340: 02ae 90bd 5d25 2ebc 58c7 f9bb 21a4 73bc
00000350: 9a69 03bd f90e 4dbd f956 513b 419e 68bb
00000360: 834f 723c 718e 213b 3168 9a3b e5f6 d33c
00000370: 4e94 87bc 08f5 8a3b 2383 9cb9 e47b 1abd
00000380: f520 12bb 692a 213d 0c66 613c 6536 be3c
00000390: fbb2 953c deff 86bc 91e5 44bd 6fed 92bc
000003a0: ab24 243c c33f 07bd 810c b6bc 4076 4abd
000003b0: 805a 22bd 1e5a 0abd cf18 8bbd a126 89bd
000003c0: ae17 abbd f63f 0abd c5ab 04bd 7c76 d8bc
000003d0: ffcd 57bd e444 1bbd 114a 0bbc e2c0 ce3b
000003e0: 96a5 4ebc aa7f e4bc ba6b da3b 9562 a33c
000003f0: e903 273c e7fb 9f3c 9e82 e13c 942d 543a
-0.002334559 -0.021377198 0.006394327 -0.014560443 0.0078849 -0.0019939395 0.0051805032 -0.013248888
-0.0036677057 -0.018910004 -0.034611184 -0.026050206 0.020278288 -0.0033432487 -0.006896821 0.02678433
0.0050712996 0.0057771364 0.0187589 0.0014397629 0.011897845 -0.00069330924 -0.0064135133 -0.0011111255
-0.004028082 -0.002501515 -0.01995111 -0.03858624 -0.04486028 -0.011113553 -0.017065845 -0.015502837
-0.018735493 0.010350359 -0.011981764 0.0043693515 0.017939098 0.0018392535 0.013340503 0.010040756
-0.008267905 -0.0038740954 -0.02349326 -0.0050019748 0.012097161 -0.0074165706 0.019715078 0.00875514
-0.021375425 -0.008957837 -0.0034280294 -0.00062637014 -0.011352988 0.0058974405 -0.018415911 0.012606678
0.0017850217 -0.014316176 0.0011470558 0.006689313 0.01776905 -0.011726295 -0.004140309 -0.03621891
-0.017035091 -0.024842558 0.011807329 -0.0047091194 -0.03111521 -0.008751075 0.013000604 0.016439429
0.0150606185 0.007930878 -0.013615352 -0.026708504 0.014083068 -0.017933281 -0.011956692 -0.009021873
-0.01531348 -0.020709671 -0.0013951624 -0.0043883645 -0.002527146 0.01723144 -0.01286133 0.0084853545
0.011795622 -0.026690524 7.711576e-05 0.005656424 -0.0034757021 0.014139594 -0.020154335 -0.03364945
-0.013067719 0.007214054 0.012522389 -0.017024273 -0.00020169478 -0.033617705 0.008320931 -0.009465464
-0.010215296 -0.0249271 -0.032816272 -0.0044485554 0.01785672 -0.023528902 -0.0014054432 -0.008501415
-0.02207031 -0.040597454 0.012871559 -0.01370288 0.0030727019 0.0004413745 -0.003986903 0.02781608
0.013227634 0.026734417 0.009847254 0.002762381 0.02055452 0.0021588027 0.00071494747 -0.022105489
-0.02123454 0.009505058 0.0064443573 -0.001307866 0.012346305 -0.013317086 0.0070283604 0.0019358286
-0.01600765 -0.02263437 -0.026287464 0.013797614 0.0020035112 -0.031549104 -0.052304238 -0.045146275
-0.048406444 -0.0411872 -0.013110481 -0.033059016 -0.0031908553 -0.032447875 -0.017519036 -0.0023613626
-0.0013815009 0.03095699 0.0028489097 -0.014936424 0.02502918 0.017708883 -0.006635497 -0.031518567
0.0020020648 0.024830813 0.020437462 0.0023305055 -0.00045081342 -0.007269632 -0.0050348556 -0.0021396342
0.011526906 0.0056547537 -0.021028604 -0.021119636 -0.0047597224 -0.012339111 -0.021141356 -0.052264225
-0.052297954 -0.04152355 -0.0023754872 -0.0041465764 -0.040236283 -0.045010082 -0.023310784 -0.025196314
0.005592951 0.003646794 -0.018255878 -0.02196193 -0.003980642 -0.008461676 -0.007285673 -0.025232721
0.021551317 0.018997796 0.015755596 -0.0060401126 -0.0036781046 7.807995e-05 -0.025348218 0.0015787649
0.006883614 -0.029183937 -0.029124191 -0.040547717 -0.01140128 -0.023734782 -0.025727563 -0.07780631
-0.07064439 -0.010629025 -0.0076226406 -0.014870674 -0.03208313 -0.050063107 0.003194271 -0.0035494717
0.014789465 0.0024651552 0.0047121276 0.025874564 -0.01655021 0.004240636 -0.00029852343 -0.037715808
-0.0022297476 0.039347086 0.01375724 0.023219297 0.018273821 -0.016479429 -0.048070494 -0.017935483
0.010018508 -0.033019792 -0.02222276 -0.04942918 -0.03963709 -0.03377735 -0.06791841 -0.06696821
-0.08354126 -0.033752404 -0.032390375 -0.026423685 -0.052686688 -0.037907496 -0.0085015455 0.0063096145
-0.012612721 -0.027892906 0.006665674 0.019944469 0.010193803 0.019529296 0.027528103 0.000809395

bias f4 [30]
00000000: 5c0a 1abe 54d1 423e 1189 423e d890 0dbe
00000010: 70d8 e8bc 268a 9dbd 5c14 603e 0abc 723d
00000020: c084 1a3e 80c2 d23d 5cd0 f03d ba86 083e
00000030: 8cc9 143e 42a0 6abc 76f6 f83d 06ab 3abc
00000040: 0c76 483e a4ec 65bd 02ee 783d 2f48 133e
00000050: 7bd2 553e af9a bdbd a2d5 163e dc88 7d3e
00000060: 2b8a d8bd 0b94 283e e4fa eb3d 56d6 913b
00000070: c374 3abd 2d0e 113c
-0.15043014 0.19025165 0.18997599 -0.13824785 -0.028423518 -0.07692365 0.21882766 0.05926136
0.15089703 0.10291004 0.117584914 0.13332644 0.14530009 -0.014320435 0.12156384 -0.011393314
0.19576281 -0.05613388 0.060773857 0.14383005 0.20881073 -0.09258019 0.14729932 0.24759239
-0.105732284 0.16462724 0.11522463 0.0044505997 -0.04552151 0.008853477

weight f4 [30, 30]
00000000: a776 323b 0046 483d 1c46 8abe d0cf 563e
00000010: 4e4b 35be 7d09 62be 7537 71be 7e98 353e
00000020: 44a3 243e ba66 ebbd 429e 4fbc 7ce7 dc3d
00000030: b223 853e 0686 1d3e 3b56 273d 24f4 9abc
00000040: 7665 a53d 91f0 5dbe 00cd 223e 0e07 bbbd
00000050: 01e2 2ebe f49a c9bd ffa6 8e3e f5b8 b7bd
00000060: 2cb9 113e f7e8 dd3d d94b 69bd 5aef 80be
00000070: 7271 db3d ee51 30be ccfc 7abd 37bf 71be
00000080: 8d0d 13be a61d 923e 588b ab3d 3c2b 463c
00000090: 9fb3 b7bd d582 4ebe 917d 7a3d 1263 253e
000000a0: 5d7a b2be 2950 213e 0f06 51bd ff90 633e
000000b0: b637 f7bd fa2b 88bd 8088 723e 1692 0e3d
000000c0: 11f0 223e c1b7 efbd 12ec 103e 470a 3f3b
000000d0: 660c 0e3e f48e 103e abfc 433e 1490 3b3e
000000e0: 71b3 863d 321d 193e 9789 21bd e8d5 4dbe
000000f0: c802 4cbe fbf8 a93d ef5e 0f3e 0cf3 3fbd
00000100: 12a9 183e d10b 07bd ff9f 2a3e d24b 54bd
00000110: de64 163e a053 69bd 5597 843e 3e51 5ebd
00000120: dc40 ba3c bffa fa3d fbec 2e3e 086d 963e
00000130: 29b5 b0bd aa95 57bd f379 a23d df7d 25bd
00000140: 0006 c8bc 0161 afbc 4ed7 173e 28b3 4cba
00000150: dc97 0abe 64a0 fe3d f793 40be c616 63bb
00000160: 5213 853e b8a1 e93d 2496 8e3e a0d7 21be
00000170: 0218 e5bd 445c a1bd 993c 1bbc 69d8 e9bc
00000180: ea0e afbe 99a2 de3d 104c 09be 3be8 94bd
00000190: 5434 aabe e810 ff3d a827 e63c e03f d0bc
000001a0: 1b37 003e e856 843d 516f 98bd 9e54 0c3d
000001b0: 208d 28be b8bc f13d 1599 56be df74 963d
000001c0: 1215 e43d 4c66 ad3d 263a 9cbc d648 5ebc
000001d0: e7de 1b3e a235 353e e1ff c63d fc8b 00be
000001e0: a46f 8b3e 037a e23d 0c58 b3bc bbae bdbd
000001f0: 23e4 0c3b b045 9bbd 11ff 1cbe 6e89 bdbd
00000200: 8ab1 bebd a917 4b3e 2729 213e 024f 3fbd
00000210: b7b8 e6bd 1ad7 8cbd 3467 cbbd 61ad b13d
00000220: 6063 763e 8fab 1cbe 8eb4 c3bd e765 5e3e
00000230: a3c7 ce3d 9c01 3b3e a772 abbd bd89 2cbc
00000240: 0862 193e d761 c8bc 1b59 7a3c 569a a23c
00000250: f5ec 963c e4d0 26bd e2ea 1dbd cd75 173e
00000260: 8306 33bd 44d3 a6bc e6b9 01be 140c e03d
00000270: 14e2 79bd cd74 9bba 82e0 80bd c6fc c1bd
00000280: 31b4 70be d57a e5bc bf21 25bd ac6d 6cbd
00000290: 95a2 28be 5f03 39be e8ea 33be eab9 fa3d
000002a0: b2b7 85bd 9336 353e dbdd 803d 237e 03be
000002b0: 9cb4 a63d eb02 053e 1a4f d63d fbc7 a93d
000002c0: 8431 443d 6004 f53d 4330 66be 9a20 3b3e
000002d0: 4e19 133c ad59 d8bd dccd 26bc d281 a7bd
000002e0: 7c9c 433d 5f2d 163e ca6c 83bd b1f0 10be
000002f0: aa75 1bbe a1d4 57bd e4dd 6abc 54b7 223d
00000300: ec29 ac3d 16b4 cc3d 568a 373e d036 603d
00000310: c737 713e 33f7 7a3c f57e cebd 9d4a 7e3d
00000320: d075 a9bd 3edb e4bd fa8c d4bd 7e62 fe3d
00000330: 4465 f03d 0106 163e 1fc5 073e 423b 91bd
00000340: 86f2 b0bd def5 01bd 1203 dfbb d647 b13d
00000350: 5564 303e 10dd 203e 9d6c f6bd ee36 ecbd
00000360: 27ed 073e 0598 243e 0bbe 743d 39ae 60be
00000370: 2c26 1d3e 8a2e db3c fe85 3bbe 349d 06be
00000380: 8fb6 92bd 7fe5 6f3c f197 da3c f217 df3d
00000390: 37d5 bc3c 76d6 d4bb 79f2 b53d 9f67 4c3d
000003a0: 8921 37be 4c20 f93d fe7f e2bd 95c8 543d
000003b0: 5cdf 1a3e 04ed 2b3e 9140 cabc 1e8a e73c
000003c0: 6d1c c73d 5d31 40bd 22d3 543d fc26 f1bd
000003d0: 2433 6fbd aae9 03be fc4c 4bbc 6395 3a3e
000003e0: 198b 173e f6d6 873d 57c6 ae3e 2942 60be
000003f0: a2c3 08bd 7fcc 143d 15ae a93d d451 79bc
0.0027231367 0.048894882 -0.27006614 0.20977712 -0.17704508 -0.22073932 -0.23556311 0.17733952
0.16077906 -0.11494203 -0.012672009 0.1078634 0.26003796 0.15383157 0.04085372 -0.018915243
0.08075993 -0.216738 0.15898514 -0.09132205 -0.17078401 -0.09844008 0.27861783 -0.08970825
0.14230794 0.1083545 -0.0569571 -0.2518261 0.10714997 -0.17218754 -0.061276242 -0.23608099
-0.14360638 0.28538245 0.08376187 0.012095269 -0.08969807 -0.20167096 0.061154906 0.16151074
-0.3485898 0.15753235 -0.05103117 0.2222328 -0.12071173 -0.06649013 0.23684883 0.034807287
0.1591189 -0.1170497 0.14152554 0.0029150413 0.13871917 0.14117032 0.19139354 0.1831668
0.065771945 0.14952543 -0.039437857 -0.2010113 -0.19922936 0.082994424 0.14001058 -0.046862647
0.14908245 -0.032970253 0.16662596 -0.05183012 0.14686915 -0.056964517 0.25896707 -0.054276697
0.022736005 0.12254857 0.17082588 0.2938006 -0.086283036 -0.052632965 0.07933416 -0.040403243
-0.024416924 -0.02140856 0.14828226 -0.0007808679 -0.13534492 0.12432936 -0.18806444 -0.0034651025
0.25991303 0.114077985 0.27848923 -0.1580491 -0.1118622 -0.078789264 -0.009474897 -0.028545575
-0.34191066 0.10870857 -0.13407922 -0.07270857 -0.33243048 0.124543965 0.028095081 -0.025421083
0.12521021 0.064618886 -0.07443107 0.034260385 -0.16460085 0.11803573 -0.20956834 0.0734651
0.11136831 0.08466777 -0.019070696 -0.01356717 0.15221749 0.1769624 0.09716774 -0.125534
0.27233613 0.11058428 -0.02189257 -0.09261843 0.0021498285 -0.07581651 -0.15331675 -0.09254728
-0.09311207 0.19833244 0.15738355 -0.046706207 -0.112657 -0.06876965 -0.09931794 0.086756475
0.24061346 -0.1529982 -0.095559224 0.2171856 0.100966714 0.18262333 -0.083714776 -0.010530886
0.14978802 -0.024460716 0.015280033 0.019848984 0.018423537 -0.040726557 -0.03855408 0.14791031
-0.043707382 -0.020364411 -0.12668571 0.10939804 -0.06100662 -0.0011860371 -0.062928215 -0.09472041
-0.23506238 -0.028012672 -0.040315386 -0.05772178 -0.1646827 -0.18067692 -0.17570078 0.122424915
-0.06529178 0.176966 0.062923156 -0.12841086 0.08139917 0.12989394 0.10464306 0.08290096
0.047898784 0.11963725 -0.22479348 0.18274155 0.008978201 -0.10563979 -0.010180917 -0.08179058
0.047756657 0.14665745 -0.06417234 -0.14154316 -0.15181604 -0.052693013 -0.014335129 0.039725617
0.084064335 0.09995286 0.17923865 0.054739773 0.23556434 0.015317726 -0.10082809 0.062082876
-0.08274424 -0.1117463 -0.10378452 0.1242113 0.11738065 0.14650728 0.1325879 -0.07091381
-0.08640008 -0.031728618 -0.006805786 0.0865628 0.17225774 0.15709329 -0.12032435 -0.115339145
0.1327406 0.16073616 0.05975155 -0.2194146 0.15346593 0.02675559 -0.18312833 -0.13145906
-0.071637265 0.0146421185 0.02668378 0.10893239 0.023050888 -0.0064952923 0.088841386 0.04990351
-0.17883886 0.12164363 -0.11059569 0.051949102 0.15124267 0.16789633 -0.02468899 0.028264102
0.09722219 -0.046922076 0.051959164 -0.11775014 -0.05839838 -0.12882105 -0.012408491 0.18221049
0.14799155 0.066327974 0.34135696 -0.21900238 -0.033389695 0.036327835 0.08285157 -0.015217263

bias f4 [30]
00000000: 0967 e53d 1654 063e 977d ad3b a17b bdbd
00000010: c294 f1bd 6884 e6bc 9341 68bd 85b5 efbd
00000020: 2eda 16bd d72a bd3e 8ac6 363e d464 143d
00000030: b8a7 733e 5d67 383e 531c 093e b117 8cbe
00000040: 0110 8dbd df22 5bbe ec3e dd3d 0959 093e
00000050: f11f a1bd 5f68 6f3e 4cb6 99be 9e14 383d
00000060: 16c0 fc3d 6a17 733d f1fd ad3d ff1c b6ba
00000070: 299d 7fbe 151c b13c
0.11201293 0.13118014 0.0052945125 -0.09252096 -0.117959514 -0.028139308 -0.05670316 -0.11704544
-0.036829166 0.36946747 0.17849174 0.03622897 0.23794448 0.1800818 0.13389711 -0.27361825
-0.06887818 -0.21400021 0.10803017 0.1341287 -0.078674205 0.23379658 -0.30021894 0.044941537
0.12341325 0.0593485 0.08495701 -0.001389414 -0.24962296 0.021619836

weight f4 [10, 30]
00000000: 3bad fcbd afee fb3d 7b32 073e b1ad 03be
00000010: c9c6 86be 121b 52be d250 0ebe 3560 db3d
00000020: 0aca 5ebe ddac ca3d 6d61 bdbd e991 0ebe
00000030: ee97 3dbd 0771 603e dbdf 5ebd fbc3 2e3c
00000040: 00ba ab3c 3ada 703d 850c 59bc 4757 7a3e
00000050: 021e 38be f16a 18be 1ce9 0bbe 2b8e 03be
00000060: bcf2 c7bc 87f0 593c 9e78 6ebd bf7f 8bbd
00000070: 1415 023e f1fd 6a3d 327b 8b3a 0e4c caba
00000080: 821b 9abd ca11 e03c 7d1b 903e b8df d93d
00000090: d097 e53d bad2 583e eaac 00be 3397 76be
000000a0: 911f cf3d a717 a0be 3bd8 26be 1b27 6dbe
000000b0: c164 9ebe b7ce 3e3d 0e18 2d3e 6b32 883e
000000c0: c96c aebe ec32 833d 122c 323d be61 66be
000000d0: 1c37 2e3e 2ea5 fb3c d6e4 93bc dfcd 453e
000000e0: 31b9 95be c683 f2bc 1712 dd3d a725 423e
000000f0: 578c 99bc b436 4bbd 6e8d 75be 62e6 a8bd
00000100: 0622 063e 8c6d 813e b4a9 5ebd 0879 2bbb
00000110: f323 8fb8 64df 433d cf47 85be 5a91 e33d
00000120: ecb5 f43d aaec 623e 13bc 4b3e 23cb 5cbe
00000130: 03b1 a6bc 90bd 68bd 7b39 963d 3056 20bb
00000140: d9a2 14be e535 e13d 7222 90bc 6290 a1bc
00000150: 2bd1 0d3e 04fd 02bd d87d 9f3c 3a55 2f3e
00000160: ae8b 52be 709c 9c3d c506 4c3d 1151 5bbe
00000170: 94ac a73d 6425 e9bd 16c1 e83d fced b7bd
00000180: 1b73 cd3d 7ba9 213e 0f76 9b3d 09a9 033e
00000190: fd2b 0abe f9ae 153e 14ac fabd 29f2 1abe
000001a0: f972 9fbc ce7b 55bc c90f bc3c 4d79 8f3d
000001b0: 379a 2d3e 9a7d 3dbe c461 b03c fac9 a4bd
000001c0: 9708 f6bb b215 2abd 177f 403e b619 6ebd
000001d0: 7655 903d 131b 033e 3143 aabc 4a10 9a3a
000001e0: 308f bfbd c3ae 123e 6ade 7cbe ec5d d2bc
000001f0: 8d82 ef3c 4b6e 71bd f4bb 723e 3a1d 9cbd
00000200: 46dc 2ebe 26c6 613e 0034 a9bb 9fa2 233e
00000210: 6c32 0e3e 0c6c 953d a033 1abd af7b ffbd
00000220: a89b 7f3d 2bb3 41be 5f37 b43d 550e ad3d
00000230: 51bd 41be 6a7d 5b3e 4720 51be 7ae6 1b3e
00000240: 638c 203d 8c9b 4b3a fe61 f23d 8d33 33be
00000250: a7bc 00be 71c3 dd3c 639d 183e 8b72 74be
00000260: 0174 d53d 499b fdbd a58b 163e 5003 443e
00000270: 44a7 dbbd 7ab3 1abe 9511 103e bafd 043e
00000280: de02 08be fd52 e63d 84eb 173e 7c17 2dbe
00000290: 303c e0bd 1d04 36be b38b eebd 5883 ed3d
000002a0: 020d 3fbd 1e9e 8a3d 842c 90bc 4951 f13d
000002b0: 6823 1e3e 93a1 a1bd a9bd 28bd c3ef 043d
000002c0: a9bf 8a3c d22b f13d cfc1 21be 4192 67be
000002d0: 6364 9f3c 431f febd ebe1 ab3d 6bd5 a7be
000002e0: ff90 9abb 3c7b bebd c7d9 83be 59d4 093d
000002f0: 9714 2c3e be52 03bb 834e 523d 34cc 87be
00000300: 0bc1 503e 3afb 7f3c ea26 043e 4c10 d8bc
00000310: f433 9bbb ff45 3cbe c3d4 b93d ba7f 11be
00000320: 5e4f c23d be97 08be 3777 bebd 7f3f 393e
00000330: 4956 4f3e 504f dd3c 354a e63d 9a3c e8bd
00000340: 5ccf 9bbe 3c5e 6c3d 9e7d 22be ee03 22be
00000350: bec6 7ebd 2ba0 0dbe 1ff2 96be c265 eb3c
00000360: d02c 6cbe a741 603e 5e7c 8f3b e40b 85be
00000370: e7c1 0d3e 7d98 32bd 5db9 c8bd d701 78be
00000380: ceb0 dabd bb4b 3bbc 9560 46be 3559 afbd
00000390: fc79 8a3e cde4 383e cc75 863d 3be7 913e
000003a0: bff3 a3bd 6539 8dbe e00f 30be 403f 383e
000003b0: e4f6 343d ad5e 01be 3403 173e f440 2f3e
000003c0: cdba 983e 8858 003e 0fcb b7bd 7d4f 943e
000003d0: edf2 10be 5726 86be df4f e8bc 68b7 abbc
000003e0: 90e2 ebbd 22e5 b6be d233 68bc e33d f6bd
000003f0: 5c57 77be cace 3dbe 230a 44be 5482 7f3d
-0.123377286 0.12301385 0.1320285 -0.12859227 -0.26323536 -0.20518139 -0.13898018 0.107117094
-0.2175676 0.09896252 -0.09247098 -0.13922848 -0.04628747 0.21918117 -0.054412704 0.010666843
0.020962715 0.058801867 -0.013247614 0.24447356 -0.17980197 -0.14884545 -0.13663143 -0.12847202
-0.024407737 0.013301975 -0.0582205 -0.06811475 0.12703353 0.057371084 0.0010641573 -0.0015434043
-0.07524778 0.027352232 0.28145972 0.10638374 0.112105966 0.21174136 -0.12565961 -0.24081115
0.10113443 -0.31268045 -0.16293423 -0.23159449 -0.30936244 0.046583857 0.16903707 0.26600966
-0.3406737 0.06406197 0.04349906 -0.22498223 0.1701321 0.030718412 -0.018053453 0.19316815
-0.29242852 -0.02960385 0.10794466 0.18959676 -0.018743677 -0.049612716 -0.23979732 -0.08247067
0.13098916 0.2527889 -0.05436106 -0.002616467 -6.8254674e-05 0.047820464 -0.26031348 0.11111708
0.11948761 0.22160593 0.19895963 -0.21561866 -0.020348078 -0.056821406 0.07335182 -0.0024465434
-0.14515246 0.10996608 -0.01759455 -0.019722167 0.13849322 -0.031979576 0.019469187 0.17122355
-0.20561096 0.076470256 0.049811143 -0.21417643 0.081872135 -0.11384085 0.11364953 -0.08980939
0.1003172 0.15787308 0.07590877 0.1285745 -0.13493343 0.14617528 -0.122398525 -0.1513144
-0.019464003 -0.013030006 0.022956746 0.07005558 0.1695336 -0.18504944 0.021530993 -0.080463365
-0.007508348 -0.041524597 0.18798481 -0.05812999 0.070475504 0.12803297 -0.020783992 0.0011754122
-0.09353483 0.14324479 -0.24694219 -0.025679551 0.029237056 -0.058943074 0.23704511 -0.07622762
-0.17076215 0.22048244 -0.0051636696 0.15980004 0.13886422 0.07295999 -0.03764689 -0.12474763
0.062404305 -0.18916003 0.08799624 0.08449999 -0.18919875 0.2143456 -0.20422469 0.15224639
0.039196383 0.0007767014 0.11835097 -0.17500134 -0.12571965 0.027070733 0.14903788 -0.2387182
0.104225166 -0.12383134 0.14701708 0.19141889 -0.10725263 -0.15107527 0.14069207 0.12987414
-0.13282344 0.112462975 0.14835936 -0.1690349 -0.1094898 -0.17775007 -0.11647739 0.115973175
-0.046643265 0.0676844 -0.017599352 0.11783082 0.15443194 -0.07892146 -0.0411965 0.032455217
0.016937094 0.11775936 -0.15796588 -0.22614385 0.019457048 -0.124083064 0.083927 -0.32780012
-0.004716992 -0.09300849 -0.25752088 0.033649776 0.1680473 -0.0020038332 0.051344406 -0.26522982
0.2038614 0.015623862 0.1290547 -0.026374958 -0.004736418 -0.18386076 0.09073784 -0.1420888
0.09487794 -0.13339135 -0.09300082 0.18090628 0.20247759 0.027015358 0.112446226 -0.11339684
-0.3043164 0.057707056 -0.15868232 -0.15821812 -0.062201254 -0.1383063 -0.294816 0.028735045
-0.2306397 0.21900044 0.0043788394 -0.25985634 0.13843499 -0.043602455 -0.0980098 -0.24219452
-0.10678254 -0.01143163 -0.1937278 -0.08561937 0.27046192 0.1805603 0.06565437 0.28496727
-0.08005475 -0.2758285 -0.17193556 0.17992878 0.044180766 -0.12633772 0.14747316 0.17114621
0.29830018 0.12533772 -0.08974277 0.28966895 -0.14155169 -0.26201126 -0.028358398 -0.020961478
-0.11517823 -0.3572169 -0.014172511 -0.12023523 -0.24154419 -0.18535915 -0.19144492 0.06238015

bias f4 [10]
00000000: a1b2 9a3d 34a8 4fbe d0af 243e 7bbe a53d
00000010: b8d0 233c 8b21 773d 4c57 e53d ec89 6cbd
00000020: 54ba e83d fc79 58be
0.07553602 -0.20279008 0.16082692 0.08092972 0.009998493 0.060334723 0.11198291 -0.05774872
0.11363664 -0.21140283
