Exercise2/saves/model_pt5.pt (torch, 377063 bytes, 6 tensors)

weight f4 [30, 3072]
000000 b9 4c 39 bb f2 2c d9 3d c5 f6 e6 bd 06 32 b3 bd
       -0.002827449 0.10604276 -0.11277536 -0.087497756
000010 9e 0d 81 3c 6b 83 a3 3d 7c 7e 68 3d be 1f 8f 3d
       0.015753563 0.0798405 0.05676125 0.06988476
000020 55 52 39 3d 55 5c 49 bd 99 71 0c be 3c 3f 89 be
       0.045244534 -0.04916032 -0.13715209 -0.26806056
000030 db e1 39 be fd 2a 15 bd c9 78 06 be 1b 5b 2e 3d
       -0.18152563 -0.03641795 -0.13132013 0.042567354
000040 ef 1d 80 bd 67 63 05 be db 28 e4 3d 75 1a 3b 3d
       -0.062557094 -0.130262 0.11140605 0.04567953
000050 56 15 46 3d a1 3c 60 bb 7b 9c b5 bc eb 79 59 bd
       0.04836019 -0.0034215825 -0.022169342 -0.053094786
000060 5c 5c 0e be 0e 08 d0 3d 65 f4 1a 3e 4f 37 23 3e
       -0.1390242 0.10157786 0.15132292 0.15939067
000070 ea 75 60 3e 1e 89 57 3e c5 ee b9 3d a8 21 1c 3e
       0.2191998 0.210484 0.09078745 0.15247214
000080 4d 07 62 bd 5f a3 c0 3d 1e dc ea bc 4a eb 8d bd
       -0.055182744 0.094061606 -0.028669413 -0.069296435
000090 d4 06 8c bb 20 35 ae 3c f9 d0 f8 bc bd 1f e9 bd
       -0.004273275 0.021265566 -0.030373083 -0.11383007
0000a0 4b c0 6a bd 45 25 9f 3c 6a 8a 77 3c eb f6 85 be
       -0.05731229 0.019426951 0.015108684 -0.26164946
0000b0 c4 a7 b8 be 4e 24 2f be 39 6f 2e bd ff 91 b0 bb
       -0.36065495 -0.17103693 -0.04258654 -0.005388498
0000c0 61 37 1e be df 29 5e be b9 8b a1 bd f7 cd 3e 3c
       -0.15450813 -0.2169566 -0.07887978 0.0116457855
0000d0 c1 08 ca 3d 2e 69 65 bd 24 59 81 3d 05 91 70 bb
       0.09864951 -0.05600851 0.0631583 -0.0036707532
0000e0 8b 4b 0c be 6f 23 c2 3e f3 3c 03 3e b4 27 8c 3e
       -0.13700692 0.3791766 0.12816219 0.2737404
0000f0 4e f9 93 3e a7 49 10 3e a4 2a 0d 3e 03 2e e8 3d
       0.28901142 0.14090596 0.13785797 0.11336901
000100 c5 9a 4f 3d c3 89 d7 3d fe 1e 2b 3d c8 52 0f be
       0.05068471 0.10524323 0.041777603 -0.13996422
000110 e2 9a 50 bd ee ec 08 bc cf f7 f5 bc 22 df 52 be
       -0.050928958 -0.00835727 -0.03002539 -0.20592931
000120 57 e2 80 be be ef 09 be 11 32 be bd 74 24 1b be
       -0.25172684 -0.1347036 -0.09286893 -0.15150625
000130 0e 20 c7 bd e8 4a 90 bc 41 2d cb 3d 08 ab 08 bd
       -0.09722911 -0.017613843 0.09920741 -0.033366233
000140 a2 79 59 be 47 a3 83 be 2a 08 1b be a7 c5 21 be
       -0.21237805 -0.25710508 -0.15139833 -0.15798055
000150 09 06 3c 3d 29 3f 6b be 1b 14 23 3c dc 92 d7 3d
       0.045904193 -0.22973312 0.009953524 0.10526058
000160 09 9e a1 3d e6 89 6c 3e a2 eb 17 be e7 40 67 3d
       0.07891471 0.23099479 -0.1483598 0.05645838
000170 02 b3 47 3e 76 6b 7f bd 33 f6 35 3e a7 ac 4d 3d
       0.1950188 -0.062358342 0.17769699 0.050213482
000180 78 6e 3a 3e 27 c4 99 bd 5e fc 8c bd 83 4d 50 be
       0.18206203 -0.07508116 -0.06884073 -0.20342068
000190 c4 64 9c bd 2e 6a ec 3d de 70 23 be c8 8c 8a be
       -0.07636407 0.1154369 -0.15961024 -0.27060533
0001a0 90 77 be bd 31 0f 09 be 55 c8 9b be b5 5a 68 be
       -0.093001485 -0.13384701 -0.3042628 -0.22690852
0001b0 e9 ea bb bd 30 f2 57 3e b1 95 67 3e f6 56 50 be
       -0.09175665 0.21088481 0.22615696 -0.20345673
0001c0 ff 75 81 be 5f 64 87 be a7 30 4e be 89 fd 99 be
       -0.25285336 -0.26443765 -0.20135747 -0.30076244
0001d0 d7 1b ea bc db a9 68 bc c0 06 1b bc 43 bb 5c 3e
       -0.028577728 -0.014200653 -0.009462059 0.2155581
0001e0 29 a0 a0 3d 4e 3a 47 bd f1 ec 8a bd 15 8b 50 be
       0.07843048 -0.048639588 -0.06783474 -0.20365556
0001f0 ad 70 9e be 76 4d b1 be 3c 7c 17 3e 0b af 25 3e
       -0.3094534 -0.3462941 0.14793485 0.16180055
000200 5d c1 9b 3e fa 12 44 3d aa a9 07 3e a4 64 94 3d
       0.30420962 0.04786966 0.13248315 0.07245758
000210 14 73 92 3c a2 8d 36 3e c4 dd 92 3c 29 44 31 3c
       0.01787714 0.17827466 0.017928012 0.010819473
000220 e3 6e 3b 3e ab cf 6f be 33 14 03 be c0 7e db 3c
       0.18304019 -0.23419063 -0.12800674 0.026793838
000230 a7 e7 70 bc ae 76 20 bd 2d 57 04 be e9 af 2a be
       -0.014703668 -0.03917568 -0.1292388 -0.16668667
000240 9f 15 bc bd 6e ac 0e be 0b 5e 10 3e 1a 21 d2 bd
       -0.091838114 -0.13932964 0.14098375 -0.1026022
000250 95 97 a3 3d 89 a9 6e 3e 72 04 af 3c 74 be 94 3e
       0.07987896 0.2330686 0.021364424 0.29051554
000260 21 e4 5e ba 72 b5 20 be 41 71 91 3a 6e 81 1c 3e
       -0.0008502622 -0.15694216 0.0011096374 0.15283749
000270 de 30 6e be 28 26 69 be 65 33 9e 3e 4f 34 36 3e
       -0.23260829 -0.22768462 0.30898586 0.17793392
000280 28 6e bd bc d1 c2 df bd 8c 76 80 3e ac 8c b5 3d
       -0.023123816 -0.1092583 0.25090444 0.08864722
000290 13 cc 44 bd 38 d5 36 3d ac 99 d8 3d 6d 72 07 3e
       -0.048046183 0.044636935 0.105761856 0.13227244
0002a0 a9 38 00 bd 39 c7 4f bc 9f c8 45 3e 71 52 ee bd
       -0.031304035 -0.012681776 0.19314812 -0.11636818
0002b0 6e 45 48 3d b0 81 85 bc b6 c9 b2 be f4 1c b3 be
       0.04889434 -0.016297191 -0.34919518 -0.34983027
0002c0 92 4c b4 be 10 34 25 be 3d 0f 91 3e 5b cd f3 3d
       -0.3521467 -0.16133142 0.28331938 0.11904403
0002d0 ab d7 af bc bd 84 74 3e 4a 6e 8a 3e c2 60 e9 3d
       -0.021465143 0.2387876 0.2703727 0.11395408
0002e0 27 7d 92 3d d5 77 84 bd 0b f3 29 3d 35 8a dc bc
       0.07152777 -0.06468169 0.04149155 -0.026921371
0002f0 19 8c e5 bd 73 39 bd 3c c5 46 e5 3d 64 9e 73 3e
       -0.11208362 0.023098683 0.11195139 0.2379089
000300 28 be 33 be fa 34 2b be b5 3d 0a be 0a 15 8a be
       -0.17553008 -0.16719428 -0.13500102 -0.26969177
000310 fd 3c cb bd 9c b9 cb 3d 55 57 94 3e bd 2c 18 3e
       -0.09923742 0.099475116 0.2897288 0.14860816
000320 60 bf bb 3d f2 d5 39 3e ed 0f d2 3c da 70 8c be
       0.09167361 0.1814802 0.02564236 -0.2742985
000330 dc 7a 2c be ad 6d 00 bd e1 b7 48 be 58 33 99 be
       -0.16843742 -0.031354595 -0.19601394 -0.29921985
000340 7d a9 a5 be d8 a8 3a be d0 07 b7 3d 5f b4 7a 3c
       -0.32355872 -0.18228471 0.08937037 0.015301793
000350 40 ad 1e 3d e7 11 9a 3e 62 86 d8 3e d7 c8 05 3d
       0.038739443 0.30091783 0.42290026 0.03266224
000360 90 52 49 bd f6 e1 5b 3d d6 6e ef bd 68 3a 93 be
       -0.049151003 0.05368229 -0.11691062 -0.28755498
000370 6a b1 2a be 13 cd 08 be 6e a1 59 be d6 e5 54 3e
       -0.1666924 -0.1335948 -0.21252987 0.207908
000380 a7 01 f0 bd 6c d5 58 be 6f 3d e0 be cb 77 8a be
       -0.11719065 -0.21175164 -0.4379687 -0.2704452
000390 eb 14 47 be 9c 9b 2e bd 03 e9 97 3e 14 8f 10 3e
       -0.19441573 -0.04262887 0.2966996 0.1411708
0003a0 cc c5 02 3e a7 75 69 3e 2a 94 42 be 66 43 b0 3d
       0.12770766 0.22798787 -0.19001833 0.08606605
0003b0 5a 33 a2 3e 35 37 79 3c a3 df 7e bd d8 63 83 bb
       0.31679803 0.015210916 -0.062224995 -0.004009705
0003c0 e5 bc 91 3d 04 32 1d 3e 0e 86 90 bc c3 d7 3b be
       0.07116107 0.1535111 -0.017642047 -0.18344025
0003d0 d1 42 3b be 4a 00 d0 bd e0 19 94 3e 38 69 41 3e
       -0.18287207 -0.10156305 0.2892599 0.18887794
0003e0 b0 ba e8 bd 7e 59 c0 3c af 69 4f bd 1e 0c 1b be
       -0.11363733 0.023480173 -0.050637897 -0.15141341
0003f0 b0 24 f6 bd 89 3c 82 be 43 05 d3 bd b1 40 34 3e
       -0.12018716 -0.2543681 -0.10303738 0.17602803

bias f4 [30]
000000 c2 53 8e 3f 18 f9 10 be 21 c6 09 c0 44 ad 42 bf
       1.1119311 -0.14157522 -2.1527178 -0.7604563
000010 3f d5 da bf 25 4b 2b 40 a5 32 57 bf aa fa 55 bf
       -1.7096328 2.6764615 -0.8406165 -0.8358561
000020 e1 63 4f 3f 28 ed c1 be 07 fc dd bd aa 91 67 be
       0.8101178 -0.37876248 -0.10839086 -0.2261416
000030 15 9e 7e bf f9 8f f6 bf 2b 20 c8 bf ff 7e 98 3f
       -0.99459964 -1.9262687 -1.5634817 1.1913756
000040 91 8b b6 3e 2a d4 30 bf 15 0c 01 c0 1d 09 b5 3e
       0.35653356 -0.69073737 -2.0163624 0.35358515
000050 52 d7 a1 bf c4 36 ee 3e 19 c4 f6 bf f2 3f ec be
       -1.2643836 0.46526158 -1.9278594 -0.46142536
000060 4b 7e 4e bf 63 71 db bf 34 64 5f be 69 d8 e0 bf
       -0.8066146 -1.7143978 -0.21815568 -1.7566043
000070 73 cd ef bf 37 87 cf bf
       -1.8734573 -1.6213139

weight f4 [30, 30]
000000 e7 df e2 bc 78 b1 90 3d 03 76 5b bc 84 22 e7 bd
       -0.027694656 0.070650995 -0.013394835 -0.1128588
000010 3b 64 d4 be c6 52 2b be ea 5c 47 bd 42 34 a3 be
       -0.4148272 -0.16730794 -0.048672594 -0.31875807
000020 8f ec 6b be e6 41 86 bd f8 a3 1d bb d5 0d 1d be
       -0.23039459 -0.06555538 -0.0024054032 -0.15337308
000030 aa 71 13 3e 29 0f b6 be ac bb 40 be 05 9b 5c 3e
       0.14398828 -0.3555844 -0.18821591 0.2154351
000040 30 6a 79 bd 59 c7 02 bc 23 57 7a be 68 1b 91 be
       -0.060892284 -0.0079820985 -0.24447303 -0.28341222
000050 15 fc d2 bd 60 1a 96 bc 64 6a ba 3c e9 e0 66 be
       -0.10301987 -0.018323123 0.02275581 -0.22546734
000060 cb cf 37 3d 15 39 b9 3e 43 63 9b 3d 20 e7 0b 3e
       0.0448759 0.36176363 0.07587292 0.13662386
000070 f6 cc ee bd d7 cf 16 bf de 68 7c 3d d1 f2 e5 bd
       -0.11660187 -0.5891089 0.061623447 -0.11227954
000080 3a f0 ea 3d 10 06 67 3d d8 af a4 be 58 ab 5d be
       0.11471601 0.056402266 -0.32165408 -0.21647394
000090 15 bd cf 3d 84 ee d6 3d ae b8 fc bd dc 58 ff 3d
       0.101434864 0.10494712 -0.12339912 0.124681205
0000a0 ad 5a 9c be 3b 95 5f be 5d ae 43 be f2 36 07 be
       -0.3053793 -0.2183427 -0.19109483 -0.13204554
0000b0 40 a3 ca bc 66 7c c8 bd a9 33 e6 bd 51 6e 2f 3e
       -0.024736047 -0.09789352 -0.11240322 0.17131926
0000c0 dc 07 05 3d 58 c9 15 3e e7 b4 6d 3d 9f 01 8d be
       0.0324782 0.14627588 0.05803385 -0.275403
0000d0 c6 20 a0 be d0 ae c4 bc 84 04 10 3e 17 65 dc bd
       -0.31275004 -0.024009138 0.14064223 -0.10761469
0000e0 78 c9 46 3e 9f 3b 03 3d 36 c9 74 bd b6 cc af bb
       0.19412792 0.03203928 -0.059762202 -0.0053649796
0000f0 1b 96 cf bd 49 94 bf bd 31 64 e1 3d e7 07 af 3e
       -0.10136052 -0.09354455 0.11005438 0.34185717
000100 f8 0c 2a bd 51 bf 75 bd e0 aa eb be f2 7a b3 bd
       -0.041516274 -0.059996907 -0.46028805 -0.08763684
000110 fa b1 82 3d 74 4a 96 3d 59 ef cc 3d 9e 97 64 bd
       0.063816026 0.073384196 0.100065894 -0.055808656
000120 dd d5 61 be b1 f7 b2 3d fd 06 7a bc d0 a6 95 be
       -0.22054239 0.0873865 -0.015260455 -0.2922883
000130 ea 8d 5f be 08 5b b0 3d de 56 3e bc f8 3a 3d 3d
       -0.2183148 0.08611113 -0.01161739 0.046198815
000140 f5 d2 aa be a3 60 8c bc 07 68 72 3c 9c ad c1 3d
       -0.33364072 -0.017135924 0.01479531 0.094569415
000150 a2 4e f4 bd 7e 8d 47 3c 0e 56 8d 3c 7f a9 ec 3d
       -0.119290605 0.01217973 0.017252948 0.11555766
000160 5b 05 55 3d 19 ce 9d be 24 58 f1 bc bb 03 b0 bd
       0.05200706 -0.30821303 -0.029460974 -0.085944615
000170 c1 9f 2f be 4b 83 29 be e2 96 7b 3e 13 50 7d 3d
       -0.17150785 -0.1655399 0.24569276 0.061843943
000180 bd 74 8d 3e 0b 2b 5f bd f5 19 0f bd 2b 3f 80 bd
       0.27628127 -0.05448441 -0.034936864 -0.06262048
000190 a1 21 a4 3d 5b 61 1f be d1 17 e3 bd a6 82 7f 3e
       0.08014227 -0.15564482 -0.11088527 0.24952182
0001a0 fe 75 ab bd c7 ab 81 be 86 b5 a6 3c 89 33 7c 3e
       -0.083721146 -0.25326368 0.020350229 0.24629034
0001b0 e5 22 93 bd 3d b6 05 3e f6 37 03 3e 8b 81 84 be
       -0.0718439 0.130578 0.12814316 -0.25880083
0001c0 be 99 20 be 9f 24 74 3c a4 6c 0b be 62 73 b7 3c
       -0.15683648 0.014901309 -0.13615662 0.022393886
0001d0 2e bb cc bc 1f f9 7b be c0 3d 40 3d 64 6b a8 3d
       -0.024991598 -0.24606751 0.04693389 0.08223608
0001e0 cd 95 27 bd 09 e7 82 3d 80 6b 8b be 41 6c 49 be
       -0.040914346 0.06391723 -0.27230453 -0.19670202
0001f0 26 5e 85 be f9 29 7f bd 66 f4 91 be af 65 fe bd
       -0.26048392 -0.062295888 -0.28506774 -0.12421738
000200 78 40 f2 be d5 ac 46 be 5c 69 4b 3e 95 66 fd be
       -0.4731481 -0.19401868 0.1986441 -0.49492326
000210 55 de 2f bf 21 76 1c 3e ba 60 c1 be 8b 54 a6 be
       -0.68698627 0.15279438 -0.3776911 -0.32486376
000220 4c 0d 3c 3e 8d 50 87 be f2 71 5e bd a6 5a 0f be
       0.18364447 -0.26428643 -0.054307885 -0.13999423
000230 0e 4d 12 3e 90 95 be bd 34 61 29 be f6 be 12 be
       0.14287207 -0.093058705 -0.16540986 -0.14330658
000240 dd 80 8d bd be 05 c2 bd a2 2a a8 3d 15 3d b2 3e
       -0.06909344 -0.094737515 0.082112566 0.34812227
000250 d6 11 60 be 06 db 1e bd b6 c1 01 be 42 2f ce 3d
       -0.21881804 -0.038783096 -0.12671551 0.100676075
000260 d5 35 37 bf b8 bf 32 3d 02 94 dc 3d 42 77 a2 be
       -0.71566516 0.04363987 0.10770418 -0.31731611
000270 a2 b9 d7 bd 89 66 1f bd b5 db b5 be 30 19 26 3e
       -0.105334535 -0.038916145 -0.35519186 0.16220546
000280 83 84 9a 3e 0c ab e9 3d 2e 11 18 be 08 27 62 be
       0.30179223 0.11409578 -0.14850304 -0.22085202
000290 bb 2f dc bd 3c 08 8a be ca 4f 45 be 40 13 06 be
       -0.10751291 -0.26959407 -0.19268718 -0.13093281
0002a0 c2 21 91 be b1 23 3a 3c b9 be 89 3c 0c 68 28 3e
       -0.28346068 0.011361049 0.016814576 0.1644594
0002b0 57 3c 14 be 28 19 17 3d c7 b7 ee be 0d 44 26 3d
       -0.14476143 0.036889225 -0.46624586 0.040592242
0002c0 83 26 81 be 50 bd ab bd c0 8c 87 bd ae 8f 1f 3e
       -0.25224695 -0.08385718 -0.06618643 0.15582153
0002d0 23 57 55 be 18 0c 21 bc 8d 70 42 be d6 bc a2 bc
       -0.20834021 -0.0098295435 -0.18988247 -0.019865435
0002e0 75 29 b7 be f8 76 73 3d 15 29 3a be 38 4e f4 be
       -0.35773817 0.05943963 -0.18179734 -0.47715926
0002f0 a0 79 94 3b 59 a4 70 3e 15 e0 98 bd bc 2b 02 bd
       0.0045311004 0.23500194 -0.07464615 -0.03177999
000300 a0 c2 fc be 73 af c7 be 43 04 b7 be 75 e1 d2 3c
       -0.49367237 -0.39001045 -0.3574544 0.025742272
000310 51 02 08 bd 97 9b db be bc 6e a5 3e 24 ad 63 bd
       -0.033205334 -0.42892143 0.32311046 -0.05558504
000320 3d 9a 82 3b a1 d2 cc be bb 53 fd bd 87 0b 74 be
       0.003985672 -0.40004447 -0.12369486 -0.23832522
000330 ae fe db bd 9d c1 2a bd d3 47 02 bd c6 f6 99 3e
       -0.10741936 -0.04168855 -0.03180678 0.30071086
000340 bb b8 ae 3d 47 a1 38 bf 36 51 05 bc 93 1d 09 bc
       0.08531328 -0.7212109 -0.008137038 -0.008368867
000350 3f a6 df 3c e6 a0 47 3e 45 42 15 3d ad 56 f9 bd
       0.027300952 0.19494972 0.036440153 -0.12174735
000360 06 10 70 bd fb f7 8f bd c6 b6 a1 bd 51 82 7f 3e
       -0.05860903 -0.070297204 -0.078961894 0.24952056
000370 06 e5 a3 be bd 41 28 bc 2d aa 28 3e 12 ed c8 bb
       -0.3201067 -0.0102695795 0.16471167 -0.0061317766
000380 8b 12 7a bd 78 23 7a bd c4 0d da bc 2c ad 4d 3e
       -0.06105284 -0.061068982 -0.026617892 0.20085591
000390 5b 8c 5f be b9 0b 9a bc ea ef 1f 3e 9a dc ce 3c
       -0.21830885 -0.018804418 0.15618864 0.025251675
0003a0 68 c9 59 be 72 c5 54 3d 6b 01 87 bd 4d 31 88 be
       -0.21268237 0.05194611 -0.06592067 -0.26600114
0003b0 06 4d 24 be b8 b2 d4 bc 80 8e ba 3c 76 6d 0b be
       -0.16045007 -0.025964126 0.022773027 -0.13615975
0003c0 73 54 81 3d e8 be c1 bd 03 72 68 be 33 20 26 be
       0.063149355 -0.094602406 -0.22699742 -0.1622322
0003d0 72 91 00 be 08 b3 bf be ad 92 b1 bd 41 34 83 be
       -0.12555483 -0.37441278 -0.08670554 -0.25625804
0003e0 bf 96 18 be c0 c9 ca bd 0e 20 91 be 77 fb 0b be
       -0.14901255 -0.09901762 -0.28344768 -0.13670145
0003f0 35 7e c5 3d c6 c4 75 be 3d c1 6c 3d 43 a8 69 3c
       0.09643213 -0.24000844 0.057801474 0.014261308

bias f4 [30]
000000 2e d4 09 3f 36 55 d7 3e 9b 98 57 bf f3 e3 8b 3e
       0.53839386 0.42057198 -0.8421723 0.2732235
000010 b6 60 e1 3e ac 08 77 3e 28 dd 2e bf 73 99 04 3f
       0.44019097 0.24124402 -0.6830621 0.51796645
000020 12 30 c4 bd 81 d3 89 bc 9f bc cd 3f ea c6 53 be
       -0.09579481 -0.016824486 1.6073188 -0.20681348
000030 b8 85 1b be cd 15 0b bf 32 09 38 40 24 95 a0 3f
       -0.15187728 -0.5433014 2.8755612 1.2545514
000040 75 cf e1 3f 3a 7f ff bd 3b 97 ee bc 82 70 6b be
       1.7641436 -0.124754384 -0.029124847 -0.22992137
000050 e9 dc 40 3f f4 ec 8d be 8d 20 64 be 93 3b 86 3f
       0.7533708 -0.27719843 -0.22278042 1.0486931
000060 94 56 d9 3e 18 8f 5d 3e 95 00 d7 bf 62 33 98 40
       0.42448866 0.21636617 -1.6797053 4.7562723
000070 0b e3 54 3e 95 85 f4 bd
       0.20789735 -0.11939541

weight f4 [10, 30]
000000 20 c8 3d bd c0 90 43 bd 9d b7 4e 3c 1b 72 3e bc
       -0.046333432 -0.047745466 0.012617019 -0.011623885
000010 fc d2 49 3e 13 25 a0 3d 4d 10 70 bd 0a 77 b1 3d
       0.1970939 0.07819571 -0.058609296 0.08665283
000020 75 92 86 bc 5b 41 f8 bd 0c ea a9 bc 1c fc 8b bb
       -0.016427258 -0.121218406 -0.020741485 -0.004271997
000030 53 88 fd bd bf b1 44 3d 99 4d 4b 3d a5 60 05 3d
       -0.123795174 0.048021074 0.04963455 0.03256287
000040 4f e5 92 3d ba 9f af bd 1f 16 62 3d df d4 90 3d
       0.071726434 -0.08575387 0.055196878 0.07071852
000050 1e 2a 6d 3d 49 77 b1 bd 6a 13 9f 3d 88 86 0d bd
       0.057901494 -0.0866533 0.07767375 -0.034552127
000060 32 a4 0b 3e d8 aa 21 be e0 8d d2 3b 57 fd 27 be
       0.13636854 -0.15787828 0.006425604 -0.16405235
000070 80 76 80 3a cc 54 18 3d 16 38 b6 3c c7 66 0e bc
       0.0009800941 0.037190244 0.02224354 -0.008691496
000080 52 5c 3d 3d 02 0b fa 3c 5e e8 41 3c cb 34 e8 bc
       0.04623062 0.030522827 0.011835186 -0.028345486
000090 ba f3 55 3e 1a 6f 6d 3d 8d ce 71 bc f7 6f 74 bd
       0.20893756 0.057967283 -0.014758718 -0.05967709
0000a0 68 b8 76 bc 0f a3 a6 3c f7 41 8d 3c a5 0b 01 3e
       -0.015058614 0.020341424 0.017243369 0.12602098
0000b0 85 fb 31 3e 6a 07 1f bd db 4e a4 bd 29 96 26 bc
       0.17381103 -0.03882543 -0.08022853 -0.010167637
0000c0 a9 5c a2 3d 28 60 30 3e f9 64 ab 3d 5d c7 b0 bc
       0.0792783 0.1722418 0.083688684 -0.021579439
0000d0 97 0b a5 bd 7a 91 e2 bd 00 76 1b 3d 7e f0 1d 3d
       -0.08058851 -0.11062904 0.03795433 0.03855943
0000e0 a9 10 2b 3e 68 f4 97 be 3a 1b c0 bc d6 3b 07 3c
       0.16705574 -0.29678655 -0.023450483 0.008254012
0000f0 08 46 6d 3d 3f 23 99 bc f0 d6 36 bd 74 ed 4a bd
       0.057928115 -0.018693564 -0.044638574 -0.04954286
000100 48 14 17 3e 4e bc b8 3c b7 b3 af ba ed 5c e5 bd
       0.1475383 0.022550728 -0.0013405 -0.11199365
000110 3e 98 74 bd 0c 93 08 3b 24 77 1d 3e 77 c5 eb 3d
       -0.059715502 0.00208396 0.1537748 0.11512273
000120 be 5f 8b 3d ba b5 c8 bd a3 41 db 3d 73 70 d6 3d
       0.06805371 -0.098002866 0.107058786 0.10470667
000130 ee bc 9a 3d 56 08 62 3d 3c 84 35 bc d0 1e a4 bc
       0.07555567 0.05518373 -0.01107889 -0.020034224
000140 01 16 b8 bd 44 d8 7b bc 8d 8c 05 be 9c c0 52 3c
       -0.08988572 -0.015371386 -0.13041897 0.0128633045
000150 dc 1c 00 3d 2d 46 86 bd f0 98 75 bd a4 23 4c 3e
       0.031277522 -0.06556354 -0.059960306 0.19935471
000160 a4 10 5e bd bb 91 84 3d 3c 27 e8 bc 61 10 c2 3d
       -0.05421509 0.064731084 -0.02833902 0.0947578
000170 fd 10 31 bd 64 4d d9 bd 6f 79 79 bd 8c 2b 8f bd
       -0.043229092 -0.10610464 -0.060906824 -0.06990728
000180 39 0f 07 bd e6 32 bd 3c a0 b5 da bc 51 ad ef bc
       -0.0329735 0.02309556 -0.026697934 -0.029257448
000190 97 fd 90 3d 88 71 8a bb f1 00 10 3d 61 5f ac bd
       0.070796184 -0.0042249598 0.035157148 -0.084166296
0001a0 cb b4 ad 3d 69 35 83 bc 91 44 cd bc c7 63 a1 3d
       0.08481749 -0.016016679 -0.02505711 0.07880359
0001b0 db f7 46 bd 0e 36 44 3d 5b 71 b1 bb cb 21 7a 3d
       -0.048576217 0.047903113 -0.0054151244 0.061067384
0001c0 49 fd 17 bc 8a aa d8 3d 58 a1 43 3c 76 25 1c 3d
       -0.0092766965 0.10579403 0.011940323 0.038121663
0001d0 7b 78 84 bc 38 ff dd 3c 43 3a 8a bd 8c c2 09 3e
       -0.01617073 0.027099237 -0.06749394 0.1345312
0001e0 45 e0 a6 bd d5 99 a2 3d 7f 41 bf 3b c2 9b 1b bd
       -0.08148245 0.079394974 0.005836665 -0.03799034
0001f0 99 82 d4 bc a5 dc f9 3c a0 c5 2d bd 28 76 b5 3d
       -0.02594118 0.03050072 -0.042424798 0.08860427
000200 f2 dd 67 bd 1e b6 72 bd 19 a4 fc 3c a1 9b 88 bd
       -0.056608148 -0.05925571 0.030839967 -0.06670309
000210 a2 ba 44 3c d6 42 16 bc c7 f6 af 3d 97 cf 9b 3d
       0.012007387 -0.009171208 0.08591991 0.07607954
000220 64 45 47 3d 36 cd 00 3d f9 59 b9 bd 38 89 86 bd
       0.04865016 0.031445704 -0.09050364 -0.06569141
000230 a9 a9 a1 bc 56 a4 02 3d 3c 66 9b 3e bc 92 0d bd
       -0.01973422 0.031895004 0.30351436 -0.034563765
000240 61 70 32 bd 76 7a ff bd 7d 55 f1 bd ed e7 7c 3e
       -0.043564204 -0.124745294 -0.11783884 0.24697848
000250 c7 df 19 3c af 1b ce 3b 04 a8 11 3e 76 d7 88 3d
       0.009391732 0.0062899212 0.14224249 0.06681721
000260 5e 8a 21 3d 28 4c 63 bd b8 57 69 bb cc 45 c3 3d
       0.039438598 -0.05549255 -0.0035605263 0.09534797
000270 25 da 4f 3d 5d 72 16 3d e9 90 96 3d b9 81 6d 3d
       0.05074515 0.03673016 0.07351858 0.05798504
000280 d3 90 f2 3d d7 09 28 bd 89 eb 3b 3d b6 d0 11 be
       0.11844029 -0.04102501 0.04587892 -0.14239773
000290 7f c3 9b 3d f5 04 a2 bd 48 e6 2f 3d 7b b2 ec ba
       0.07605647 -0.07911102 0.042944223 -0.0018058562
0002a0 5e 47 e4 bc 3e e8 3c 3c 13 fd b7 bd 26 e9 ae bb
       -0.027866062 0.01152998 -0.08983817 -0.005337852
0002b0 7b b6 cf 3a fd dd 07 3e 78 a7 3a bc 37 a8 53 3d
       0.001584723 0.13268276 -0.011392467 0.051674094
0002c0 a4 b4 07 bd 70 d2 80 3d 3b 55 3d bd 99 09 af 3d
       -0.033131257 0.06290138 -0.04622386 0.085467525
0002d0 2f 0b ba 3d b3 9e 20 bd f6 fa 89 bd da 98 5c be
       0.09084164 -0.039213847 -0.0673732 -0.21542683
0002e0 a0 08 ff 3c 67 06 c2 3d 14 c4 8a be 8b c9 45 3d
       0.031132042 0.094738774 -0.2710272 0.04828791
0002f0 b1 8d 53 3d 02 3b 95 3d ac 4e 4c bd 1f 64 18 bd
       0.0516488 0.072866455 -0.049879715 -0.037204858
000300 5d 19 2d 3c 1e 80 06 be 78 cd 8c 3e e4 53 95 bd
       0.010565129 -0.1313481 0.2750051 -0.072913915
000310 61 aa cf bc 38 65 d6 bd 16 f8 9e bd ab 2f 11 bd
       -0.025349798 -0.10468525 -0.077621624 -0.03544585
000320 89 31 f5 bb ec c5 31 be 4d 53 dd bc 48 3c fa bc
       -0.0074827117 -0.17360657 -0.02701726 -0.030546322
000330 6c b7 53 3c d9 57 44 3d d5 57 01 bb 18 ea 86 3d
       0.012922149 0.04793534 -0.001973619 0.065876186
000340 50 f4 d8 bd 60 f8 9d 3d 96 18 45 3d 65 22 12 3d
       -0.10593474 0.077133894 0.04811915 0.035677332
000350 83 87 15 3e 5a 49 32 3d 91 8e b5 bd bc c2 db 3d
       0.14602475 0.043526985 -0.08865083 0.10730502
000360 18 b5 69 bc 2e b6 7d bc e5 c4 a6 be 61 fe d8 3d
       -0.0142643675 -0.01548533 -0.32572094 0.10595394
000370 83 82 0b 3e 60 d4 56 3c b1 f5 8d bc 0b c6 c6 bd
       0.13624005 0.013112158 -0.017329069 -0.097057424
000380 b3 79 1f bd 97 4b 56 bd 65 3a 37 3b 36 70 98 3d
       -0.03893442 -0.05231818 0.002795839 0.074432775
000390 a7 2f 7e bc f8 81 9f 3b 53 46 a2 ba 91 c0 2c be
       -0.015514291 0.0048677884 -0.0012380577 -0.16870333
0003a0 e9 c2 86 bd 1a bb 10 3d 2b 3e b2 bb 77 00 1b bc
       -0.06580145 0.035334684 -0.00543954 -0.00946056
0003b0 8e 76 4a bd 75 55 b8 3c 2d 66 06 3e 57 76 a8 3d
       -0.04942947 0.022501687 0.13124914 0.082256965
0003c0 61 d8 d3 bd 08 7f 23 be ba 7e 9e bc 7f c7 f6 bb
       -0.103440054 -0.15966427 -0.019347537 -0.007531106
0003d0 e8 ee 22 be b1 74 b2 bd 6f 3e 3e b9 59 2a c6 3d
       -0.15911448 -0.08713663 -0.0001814307 0.09676046
0003e0 0c 2a ad 3d 17 4f 17 3b 2b 69 4d bd b0 92 1b bd
       0.084552854 0.0023087913 -0.050149124 -0.03798169
0003f0 b3 bb 83 bd 11 54 6d 3d 9b 3a da bc dc 30 39 3c
       -0.06432285 0.0579415 -0.026639273 0.011303153

bias f4 [10]
000000 68 6a 54 be c1 06 b5 bf d6 87 15 3f df a5 7d 3e
       -0.20743716 -1.4142686 0.58410394 0.24770306
000010 e1 c2 98 3f 77 2b 91 be 7a 27 88 3f 0b b4 bc be
       1.1934472 -0.28353474 1.0637047 -0.36856112
000020 26 01 2d 3e e5 28 91 bf
       0.1689497 -1.1340605
