Exercise2/saves/model_LRelu.pt (torch, 377143 bytes, 6 tensors)

weight f4 [30, 3072]
00000000: 07d7 d53d f2cd 2a3d d480 15bb 5bd8 143d
00000010: c037 fa3c 4072 fa3c 6467 213d 6e32 193d
00000020: f181 723b c3b3 043d b92a a83d fc36 443d
00000030: f25c 543d 2116 123d 0af7 333d a579 a73b
00000040: e67f 1338 a304 0bbc fc5b 09bc 9ce8 c7bb
00000050: 8813 6abb 9156 0c3d 3d9f 7cbc 7c4d c8bc
00000060: 29d6 eeba 58f6 96bb 08d0 ae3c 229c 2b3d
00000070: 2a7a eb3c 53d9 ae3c 7985 403b c451 c9bc
00000080: 1252 083d 6a57 34bc 4789 8dbc 3b86 ef3c
00000090: 56a5 8b3c a29d eabc 8aef 503c c974 343d
000000a0: 1cf5 933c cf90 26bc 999f e83c 7599 5c3d
000000b0: 23d1 fc3c 0c1a 793c 647a 923c 7609 5cbc
000000c0: 3487 3fbc ddef 78bc 9046 773c 8b43 a73b
000000d0: 12ec 9abb 7a92 d03b 8c8f 08bd 0984 44bd
000000e0: 255d b8bb f343 42bd c0fa 11bd 8577 1cbc
000000f0: 40c1 dbbc 7e94 efbb 06b0 ddbc de1c 81bb
00000100: 5cc3 f53c df9a 91bb 118d 86bc e12b 09bb
00000110: ffad 6c3b d68d fcbc 879d 4d3b ef42 523b
00000120: b071 0c3d e990 563c cad0 523c f138 e53c
00000130: bbb0 c4bb 6d4d d3bb d9d9 bb3c ffa5 d5bc
00000140: 538b 47bc a4b5 b03b b641 8c3c 24d7 383d
00000150: f5ce a2ba 1568 77bc f429 90bc 45ee 9fbc
00000160: b935 79bd 90bb 5cbd de8d 14bd 6b2e e9bc
00000170: 3741 3fbd cd36 dcbc eb06 82bc 9b1c e5bc
00000180: d788 793d 7a05 b83b c6e1 a13c e664 063c
00000190: fba6 a6bc 8ffc 44bd a4f2 46bd 4e12 4a3b
000001a0: a9a2 3ebb ce8b 0b3d d9cc 243d 9a65 193d
000001b0: 1304 6b3c 3789 a1bc 721a 613c 9222 ab3c
000001c0: 71b4 c63b 2f72 213b b735 7f3c 4d7b 153d
000001d0: d392 c4bc 4e52 0abd 19e2 92bc b81f ccbb
000001e0: 1df7 abbc 8317 4abd 4370 6bbd 0ea7 36bd
000001f0: 30d5 a5bc 5ca7 4abc 6b17 3ebd a7d6 93bc
00000200: 5ae1 fc3c 9d52 583c d7c7 b93a d3ad 15bb
00000210: 4cff 69ba 8e6d 40bb 2985 3fbc e726 aebc
00000220: a846 21bc d0ce 0f3d 4c09 b13c 50e3 c7bc
00000230: 78c5 a13b b980 893c 45f3 1b3d c435 b53c
00000240: b279 4dba 584e a43b 4e1a b5bc 5f6d fdbc
00000250: 32d1 c239 15ec bebc 1ce4 46bd 39db dcbc
00000260: ddff 3a3b 1c33 28bc cfa5 07bd f4b3 47bd
00000270: 0311 c7bc c7e6 d5bc ad61 73bd 2937 bbbc
00000280: 38c1 0e3d 9b15 023c 76d0 053c c79f 263d
00000290: 977e 193d 67bc cb3b b969 26bb d59d d6bb
000002a0: ebb2 64bc f9b1 e93a a252 3abc 9aac 3bbd
000002b0: ae98 a0bc 5256 773c 548b 5c3d cc53 633d
000002c0: 7897 c23c 4726 a93a abb6 50bc 556d 1c3c
000002d0: 4581 473c c37f d3bc dbb0 a3bd 9ff5 46bd
000002e0: aad5 14bd 3e9f 08bc de46 c1bc 49dc efbc
000002f0: 9c11 a5bb 5051 fc38 b53c f3bc a9fb 77bc
00000300: 79d2 a03c cc85 ae3b 3623 2b3d b02e 6a3d
00000310: 54fe 513d 028f 4e3c 2dff 963c 2dc4 9bbc
00000320: e8a3 95bc 00d2 3c3c 142e c5bb 0b4f 1f3c
00000330: a83f f83c 2475 ce3c f75f e83c 9386 123d
00000340: 9a82 a43c fa3c 073d 353f 023d 890f a43c
00000350: 1d1d 913b e6b7 5fbc 2b41 9bbc df7c 57bd
00000360: c5bd f6bc 7f69 94bb 621b 213d 2441 d93c
00000370: ed41 863a de85 c8bc 91d6 5fbd 2fe4 653b
00000380: 7f7d 853c f6f9 13bc caa3 ddbb d774 9e3c
00000390: fcf4 473d 1c77 123d 2669 b93c a48d b4ba
000003a0: ad8b 0e3c d638 4f3b 4ebf d83c 3cca 5b3c
000003b0: 9e5b 913b a670 013d 8db3 e73c 3543 763c
000003c0: ce99 e73c 868d 5b3c 9bfc c6bb 545e e2bb
000003d0: 1d78 1a3d 7cb3 3e3d aa54 ffbb ed46 7bbd
000003e0: 346d 80bd a1ef 90bc 1fe3 833a 4ba1 483d
000003f0: e0d8 e83b 99c7 b1bc c531 76bd 7111 25bc
0.10441404 0.04170031 -0.0022812383 0.036339145 0.030544162 0.030572057 0.03940524 0.03740161
0.003700372 0.032397997 0.08211274 0.047904 0.051846452 0.035665635 0.043936767 0.0051109367
3.5166646e-05 -0.008484992 -0.008383747 -0.0061007272 -0.0035717208 0.034262244 -0.015418825 -0.02445101
-0.0018221784 -0.004607003 0.021339431 0.041896947 0.028744776 0.021343863 0.002937643 -0.024575122
0.033281393 -0.011007169 -0.017277373 0.02923881 0.017046612 -0.028639618 0.012752423 0.044056688
0.018061213 -0.010166361 0.028396415 0.053857286 0.030861443 0.015203964 0.017880626 -0.01342999
-0.01168995 -0.015193907 0.015092507 0.0051044873 -0.004727849 0.0063651176 -0.033340022 -0.04797748
-0.005626338 -0.047428083 -0.035639524 -0.00954998 -0.026825547 -0.007311403 -0.027061474 -0.003940209
0.030000381 -0.004443511 -0.016424688 -0.0020930695 0.0036114452 -0.030829351 0.0031374411 0.0032083353
0.03428811 0.013096073 0.012867162 0.027981253 -0.006002513 -0.006448439 0.022931026 -0.02608013
-0.012179214 0.005392747 0.017121177 0.04512705 -0.0012421297 -0.015100499 -0.01759813 -0.019522795
-0.06084225 -0.05388981 -0.036268108 -0.028464517 -0.046693053 -0.0268816 -0.01587244 -0.027967742
0.060921516 0.005615887 0.019760977 0.008202767 -0.020343294 -0.04809242 -0.048571244 0.0030833664
-0.0029088652 0.034068875 0.04023442 0.03745041 0.014344233 -0.01971875 0.013739215 0.020890508
0.0060639908 0.002463471 0.015576771 0.036494542 -0.023995792 -0.033769898 -0.017930077 -0.006229367
-0.020991856 -0.04933883 -0.057480108 -0.04459291 -0.020243257 -0.012369003 -0.046409052 -0.01804669
0.030869175 0.01320329 0.0014173937 -0.0022839203 -0.0008926287 -0.0029362175 -0.011689463 -0.021258784
-0.009843506 0.03510934 0.021610878 -0.024400383 0.00493687 0.016785013 0.038073797 0.022120364
-0.00078382634 0.005014222 -0.02210727 -0.030935941 0.00037158426 -0.023305932 -0.048557386 -0.026960002
0.0028533854 -0.010266092 -0.03311711 -0.0487556 -0.024300104 -0.02611102 -0.059419323 -0.02285345
0.034852237 0.007939721 0.008167377 0.04067972 0.03747424 0.0062175277 -0.0025392605 -0.0065495768
-0.013958673 0.0017829529 -0.01137224 -0.045818903 -0.019604053 0.015096264 0.05384381 0.055499837
0.023753867 0.0012905084 -0.012738864 0.009547551 0.012176816 -0.025817757 -0.07992717 -0.048574086
-0.03633658 -0.008338748 -0.023593362 -0.029279845 -0.0050374996 0.00012031442 -0.029692033 -0.015135684
0.019631611 0.0053260084 0.041781627 0.05717343 0.051267937 0.012607338 0.018432224 -0.019014442
-0.018266633 0.011524677 -0.006017456 0.009723435 0.030303791 0.025202341 0.028366072 0.03577287
0.020081807 0.033017136 0.03179856 0.020026939 0.0044285194 -0.013654685 -0.018951973 -0.05260932
-0.030119786 -0.0045291777 0.039332755 0.02652032 0.0010243036 -0.024477895 -0.054647986 0.0035078635
0.016295193 -0.009031763 -0.00676391 0.019342823 0.04881762 0.035758123 0.022633146 -0.0013775122
0.0087002935 0.003161957 0.026458409 0.013414916 0.0044359704 0.03160157 0.028283859 0.015030672
0.028271582 0.013400441 -0.0060725934 -0.0069082174 0.037712205 0.04655789 -0.007792075 -0.061346937
-0.06270829 -0.017692389 0.0010062194 0.048981946 0.0071059316 -0.02170162 -0.060106058 -0.010074959

bias f4 [30]
00000000: 3ba9 21be 71f5 c83e 1cbd bbbd 477c 82be
00000010: ee4c 503d e091 b03d dda6 b63e 204c e3bd
00000020: f03f af3e 61dc ddbd 6bf3 ba3e 2ac6 693c
00000030: b31b 203e f933 8b3e 8d9e b73e 76bf 5fbe
00000040: d4b5 1abe d51b 4f3e 4db9 a3ba b6ae da3e
00000050: e78c dfbc 0e82 ac3e bb48 23be cf49 babd
00000060: a852 ac3b 2736 b7be f65c a3be c536 473b
00000070: 93df 4d3e 5111 f7bd
-0.15787213 0.39249757 -0.09166929 -0.2548544 0.050854616 0.086215734 0.35674182 -0.11098504
0.34228468 -0.108330496 0.36513838 0.014268437 0.15635566 0.2718809 0.35863152 -0.2185038
-0.15108424 0.20225461 -0.0012491137 0.4271142 -0.027288867 0.33692974 -0.15945713 -0.09096109
0.005258877 -0.35783502 -0.3190686 0.0030397635 0.20104818 -0.1206385

weight f4 [30, 30]
00000000: 6148 67bc df98 bdbc 5c4e 363d 5820 0a3d
00000010: ccdf 46bd 71c7 003d 8f00 323e 9a0e 31be
00000020: 0284 053d 3d14 333e f7f6 51bd 070d bc3d
00000030: b781 1f3e 3923 003c 01fd 2dbd be3f bf3d
00000040: 3e8a 1c3d 351d e0bc a4b0 153e fcee 1d3d
00000050: fd06 5d3d 7ff0 723c 9b84 18bd 3121 6bbd
00000060: c367 bf3d 4336 05be bad4 e83d 1906 16be
00000070: 4b1d 0e3e 3840 d5bd 81a5 88bc 0cd5 003e
00000080: 5d0b 47be bb91 133e adf5 87bd 80a1 2c3e
00000090: 0ee6 363d d9c2 ef3d 5ba7 043e 68c1 bdbd
000000a0: bd43 7abd df58 3c3e b19f d53d abe3 9f3d
000000b0: d940 4fbe 6790 a63d caa8 b63d ef15 20be
000000c0: b79e 8a3d 4121 e03d 7c1f b2bd 67bc 8e3d
000000d0: ed23 42bc 5c1c 7cbd 8478 e73d 7d11 ab3d
000000e0: 7495 fa3d 43c0 bc3d a334 9e3d 35f4 18be
000000f0: 2329 76bd 6817 273e 4f00 443c a076 37be
00000100: f222 3e3e f5cd 003e 22a6 863e b097 823b
00000110: e9b7 173e cd47 603e 4681 54bd 2043 d83d
00000120: df33 afbd 2969 97bd 6da8 d1bd 100d 62be
00000130: d1d2 4b3e 61ac 29bd b25c 213e 1572 82bd
00000140: a75e ad3d d602 d2bd 7b81 1b3d b424 873d
00000150: be37 78bd ba09 80bd 32db 10be f166 84bd
00000160: 135c 0c3e 1994 683d f15c cabd bd52 1abe
00000170: 56c2 e2bd 7b22 793e 76c0 0d3c 866b 5b3c
00000180: ebf5 bf3c 669f 0c3e 2910 d23b b699 a8bd
00000190: 95c3 f4bd 7d4c ea3d 8681 54bd 0735 e9bd
000001a0: 7da9 04bc 0e63 b33c 3723 bbbd 48f7 7fbd
000001b0: bdb4 67bd c89f cbbd 5e94 5c3e 3a40 efbd
000001c0: 6329 10bd bc9c f73c b9c0 eebd e486 243e
000001d0: 3222 833c 8b8a 583c 77bc 2dbc 047a b4bd
000001e0: c97e 0dbd 393f 7bbe de76 1d3e 853e 093e
000001f0: f7f4 193e a8a7 97bd 312b 86be 32eb 393e
00000200: ca38 12be 7f2f cfbd b542 573d b412 233e
00000210: 2a0e 8d3d 1441 403e ae44 223e 74f6 3d3e
00000220: 006d c73d ea3e 513e cccd b939 b188 983d
00000230: f98d 703e d3f4 ad3d 76fb 0d3e 3346 393e
00000240: ce7d 0fbe 3371 54bd e931 5bbd 2af4 8a3d
00000250: 2955 6f3e 9949 9ebc 7329 33be 9cb5 443e
00000260: e1b5 3bbd 932b a3be 84d3 b6bd cef7 f73d
00000270: 4c0d 3f3e c1c1 f1bd f104 423e 7bd1 30bd
00000280: 2337 4cbd d078 41bd 726d 863d 1629 af3d
00000290: 7480 703e 5cf4 6d3d 7bf0 cdbd ce24 773e
000002a0: cfd2 f2bd 2e55 5ebd e078 cd3d cab9 b13d
000002b0: 9751 743d c619 87bc 9930 17bd cbb4 6bbd
000002c0: 844c 09be 70b3 1ebe db60 bc3d 1f0a 043c
000002d0: 7926 163d 0f30 0d3e 3f00 6e3a 2d89 adbc
000002e0: 3b0c efbd 4803 b0bd 8f16 d5bc ecce 9bbd
000002f0: 05cc ca3d d578 f8bd fa24 adbd 1aaa e23c
00000300: e5c3 5d3e f11b 2dbd 820d ce3d 1cf2 10be
00000310: 4158 03be 5fac fcbb 2bfc 173e 0954 2fbd
00000320: b29f 11bd 19c8 4a3e a0c2 fe3d a49f e13d
00000330: d616 72be c03b a3bd 5f0f 24bc 8fdf df3c
00000340: 1d5c d2bd e0f1 00be 82a5 9dbd 69e7 12be
00000350: 0668 17be d98f b0bc 911b c7bc 0b37 1c3e
00000360: 3a2f 283c f53a 97bd b0a5 acbd 3a75 f1ba
00000370: 2023 063d eba4 6a3a 777e 22be f18c 013e
00000380: c3cb dd3d 5f9d e3bd 198f 173e 30ce 303e
00000390: 8998 5a3e 55a9 313e 5e2f 4fbe 3f83 8dbd
000003a0: ba4f 39bd d937 403c 5905 043e a001 febc
000003b0: 777d 8c3c 8048 70bc 2093 27bd f772 3dbe
000003c0: 161f ca3d 396a 4dbd 415e c43c 02a4 6a3e
000003d0: 19ad ddbd 3b7b a73d 1a40 423e 0158 883a
000003e0: efd4 653c fe25 ad3c d191 043e d462 213d
000003f0: b860 bdbd a9db 0cbe 230f c6bd f83f d9bd
-0.014116378 -0.023144184 0.044508323 0.03372225 -0.048553273 0.031440202 0.17383026 -0.17290726
0.032596596 0.17488189 -0.051260915 0.09182172 0.15576826 0.007820898 -0.04247761 0.0933833
0.038217776 -0.027357677 0.14618164 0.03855799 0.053961743 0.014827847 -0.037235837 -0.0574047
0.09345963 -0.1300898 0.11368699 -0.14650764 0.13878362 -0.104126394 -0.01668048 0.12581271
-0.19437928 0.1441106 -0.06638656 0.16858482 0.04465299 0.11707086 0.12954466 -0.09265405
-0.061099757 0.18393277 0.10430849 0.07807096 -0.20239581 0.08133011 0.08918913 -0.15633367
0.06768554 0.10943843 -0.086974114 0.06969529 -0.011849386 -0.061550483 0.113022834 0.08352945
0.12235537 0.092163585 0.077248834 -0.14936908 -0.060097825 0.16317523 0.011962964 -0.17916346
0.18568018 0.12578566 0.26298624 0.0039853677 0.1481625 0.2190239 -0.051881097 0.10559678
-0.085548155 -0.073931046 -0.10237203 -0.22075295 0.19904639 -0.04142416 0.15758017 -0.06369416
0.08465319 -0.10254447 0.03796528 0.065987974 -0.060600035 -0.06251855 -0.14146116 -0.06464947
0.13706999 0.056781862 -0.098810084 -0.15070625 -0.11072223 0.2432956 0.008651843 0.013392335
0.023432693 0.1373268 0.006410618 -0.08232443 -0.11951367 0.1144037 -0.051881336 -0.11387067
-0.00809705 0.021897819 -0.09137576 -0.062491685 -0.05656885 -0.09942585 0.21540973 -0.11682172
-0.03519572 0.030226104 -0.11657853 0.16067082 0.016007517 0.013216625 -0.010604016 -0.08812335
-0.03454474 -0.24535836 0.15377375 0.13402756 0.15034853 -0.07405025 -0.26204827 0.18156126
-0.14279476 -0.10116481 0.05255385 0.15925103 0.06887467 0.18774825 0.15846512 0.18551046
0.09737587 0.20434156 0.0003543928 0.07447947 0.23491658 0.08493962 0.13865456 0.18093185
-0.14012834 -0.051865768 -0.053514395 0.06784852 0.2337233 -0.019322203 -0.1749628 0.19209903
-0.04582775 -0.31869182 -0.08927062 0.12107812 0.18657416 -0.11804534 0.18947197 -0.043168526
-0.04985727 -0.047234356 0.06563844 0.085527584 0.23486501 0.058094367 -0.10055634 0.24135134
-0.11856615 -0.054280452 0.10032821 0.086780146 0.059648123 -0.016491782 -0.03691158 -0.057545464
-0.13408095 -0.15498137 0.09198161 0.008059054 0.036657784 0.13787864 0.0009079016 -0.021183575
-0.11672255 -0.08594376 -0.026011733 -0.076078266 0.09902195 -0.12132422 -0.08454318 0.027669001
0.21656759 -0.042262975 0.1006117 -0.14154857 -0.12826635 -0.007710978 0.14842288 -0.04280475
-0.035552688 0.19802894 0.124394655 0.11016777 -0.23641524 -0.07970381 -0.01001343 0.02732828
-0.102714755 -0.12592268 -0.07697584 -0.14346088 -0.14785776 -0.021552967 -0.024305137 0.15255372
0.010265166 -0.07384292 -0.0843004 -0.0018421777 0.03274834 0.00089509663 -0.15868555 0.12651421
0.1082988 -0.111140005 0.14800681 0.17266154 0.2134725 0.17349751 -0.20232913 -0.06909799
-0.04524205 0.011732065 0.12892665 -0.031006634 0.01714967 -0.014665723 -0.040911794 -0.18500887
0.098692104 -0.05015013 0.023970725 0.22914127 -0.108240314 0.08177801 0.18969765 0.0010402204
0.014027818 0.02113628 0.1294625 0.03940089 -0.09246963 -0.13755669 -0.09670856 -0.10607904

bias f4 [30]
00000000: a3e4 f53d 5e4d 193e 91b6 e4bd e98b 9cbe
00000010: 0f98 bf3c c9fb 0a3f c0f3 d63d a754 4d3e
00000020: ba82 193e c43e b1bc 6d62 a4be 3aea 89be
00000030: 8270 303e 82bd 0d3e 7046 283e d308 f5bc
00000040: da93 70be a32a e4bc 17cd 3a3e e2f2 ddbc
00000050: 001c 69bd e5c6 4e3e 7092 373e cd92 8a3e
00000060: 7fe0 6bbe 7706 823e 0f5b 083f 081a b8be
00000070: 5627 5abe 4ef7 793e
0.120064996 0.1497092 -0.11167634 -0.30575493 0.023387937 0.54290444 0.104957104 0.20051824
0.14991274 -0.021636374 -0.32106343 -0.26936513 0.17230418 0.13841823 0.1643312 -0.029911434
-0.23493901 -0.027852362 0.18242298 -0.027093355 -0.05691147 0.2019306 0.17926955 0.27065125
-0.23034857 0.25395557 0.53263944 -0.3595736 -0.21304068 0.24410746

weight f4 [10, 30]
00000000: 8566 e5bd fe1b b83d 5ccb 383e 6724 cabc
00000010: 63c9 db3d 48a6 a43d cca1 ddbd ce51 a4bd
00000020: 88aa ff3d eca6 2ebe d3f6 883d 8b47 f5bd
00000030: ed8f f13d 22c3 8cbd 2cec 1c3c e78b 3f3e
00000040: a53e f23d 4db9 84be 4627 5fbe c83c 85be
00000050: 3f67 f33d 682d 59bd 7702 e3bd ead5 72be
00000060: a260 2abe 29ac 453e a2f0 1fbd 7baa b7bd
00000070: 9f05 b73c f875 01be 0c3a 10be 16f8 38be
00000080: d9d4 4c3e 94cb 8c3e ae8e f13d 2b65 aa3c
00000090: 00b7 ca3d 0100 3dbe 54d7 ef3d 7af9 82bd
000000a0: 4a68 183e f746 8dbb 8da9 a6bc e733 cbbd
000000b0: d8f2 2a3e b8d4 0e3e 42b4 193d ee88 813e
000000c0: 34ae c33d 6e3e 11be f050 b33c b7a6 96be
000000d0: 59cc 403c 25cf 8ebe 2c2c c83d 5b21 d5bd
000000e0: 5651 b3be bb01 983c 0e9a 703d 1b33 3fbd
000000f0: 573e 0e3e 54f7 bbbd 5fcc 3d3c 53fa 3dbe
00000100: cae2 413e 2b09 f83c 3823 0d3e 9b43 283e
00000110: a010 95bd 806e 36bc 7f1a efbd 661a c63d
00000120: f4b1 063d 1d8d 30be 4fb4 03bd 0919 b73d
00000130: 1951 31be 0d11 ffbd c955 1b3e c424 50bd
00000140: 8593 01be cf94 6e3e fd3a 94bd c4fa b93d
00000150: d512 6ebe be8d 283e c657 333e 7adc 0bbe
00000160: 17b8 b8bc 5b8e c4bd 004c 313e a52e bdbd
00000170: 185e fd3d 966b 8ebd 4ad8 e4bd 798b 3e3d
00000180: 9aaf f83d 5c51 2a3e 9dc7 4dbd 4ad1 483e
00000190: 6f93 0d3e 62be 193e 3291 41bd 3170 d0bc
000001a0: a025 17be c172 3cbd 2e95 293d 936d 9e3c
000001b0: b6de 23be 61dd e33a 3ac2 ab3c 44bc 153e
000001c0: 1ff0 c03d 54fa 353e a0f1 733d 861c 24be
000001d0: bad5 9b3c c7c2 c33d 1f7c 2abe 90b5 293e
000001e0: b9e5 b7bd 68ba 96bd 1d5b ddbd 55ee eabd
000001f0: b83c 51bd f97d c03d 9427 2f3e e4e1 08be
00000200: b533 513e 4b13 87bd e33c 1bbe b8ba 15be
00000210: 0b81 5a3e fbed 0f3e 62e0 93bd 136f 26be
00000220: 0414 5cbe d4d4 9dbd 0e2e 8f3d 5438 c73c
00000230: e80d 163e b08d 1c3c be27 483e 767d 1d3e
00000240: 9124 71bd a389 173e db50 053e 05a7 a93b
00000250: c27a 21be 19ea a23d 98b3 da3d 475d 143e
00000260: 59b4 173e 7e8d 2abe b41e c8bb 5e91 24be
00000270: e4dc c3bd 812b 543d 2eb7 793d 02c3 7cbd
00000280: a705 0d3e ff45 503e 9170 11be 189a 5c3d
00000290: 64a5 17be 1d22 64be 546f f73c 0d32 1ebd
000002a0: d2bc b03d df22 02be 0c3f 04bd e615 1f3e
000002b0: e227 b2bd ad9d 443e 89a3 41bd d138 0e3d
000002c0: 7aa4 0e3e 6984 f43c 676f 90be b375 113e
000002d0: 321d 063e acb7 6d3d 1a27 743e ec1c 6bbe
000002e0: 1766 24bd 33ed 613e 2050 31be 3d22 953e
000002f0: ad8e 5dbe df1e 5a3d 9f14 c53c c343 28be
00000300: 40ca 69be a433 563e 9e00 db3d 21fb 97bd
00000310: 2c68 b4bd f29e 93be f1fc eb3d ead4 dbbd
00000320: 080d 7ebe 1687 403c 5321 3dbe a3d0 75bd
00000330: e15d 863d e93b 983c 2901 cc3c 788c a3be
00000340: 2ac6 cebd 9729 453e 2579 23bd c2b0 273e
00000350: 14c5 13be bf22 e93d 81e2 583e d1b4 28be
00000360: 42af 0abe 337e eebd c7d5 6ebd e291 dbbd
00000370: 5068 a3bd d7fb 133e ca45 70bd a5a2 f03c
00000380: eb59 ffbb fa72 79be 5552 633e f11e a7be
00000390: d54b 193c a301 ccbd 3285 803c 38bf 4f3e
000003a0: 9a48 663e b24d 3abe e402 af3d 7d44 b5bd
000003b0: f50d 84be cfef 8a3e 513a 32be 9c4b 283e
000003c0: 681b 933d 7f30 0e3e c1cd 27be 1df4 66bd
000003d0: f07b adbe 7895 d6bc f9e1 a9bd c6c5 6bba
000003e0: 00c7 133e 4834 60be 2976 37be 4001 0bbd
000003f0: 9e29 3bbe 71cc bebd d2d1 8b3e cae7 d23d
-0.11201195 0.08989714 0.18046325 -0.024675561 0.10731771 0.08039528 -0.10821876 -0.080234155
0.12483698 -0.17055863 0.06687703 -0.11976536 0.1179503 -0.06873156 0.009577792 0.18705712
0.11828355 -0.25922623 -0.21792325 -0.26022935 0.11884927 -0.05302182 -0.110844545 -0.23714414
-0.16638425 0.19303955 -0.039047845 -0.089680634 0.022341548 -0.12642658 -0.14084643 -0.18063387
0.2000307 0.27499068 0.11794792 0.020800194 0.09898186 -0.18457033 0.117109925 -0.0639524
0.14883533 -0.004311438 -0.02034452 -0.09922009 0.166942 0.13948333 0.037525423 0.25299782
0.09554711 -0.14183971 0.02188918 -0.29424068 0.01176747 -0.27892414 0.0977405 -0.10406753
-0.35022992 0.018555513 0.058740668 -0.046679597 0.13890968 -0.091780335 0.01158437 -0.18552522
0.1893417 0.03027781 0.13782966 0.1643204 -0.072785616 -0.011134744 -0.116749756 0.09673004
0.032884553 -0.1724133 -0.032154378 0.08940322 -0.17316093 -0.12454424 0.15169443 -0.050816312
-0.1265393 0.23298953 -0.072378136 0.09081033 -0.23249371 0.1646032 0.17513952 -0.13658324
-0.022548718 -0.09597465 0.17314148 -0.09237412 0.123714626 -0.06954114 -0.11174066 0.04651973
0.12142868 0.16632599 -0.050239194 0.19611087 0.13825773 0.15014032 -0.04725761 -0.025444122
-0.14760447 -0.046007875 0.041402034 0.019339358 -0.16002926 0.0017384702 0.020966638 0.14622599
0.094207995 0.17771274 0.059556603 -0.16026506 0.019022811 0.09558635 -0.16648911 0.16573167
-0.08979363 -0.07359773 -0.10808394 -0.114712395 -0.051083297 0.093990274 0.17104942 -0.1336742
0.20429881 -0.06595477 -0.15159945 -0.14622009 0.21338288 0.14055626 -0.07220532 -0.16253309
-0.2149201 -0.07706609 0.06991206 0.024318852 0.14653742 0.009555265 0.1954641 0.15379891
-0.058872763 0.14798598 0.13019125 0.005177381 -0.15769485 0.07954807 0.10678786 0.14488707
0.14814891 -0.16655537 -0.0061071757 -0.16071078 -0.09563616 0.0517993 0.06096571 -0.06170941
0.13771687 0.20339201 -0.14203097 0.053857893 -0.14809185 -0.22278638 0.030204453 -0.03862195
0.086297646 -0.12708615 -0.03228669 0.15535697 -0.08699013 0.19200774 -0.0472751 0.034722153
0.1392993 0.029848294 -0.28209993 0.14205055 0.13097075 0.05803649 0.23843041 -0.22960252
-0.040136423 0.2206314 -0.17315722 0.29127684 -0.21636458 0.053252097 0.024057684 -0.16432099
-0.22831059 0.20918137 0.10693477 -0.07420946 -0.08808932 -0.28832203 0.11522854 -0.107339695
-0.24809659 0.011750957 -0.18469743 -0.060013425 0.06560875 0.018583255 0.024902897 -0.31943107
-0.100963905 0.19254147 -0.039910454 0.16376022 -0.14430648 0.113835804 0.21180154 -0.16475226
-0.13543418 -0.11645164 -0.058309343 -0.10721184 -0.079788804 0.14451538 -0.058660306 0.02937443
-0.0077927015 -0.24360266 0.22199376 -0.32640794 0.009356459 -0.0996125 0.015688512 0.20287788
0.22488633 -0.18193701 0.08545473 -0.08850954 -0.25791898 0.27136084 -0.17405058 0.16435093
0.07182962 0.13885687 -0.16387083 -0.05638515 -0.3388362 -0.02619432 -0.08295054 -0.0008994009
0.14431381 -0.21894944 -0.17916168 -0.03393674 -0.18277594 -0.09316338 0.27308518 0.102981165

bias f4 [10]
00000000: 1498 30be 21dd 86be 890e 4e3e 21a7 05bd
00000010: ddce e43e 971b 27be 3efa dd3e a955 33bd
00000020: f390 2e3e a2ba 60be
-0.17245513 -0.26340583 0.20122732 -0.03263009 0.44689074 -0.16319118 0.43354982 -0.043782864
0.17047481 -0.21946195
