Exercise2/saves/model_pt3.pt (torch, 377063 bytes, 6 tensors)

weight f4 [30, 3072]
000000 3c 62 c7 3d fb 74 86 3d f1 9e 85 3a a4 82 64 3c
       0.097355336 0.06565281 0.0010194463 0.013947163
000010 71 e9 bb 3c 1a 42 6d 3d 94 db 4e 3d 6c 0e f6 3c
       0.022938462 0.057924367 0.050502375 0.030036174
000020 4d df 17 3d 8e 87 c5 bc c3 fc ff bb c2 12 5c bc
       0.03707819 -0.02411249 -0.007812114 -0.013432207
000030 74 72 05 bd ca 22 1f bc 9a 96 7e 3d fe d1 6d 3d
       -0.032579854 -0.009712884 0.062155344 0.058061592
000040 ca 17 20 3b 11 09 18 bd 41 44 ad 3c a6 52 9f 3c
       0.0024428242 -0.03711802 0.02115071 0.01944859
000050 7b 57 85 3b 1b 7d 3b 3c 40 70 88 bb 61 c6 cb 3c
       0.0040692664 0.011443402 -0.004163772 0.024874868
000060 4d 88 51 3d 7b 5d 38 3d 55 f2 e2 3c aa c4 82 3d
       0.051155377 0.045011025 0.027703444 0.06385167
000070 66 4c ae 3d 75 36 17 3d 0e af 23 3d f9 1a dd 3d
       0.085106656 0.03691717 0.039961867 0.1079616
000080 fd 5c 18 3d 3c df 6e 3d 93 07 59 3c e5 77 41 3d
       0.037198056 0.05831836 0.013246435 0.04723348
000090 5b af 7c 3d e9 09 e2 3c b5 c3 51 3c a9 88 02 3c
       0.06169067 0.027592616 0.012803008 0.007967153
0000a0 79 bd aa bc 1e d3 de bc d1 67 6a bc 4f f0 6f bd
       -0.0208423 -0.027200278 -0.014306978 -0.058578786
0000b0 58 8d 80 bd 37 bd d8 3c e1 85 43 3d 9f b5 05 3d
       -0.06276959 0.026457412 0.0477351 0.03264391
0000c0 6b e3 7c 3c 6f a7 64 3d 4f db a0 3d 15 26 37 3d
       0.01543508 0.05582374 0.0785433 0.044714052
0000d0 b6 c3 b8 3c d2 5a 56 3d f8 8d 1f 3d 1f 7f 36 3d
       0.02255426 0.052332707 0.03895375 0.044554826
0000e0 85 73 a7 3d bc b9 bb 3d ff 01 88 3d 7f 09 28 3d
       0.081763305 0.091662854 0.06641006 0.04102468
0000f0 b5 8f 11 3d 33 5e 06 39 6e c6 44 3d a3 b1 00 3e
       0.03553744 0.00012814328 0.0480408 0.12567763
000100 32 b0 23 3c 5b f9 02 3c bd 6e 94 3d 84 b0 dd 3d
       0.009990739 0.007994021 0.07247684 0.10824683
000110 d6 6a e6 3d 10 ee ae 3d 59 51 dc 3c ef 5c 7e 3c
       0.11250846 0.085415006 0.026894258 0.015525087
000120 ff c1 09 bc 48 0f 22 bd 27 cb c2 3c 76 e3 6c bd
       -0.008408069 -0.039565355 0.023778511 -0.05783411
000130 81 e7 d1 bc 5f 1c 15 3d 7f 83 aa 3d d9 57 83 3d
       -0.025623085 0.03640401 0.08325862 0.0641324
000140 b2 c6 8a 3d 87 2c b6 3d 4e 98 1a 3e d8 8d ce 3d
       0.067761794 0.08895212 0.15097162 0.10085648
000150 c2 e1 87 3d 0f cb eb 3c 93 f2 48 3d cd ff e4 3d
       0.06634857 0.02878335 0.04905946 0.111816026
000160 07 9a 07 3e 4b 79 e3 3d 8e d7 a3 3d 28 13 fc 3c
       0.1324235 0.11107119 0.08000098 0.030770853
000170 a6 41 a2 3c 92 66 b5 3b 27 1a 21 ba 7f 4a 11 3e
       0.019806694 0.005535909 -0.00061455596 0.14188574
000180 79 f2 37 bc 62 5f d7 bc 0f 60 8a 3c 26 b2 d8 bb
       -0.011227244 -0.0262906 0.016891507 -0.006613034
000190 92 20 40 3d 49 44 b2 3d f4 cd 95 3c 46 25 17 bc
       0.04690606 0.087044306 0.018286683 -0.009225195
0001a0 e6 1c 3e bc d5 6e be bc a1 7f d0 ba db 9f 49 bd
       -0.01160357 -0.023246208 -0.0015907177 -0.049224716
0001b0 c9 fc e1 bc 68 c1 7e 3d 22 5c a4 3d 42 87 ce 3d
       -0.027586358 0.062196165 0.080253854 0.10084392
0001c0 5e c1 2a 3d b8 8b 12 3d 63 b8 5a 3d f4 af 5f 3d
       0.041688316 0.035777777 0.0533985 0.05461116
0001d0 09 8c 74 3d f6 43 86 3c 81 91 d1 3a 59 f5 68 3d
       0.05970386 0.016389828 0.0015988798 0.056874607
0001e0 ef 26 60 3d ab 56 96 3d 89 64 9a 3d 9f e9 55 3d
       0.05472463 0.07340749 0.07538707 0.05222475
0001f0 a7 8f 12 bd 60 61 80 3c 12 8f 12 3d 75 8f 09 3e
       -0.03578153 0.015671432 0.035780974 0.13433631
000200 06 43 83 3d ae 28 5e bb 48 22 94 bc 05 01 0e 3c
       0.06409268 -0.0033898759 -0.018082753 0.008667235
000210 43 f6 7f 3c e7 7f 20 3d c0 b9 83 3c 40 ba 0b bd
       0.015622678 0.039184477 0.016079783 -0.03411317
000220 26 1d 90 bb 3a 5a 2c bd 07 75 a6 bd 37 f6 ab bd
       -0.004398006 -0.042078234 -0.0812779 -0.08396571
000230 a8 fd 82 bd bb e3 2c 3d 9e 5f 74 3d c7 f3 d9 3d
       -0.06396037 0.04220937 0.0596615 0.106422
000240 1b 87 c2 3d 1e f2 7c bc 6b 9e 4d bd 42 ff 30 bd
       0.094984256 -0.015438585 -0.050199907 -0.043212183
000250 ed 8b 46 3b 47 48 94 3c d7 3d 09 bc 85 86 a5 3d
       0.0030295805 0.01810087 -0.00837656 0.08082298
000260 e6 5c d5 3c 20 64 07 3d dd 53 4e 3d cb 3b fb 3d
       0.026045274 0.03305447 0.050372947 0.12267264
000270 0f 12 4e bd 8b 40 56 bd a8 fb 8b 3d 65 32 12 3e
       -0.05031019 -0.052307647 0.06835109 0.14277036
000280 c0 74 e0 3d c1 fb b2 ba 8a 03 af 3c fd b6 9c 3c
       0.10959768 -0.0013655351 0.021363992 0.019130224
000290 e8 88 a6 bd 87 32 0d bd ee 68 c7 bc f6 f9 82 3d
       -0.081315815 -0.034472015 -0.024342027 0.063953325
0002a0 01 9b 42 3d 6a 8d 38 bb fe 11 ef bc 2b 89 06 bd
       0.047511104 -0.0028160461 -0.029183384 -0.032845657
0002b0 6c 08 73 3c cf 0c 0a 3c 5d 1a 5b 3d 81 ae e9 3d
       0.014833551 0.008425905 0.05349194 0.11410237
0002c0 a0 ed df 3d 3c 37 a1 bc 53 52 26 bd bd a8 63 bd
       0.10933995 -0.019679658 -0.040605854 -0.055580843
0002d0 ba 22 12 3d d8 54 1c 3d f0 59 3e 3d 81 77 d2 3d
       0.03567765 0.03816685 0.04647249 0.102767
0002e0 71 46 3d 3d 39 04 72 3c 65 0a a9 3c 99 5c 9a 3d
       0.046209756 0.014771515 0.02063484 0.07537193
0002f0 df da bd 3b 5a 32 0d bd 5d 94 55 3d 2a 76 eb 3d
       0.0057939137 -0.034471847 0.052143443 0.114971474
000300 b6 04 71 3d ff 16 61 bd 60 ff ce bd 7d 86 f7 bd
       0.058842383 -0.05495357 -0.10107303 -0.120861985
000310 03 ef d8 bd b9 64 ed bc 86 41 12 bd 05 b0 00 3d
       -0.10592463 -0.028978692 -0.03570702 0.031417865
000320 c6 8c ae 3d b8 d4 bd 3c e7 33 2c 3d 3c 12 b0 3d
       0.08522944 0.023172721 0.042041685 0.08597228
000330 dc 1e c2 3d a8 7d de bc 2e b9 03 bd 36 b3 9a 3d
       0.09478542 -0.027159527 -0.032159023 0.07553713
000340 fe cb 34 3d ed 6e b7 bd 1a 70 cc bd 1e 17 86 3d
       0.044139855 -0.08956704 -0.09982319 0.06547378
000350 5d 4f df 3d 56 02 18 3e 0f 71 4b 3d f7 04 06 bc
       0.10903809 0.14844641 0.049668368 -0.008179895
000360 21 ab 23 bc ef 6b 09 bd 63 78 93 3c b4 67 13 3d
       -0.009989531 -0.0335502 0.01800174 0.03598757
000370 9c 19 9d 3b e9 1d 32 bd 25 56 81 3c 12 23 a7 3d
       0.0047943126 -0.043485556 0.015788147 0.08160986
000380 9a 64 32 3d 86 08 5b bd 4a 6f c9 bd c3 8b e4 bd
       0.043552972 -0.053474925 -0.0983568 -0.1115947
000390 a6 d2 c6 bd 34 41 79 bd 77 10 9c 3c b4 45 92 3d
       -0.09708147 -0.0608532 0.01905082 0.07142201
0003a0 65 68 a8 3c 25 f1 2d bc c7 20 47 bc 82 eb 54 3d
       0.020557592 -0.010616575 -0.012153811 0.05198241
0003b0 ed 44 af 3b db 43 c7 bc b0 f3 71 3d bd 53 05 3e
       0.0053487928 -0.024324348 0.05907029 0.13020225
0003c0 04 1c e9 3c 75 93 f8 bc b9 f6 26 3d 3b 0e 1f 3e
       0.028455742 -0.03034375 0.040762637 0.15532772
0003d0 58 53 6a 3e 0c 12 38 3e f4 fb b2 3c cd c8 76 bd
       0.22883356 0.17975634 0.021848656 -0.060250092
0003e0 bc f7 05 bd b2 5c 3b 3d 45 83 44 3d eb 64 21 3c
       -0.03270696 0.045742698 0.04797675 0.009850721
0003f0 d0 3a b2 bd a5 09 c5 bd 73 ec 01 bd ad 24 c1 bc
       -0.08702624 -0.0962098 -0.031719636 -0.023577059

bias f4 [30]
000000 3c f5 04 3f fe ef 40 be a7 3e 43 be 73 2e 10 3e
       0.519367 -0.1884155 -0.19066869 0.14080219
000010 17 58 3e bf b0 84 f2 be e4 4d 6b 3f df 75 ab be
       -0.74353164 -0.47366858 0.91915727 -0.33488366
000020 3b 53 20 be 56 a6 ed be 25 5a f1 be ab 8e dc bd
       -0.1565675 -0.46415967 -0.47139087 -0.10769399
000030 64 79 9a 3e ea f4 bc be a3 a8 91 bd 0d 6d 30 3f
       0.3017074 -0.36905605 -0.07112243 0.689164
000040 71 93 7b bf 71 bf d4 3e dd 9b 0c bd 3d fe b0 be
       -0.9827185 0.41552308 -0.03432833 -0.34568968
000050 4f 18 5e 3e 82 47 4c be 96 6e 11 3e 2c 21 35 bf
       0.2168896 -0.19949153 0.14202341 -0.7075374
000060 28 78 a0 3e 61 97 49 bf 2e 52 88 bd e0 f1 2f 3f
       0.31341672 -0.7874661 -0.066562995 0.68728447
000070 06 68 0e bd 39 a4 47 3e
       -0.034767173 0.1949624

weight f4 [30, 30]
000000 75 05 68 be 8e b1 9e 3b f8 bb 41 bd e1 92 fb bc
       -0.22658332 0.0048429435 -0.0472984 -0.030709686
000010 cf 11 bb 3c 34 e2 65 be c5 09 f2 bd 5f c9 c8 3c
       0.02283564 -0.22449571 -0.1181827 0.024510084
000020 67 ab 5b be c2 8c aa be 23 52 1f be 23 65 9e be
       -0.21452104 -0.33310515 -0.15558676 -0.30936536
000030 12 f5 66 be 74 4f 59 be 26 9d 0f be 2c 46 64 3d
       -0.22554424 -0.21221715 -0.14024791 0.055730984
000040 79 a9 76 be 0c d9 68 be 5c 88 64 bd 5b fc 3c be
       -0.24088086 -0.22739047 -0.055794105 -0.18455641
000050 ba 36 b9 3c 15 30 0b bd b1 bc 85 3d 94 a0 8a bd
       0.022609103 -0.0339814 0.06530131 -0.06768909
000060 f2 3e 4d be bb 63 ee 3d c2 38 d7 bd b5 17 36 be
       -0.20043543 0.11640116 -0.105088726 -0.17782481
000070 c2 91 81 be 10 d8 09 be 57 c4 86 bd 6e 93 ca bc
       -0.25306517 -0.13461328 -0.065804176 -0.024728503
000080 21 3e d4 3d 0e 93 c4 3c b0 3d d3 3d 27 b2 7c 3c
       0.10363413 0.023995902 0.103145 0.015423334
000090 e8 7d 2f be 59 e0 f0 3d f9 22 58 bc 80 38 86 3d
       -0.17137873 0.11761541 -0.013191932 0.06553745
0000a0 20 2a 33 3e 97 24 ef 3d a5 ca c6 3d 46 ae 8e bd
       0.17496538 0.11676901 0.0970662 -0.06966834
0000b0 dc 92 10 be d1 e8 72 be 6e c3 c0 3a b7 c1 66 3d
       -0.14118522 -0.23721625 0.001470668 0.056337085
0000c0 fa 8b 65 be a7 fa 93 bd 6d e7 13 be b0 c6 a6 bd
       -0.22416678 -0.072255425 -0.1444375 -0.081433654
0000d0 eb 8a b1 3d 99 16 d0 3c 46 69 a2 bd fc 26 29 be
       0.086690746 0.0254014 -0.079302356 -0.16518778
0000e0 24 d8 23 3d 29 62 7a bd 78 b7 b2 3d 75 e7 5f 3e
       0.04000105 -0.06112877 0.087264 0.21865638
0000f0 69 16 86 be 55 6e 76 be b1 3d 43 be ab c9 4f bd
       -0.26188973 -0.24065526 -0.19066502 -0.050729435
000100 7f c1 45 3c d6 47 35 be 78 03 b9 bd 9b 2c 6a be
       0.012070059 -0.17703184 -0.09033865 -0.22868578
000110 34 43 5f 3c 5e 8c e9 bd 76 db 50 be 65 7a 0d be
       0.013626862 -0.11403726 -0.20396218 -0.13816221
000120 dc a7 e3 bd dc 41 c1 bd f9 d2 18 be a9 91 c0 3c
       -0.11116001 -0.0943639 -0.1492423 0.023506956
000130 6b 5a 9c bd b8 a0 62 3d db 2f e4 bd 41 38 88 be
       -0.07634433 0.055329055 -0.1114194 -0.26605418
000140 5a e8 71 bc 51 30 d1 bd 29 82 e2 bd 08 ac aa bd
       -0.01476487 -0.10214294 -0.11059982 -0.083335936
000150 6f d9 12 3e e4 de b9 bc 53 31 5b be fc 04 40 be
       0.14340757 -0.02268929 -0.21405534 -0.18751901
000160 28 ea 12 be 4d 13 1d bc 59 81 8b be f0 5f fc bd
       -0.14347136 -0.009587121 -0.27247122 -0.12322986
000170 9a 30 86 be dd a1 35 be 61 f6 d8 bd 6a 02 69 3c
       -0.26208955 -0.17737527 -0.10593868 0.014221767
000180 35 fc e6 bd de b9 27 39 88 ca 16 3b 7f e0 f4 bc
       -0.112785734 0.00015995602 0.0023008902 -0.029892204
000190 35 ce 21 be f4 20 27 be 9c 5a 87 bd 28 29 6c be
       -0.15801318 -0.16321164 -0.06609079 -0.23062575
0001a0 d0 70 f9 bd de 78 7c be d7 23 dd bd 01 b7 a3 3c
       -0.121797204 -0.24655482 -0.107978515 0.019984724
0001b0 7a 01 5a bd 0d bd 86 be ce 69 26 be 49 48 d1 3c
       -0.053224064 -0.2631611 -0.16251299 0.025547164
0001c0 36 43 0a 3c 7b a9 70 bd 6e 88 50 be e0 24 ae bd
       0.008438876 -0.05875538 -0.20364544 -0.08503127
0001d0 5e 16 99 bc 9f c8 32 bd 4e 08 bf bd 50 4c b6 bc
       -0.018687423 -0.04364836 -0.09327756 -0.022253186
0001e0 cd 8e d7 3d 7d 90 7f bc 29 9e 21 be 34 41 13 3d
       0.10525284 -0.015598414 -0.1578299 0.035950854
0001f0 9f 7d 34 3c f8 6e b0 be 5e 37 1c 3e e6 39 97 bd
       0.0110162785 -0.34459662 0.15255496 -0.0738409
000200 b8 5d c9 be 67 8e b3 3d 17 84 81 be 2b 0d 49 3e
       -0.39329314 0.087673955 -0.2529609 0.1963393
000210 5b b7 3e be 0d 23 ed bd c0 82 37 bd 74 07 83 bd
       -0.18624632 -0.11578951 -0.044802427 -0.06397906
000220 2d 78 98 bd 51 fb f1 3d 77 75 7d be 58 71 87 3d
       -0.07444797 0.11815513 -0.2475184 0.066134155
000230 fd 85 10 3d 89 6d 6e 3d 8b aa 68 be 4b cf 2f be
       0.03528403 0.05820993 -0.22721307 -0.1716892
000240 94 8d 81 be eb af 7b 3d d3 20 8c be 89 be e0 bc
       -0.25303328 0.061447065 -0.27368793 -0.027434604
000250 37 92 52 be 09 4f 14 3d 43 cc b7 3d ae a6 b8 bd
       -0.20563589 0.036208186 0.08974507 -0.090161666
000260 e5 9e 91 bd ec 57 4c 3e eb 01 c0 3d e0 62 7a 3d
       -0.07110385 0.19955415 0.09375366 0.06112945
000270 fc 18 f5 bb a3 88 a3 3d cc 5b 35 be 37 3b 6a bc
       -0.007479785 0.07985046 -0.17710799 -0.0142963445
000280 f5 95 0d 3e 56 26 12 bd 1d ad 69 3d e9 1e 38 bc
       0.13826735 -0.03568109 0.05704986 -0.011237838
000290 51 50 65 bc 11 17 a8 3c 68 43 3b be c2 06 15 be
       -0.0139962 0.020518811 -0.18287432 -0.14553359
0002a0 52 e2 81 3c 3d 18 84 3d fa 9a 1b 3e 80 d6 99 bc
       0.015854988 0.064499356 0.15195838 -0.01877904
0002b0 45 80 df bd 7f 69 e1 3d 70 0e f1 bb f2 a1 5f 3d
       -0.10913137 0.1100645 -0.0073564574 0.054597802
0002c0 b8 d7 2a bb 86 4d 1d 3d 04 37 0d bd a9 24 00 3e
       -0.002606852 0.03840401 -0.034476295 0.12513985
0002d0 d1 c6 ba bc 08 ff 47 be bc 88 61 3d cd b3 92 bd
       -0.022799881 -0.1953088 0.05506204 -0.071632005
0002e0 e6 cd 82 be a4 5c d2 bd 77 c3 2d 3c 12 2d da bd
       -0.25547713 -0.10271576 0.0106056845 -0.10653128
0002f0 24 26 5d be e5 6d 02 be 99 18 7b be 84 6e a3 bd
       -0.2159658 -0.12737234 -0.24521102 -0.079800636
000300 b8 0b 70 be bc 37 ab 3c 44 e0 49 be 0c a1 4f be
       -0.2344197 0.0209006 -0.19714457 -0.20276278
000310 1a 86 35 be c9 1f cc bd c4 45 2c bc e4 27 c1 bd
       -0.17726937 -0.09967 -0.01051468 -0.09431437
000320 5d d6 e7 bd 0b 37 d6 bd 3a b3 55 bb 21 a8 24 be
       -0.113201834 -0.10459717 -0.0032608048 -0.16079761
000330 dd 38 4e be 66 02 d9 bd cc 0c aa 3d 68 f6 08 be
       -0.20138879 -0.105961606 0.08303222 -0.13375247
000340 83 07 fe bd 65 d3 06 be 38 73 9e bc 2c bd 95 3d
       -0.124037765 -0.13166578 -0.01934205 0.07311472
000350 ce 90 88 3c d3 ef 38 3e 2d 1a 56 3d e1 ff 90 bd
       0.01667061 0.18060236 0.052271057 -0.07080055
000360 34 24 af bd 16 5c 52 be fa 0d 81 bb 19 c5 c3 bd
       -0.08551827 -0.2054294 -0.0039384337 -0.09559078
000370 85 c4 1f be f1 a0 0a 3e 94 e8 8f 3b 90 83 36 bc
       -0.1560231 0.13537957 0.004391739 -0.011139765
000380 0d 16 75 3d c1 b9 86 3d d7 9c c0 bd 5a b3 94 bd
       0.059835482 0.065783985 -0.09404915 -0.07260771
000390 b6 55 97 3d 66 37 9b 3d 34 85 f5 3c 9c d1 91 3d
       0.07389395 0.07578926 0.029970743 0.07120058
0003a0 c1 0c 8f 3d 62 07 da 3d 79 f5 d0 3d b7 c9 75 3d
       0.069848545 0.106459394 0.1020307 0.060006823
0003b0 10 04 61 3e ea 03 88 3c a6 08 a6 3d e5 18 e4 bc
       0.21974206 0.016603429 0.08107118 -0.027843902
0003c0 a7 52 c0 bd 5a cf 07 be 57 57 b8 3d fe 50 9d ba
       -0.09390765 -0.13262692 0.09001034 -0.0012002287
0003d0 0e d2 ff bd 78 06 9c bd bf a5 40 3d d7 f3 dc bb
       -0.124912366 -0.07618421 0.047033068 -0.006742935
0003e0 90 bb 12 3e 35 c6 73 bd 41 b8 01 3e 1c 6d 15 3e
       0.14329362 -0.059515197 0.12667944 0.14592403
0003f0 b7 bf 06 be f7 a6 37 bc 23 93 1c be 07 db e9 bd
       -0.13159071 -0.011209241 -0.15290503 -0.11418729

bias f4 [30]
000000 38 25 b4 bd 91 bd 6a be ca 75 c2 3d 2c bd 38 be
       -0.087961614 -0.22923876 0.09495123 -0.18040913
000010 7f d5 c3 bd 75 88 04 bf 46 0f 55 be 59 0d 03 3d
       -0.095622055 -0.51770717 -0.20806608 0.03199515
000020 02 10 e9 be 07 a9 ac 3f d0 c8 18 be c9 55 3a be
       -0.45520025 1.3489083 -0.14920354 -0.18196787
000030 78 cd d8 3f c1 ac e3 3d ad 1b 9f 3f da fd 49 be
       1.6937704 0.111169346 1.2430321 -0.19725743
000040 e3 d2 19 be 4c d8 3b be 51 df a0 3d 50 54 6b be
       -0.15021853 -0.1834423 0.07855094 -0.22981381
000050 ef bc 07 bf 92 b0 d9 be ec 6e 48 3f 9d 70 d4 3b
       -0.53022665 -0.42517525 0.78294253 0.006483151
000060 07 4d 83 3f a0 1d 2c be 0e 4d eb bd ea b4 37 3e
       1.0257882 -0.16808176 -0.114893064 0.17940107
000070 09 7f 8d be 3f 29 38 be
       -0.27635983 -0.17984484

weight f4 [10, 30]
000000 78 ff c4 3d a0 14 82 3b d2 b8 f2 bc 31 85 ae 3d
       0.09619039 0.003969744 -0.029629145 0.08521498
000010 fa 34 81 bd 5c 49 b1 3d f5 fa 3c be 21 95 95 bd
       -0.063089326 0.0865657 -0.18455108 -0.07303835
000020 bb 12 c8 ba 22 67 18 bc 61 3a a4 3d f0 b9 c3 3c
       -0.0015264371 -0.0093019325 0.080189474 0.023892373
000030 7f 87 b1 3d 32 50 00 3e 20 8e b5 bd a6 f2 0f 3d
       0.08668422 0.12530592 -0.08864999 0.035143517
000040 3a 2d aa bd 03 1a a0 bd 29 f9 9c 3c 2b f1 79 3d
       -0.083094075 -0.07817461 0.019161778 0.06102101
000050 af 13 d3 3d b6 17 95 bd df 1d f5 3d 94 28 1c 3d
       0.10306489 -0.07279913 0.11968588 0.038124636
000060 e8 6c 1e bd a0 86 f6 3c 48 6b 83 bd 42 76 f7 3d
       -0.03867808 0.030093491 -0.06416947 0.12083103
000070 98 44 91 bd 95 81 9f 3d c4 d3 cd 3d 9e 45 01 bd
       -0.07093161 0.07788388 0.10050157 -0.031560533
000080 86 84 67 bd 3b cb 95 3d 04 80 cb bd 95 ce 9f 3d
       -0.05652287 0.07314154 -0.099365264 0.07803074
000090 4e 16 2e be 7b b7 32 bd 96 2b 11 3c 9f f8 0a be
       -0.17000696 -0.04363201 0.008860489 -0.13571404
0000a0 4e 77 09 3e 50 8f 18 3e f3 9b 39 bd f6 4f 89 3d
       0.13424417 0.1489842 -0.04531474 0.067047045
0000b0 ab 21 8b bd ab 02 63 bd d9 6d 24 be 17 bb bb 3c
       -0.06793531 -0.055422466 -0.16057529 0.02291636
0000c0 d6 5e ca bb 91 71 dd 3d 43 ad 48 3e 0d e9 03 3e
       -0.006175856 0.10812677 0.19597344 0.1288187
0000d0 8d 24 0b bd 8e 56 69 3e f3 e7 88 bc d1 56 f3 bc
       -0.033970404 0.22786924 -0.016712165 -0.029704483
0000e0 d9 81 09 3e eb 30 cc bb ea f2 bf 3d f5 8d ed bd
       0.13428439 -0.0062314174 0.09372504 -0.11599342
0000f0 e4 59 ba bd f0 14 a5 bd 06 40 5d bd 86 ca 2c 3e
       -0.090991765 -0.08060634 -0.054016136 0.16874132
000100 98 a6 b7 bc e1 c8 08 bd 20 7d 37 3e 66 bd 0a bd
       -0.022418305 -0.033394698 0.17918825 -0.03387203
000110 02 9b a9 3d ae 73 19 3d 28 5c 24 3d 50 2b 98 3b
       0.082815185 0.037463836 0.04012695 0.004643835
000120 7f fb 59 3e 2d de 14 bc e4 2e a7 3c 2a 70 86 3d
       0.21287344 -0.009086174 0.020408101 0.06564362
000130 a4 b0 3c be 74 0c 81 3d f9 1f 44 3d f1 bf 87 bd
       -0.18426758 0.06301203 0.047882054 -0.06628407
000140 45 21 b7 bc a0 a8 95 bd 7b d5 d5 3d f0 7a 4b 3d
       -0.022354731 -0.07307553 0.10441109 0.04967779
000150 bb 5f 4b 3d 95 d1 e0 3d 62 70 62 3d 1e 63 02 3e
       0.049651843 0.109774746 0.055282958 0.12733123
000160 af 0a 04 be 21 3e 34 bd 56 4a f5 bd fd d1 ac bd
       -0.128947 -0.044004563 -0.11977069 -0.084384896
000170 d0 d8 c6 bd fd 47 e8 bc 9b b2 00 3c c9 70 ca 3c
       -0.097093225 -0.02835464 0.007855083 0.024711983
000180 cd e1 7e 3d 57 e7 be 3d cd 65 84 3d 40 49 19 bd
       0.06222706 0.09321468 0.064647295 -0.037423372
000190 ac dc a9 3d 5f 91 0f 3c 29 f9 bf 3d ec cf 9f 3d
       0.08294043 0.0087626865 0.093736954 0.0780333
0001a0 a5 0e 4c 3d 37 e9 3f 3d f5 7b 9f bd dc 35 fd 3c
       0.049818654 0.04685327 -0.07787315 0.030909471
0001b0 df 61 da 3d 42 b5 60 bd e7 0f 09 bc fb db 6c bd
       0.10663199 -0.05486036 -0.008365608 -0.057826977
0001c0 c7 68 51 3d 53 d1 1d bd e6 e7 fc 3b d6 3d ca 3d
       0.051125314 -0.038529705 0.007718074 0.098750755
0001d0 fb 78 17 be 20 bc ce 3c 1b fd cc bc e1 10 1b 3d
       -0.14792244 0.02523619 -0.025023034 0.037857894
0001e0 99 2b 5e bd 86 d7 03 bd 74 85 8f 3b eb 2c c9 bd
       -0.054240797 -0.03218796 0.0043799225 -0.098230205
0001f0 32 9c dc 3d 95 f9 1c bd e6 ff b7 3d 4e b5 b1 bd
       0.107719794 -0.038323957 0.08984356 -0.08677159
000200 1e bc da 3c 8b b8 20 bc 6e 2d c3 bc a2 eb ac bd
       0.02670103 -0.0098096235 -0.023825374 -0.08443381
000210 37 43 b8 3d 6c b9 59 3c 8f aa ed 3d 6e 51 84 3d
       0.08997195 0.013288837 0.11604797 0.06460844
000220 f2 34 e9 bd 7d 43 9f bc 0a 8d 5f 3d 47 ab 91 bc
       -0.11387052 -0.01944136 0.054577865 -0.017781867
000230 79 a4 42 bd 21 ab 9f bd f0 02 0c 3e 55 d5 3b 3d
       -0.047520135 -0.07796312 0.13672996 0.045857746
000240 82 f6 10 3e e0 f0 d2 3d 9c 39 d7 3d e4 79 a7 3b
       0.14156535 0.102998495 0.10509035 0.005110966
000250 67 fb 15 3e 17 82 0f 3e 40 73 f0 3d a1 a4 c5 bd
       0.14646684 0.14014469 0.11740732 -0.09650541
000260 ab 96 fc bd f2 78 40 bd 36 8f e8 3d 00 c7 35 3d
       -0.12333425 -0.046990342 0.1135544 0.044379234
000270 6a fb 21 be 72 78 d0 3d 2e a7 4e 3d c6 a4 3a 3d
       -0.15818563 0.10179223 0.050452404 0.045567296
000280 80 5e c6 3c fe de a8 bd 8f e6 92 3d a2 e9 4e 3d
       0.024214983 -0.082456574 0.07172882 0.05051578
000290 1f cd bc 3c 01 9c 58 3c ba 67 32 be 63 b9 a3 3d
       0.023047028 0.013220788 -0.17422381 0.07994344
0002a0 cd 36 a2 3d a7 b3 68 bd bf b4 61 bd b0 e5 a6 bd
       0.07920609 -0.056811955 -0.055104014 -0.08149278
0002b0 e1 8a 90 3d 24 14 89 bd 76 c7 88 3b 86 d2 01 3e
       0.07057739 -0.06693295 0.004174168 0.12677965
0002c0 e9 43 55 3c ed a4 f7 3c bf 46 fc 3d 3e ba e0 bc
       0.013016679 0.03023001 0.12318181 -0.027432557
0002d0 cc 6d 9e 3c 2f 44 c0 bd 7b e6 94 3d 54 d3 8b 3d
       0.019339465 -0.09388005 0.07270523 0.06827417
0002e0 6e 30 4e 3d a1 5f 08 be 3c 96 17 bd 7f 6f 6e 3d
       0.050339155 -0.1331773 -0.03700851 0.0582118
0002f0 89 19 5f bd 5d f0 47 bd 66 88 de 3d 13 11 87 3d
       -0.05446771 -0.048813213 0.1086586 0.065950535
000300 30 03 d9 3d 71 10 1c 3e 7f 3f 3a bd 68 b2 3e bd
       0.10596311 0.15240647 -0.04547071 -0.04655686
000310 ed 7f 06 bd 4e 2d 56 bc b2 24 d5 3d 35 96 fe bd
       -0.032836843 -0.013072325 0.1040739 -0.124309935
000320 f7 80 28 bd 1d b5 a0 bc 5f 89 a0 3d be 08 ff bd
       -0.041138615 -0.019617612 0.078387015 -0.12452839
000330 07 98 58 3e 72 2f bc 3d a6 df 9d 3d 68 68 af 3a
       0.21151744 0.09188737 0.07708673 0.0013382556
000340 0b 03 9f 3d be 7d 0a be 10 b9 6f 3d 4e af c3 3d
       0.07764252 -0.1352453 0.0585261 0.09554921
000350 0e fd db bd a5 45 49 3d 47 9c 2a 3d 31 9f 93 3b
       -0.10741626 0.049138684 0.041652944 0.004505061
000360 da c3 65 bb ea 21 1e 3b d0 c2 03 3e 97 8e 01 3d
       -0.0035059364 0.00241291 0.12867284 0.031630125
000370 9d 29 74 bd b9 16 59 3e 92 b2 22 bb 42 15 0b bd
       -0.059609998 0.21200074 -0.0024825674 -0.03395582
000380 03 ee 97 3d 54 f8 9b 3c ab 96 2d 3e 27 d7 a7 3d
       0.07418444 0.01903931 0.16952007 0.08195334
000390 cf de 66 3d 17 2b 9a 3d ca b3 29 bd 91 98 ab bd
       0.05636483 0.0752775 -0.041431226 -0.08378709
0003a0 2a 99 9c bc a2 eb e4 3d 2b e6 b8 3d 49 c0 7a 3b
       -0.019116003 0.11177756 0.09028276 0.0038261584
0003b0 ec b3 30 bd a4 5c f8 3c f1 69 ee bc 90 fa 73 bd
       -0.043140337 0.030317612 -0.029103251 -0.059565127
0003c0 3b 52 ff 3d af 78 1e be 27 23 e1 bd 21 a2 30 be
       0.12466856 -0.15475725 -0.10993033 -0.17249347
0003d0 ee 9c 35 be 27 64 08 3e 70 b7 6e bd 11 e9 8c bd
       -0.17735645 0.13319455 -0.05828041 -0.068803914
0003e0 79 5f 7d 3c 17 5e 4b be 7d 42 7f 3e 8f 99 8f 3d
       0.015464657 -0.19860111 0.24927707 0.07011711
0003f0 97 b5 15 be 97 d9 81 3d 39 a5 a3 bd 65 c2 77 bd
       -0.14620052 0.0634033 -0.07990498 -0.060488123

bias f4 [10]
000000 80 1d 4a be c4 72 3d bf 29 3a f0 3e 09 b0 42 bb
       -0.19737816 -0.74003243 0.46919373 -0.0029706976
000010 de 24 61 3f 16 ec 01 be 12 61 31 3f 5b d3 8d be
       0.8794688 -0.12687716 0.6928874 -0.27700314
000020 26 01 84 bd e1 b3 f3 be
       -0.064455315 -0.47598174
