Exercise2/saves/model_h_60.pt (torch, 757999 bytes, 6 tensors)

weight f4 [60, 3072]
-0.011672246 -0.04421275 -0.0079296315 -0.0074679023 -0.005172115 0.054988444 0.053164177 0.05557582
0.050836153 0.05529002 0.028939594 0.01917727 0.030356668 0.004428469 -0.011728059 -0.041269716
-0.02798209 -0.04400626 0.015228874 0.04553775 0.0063751135 0.016432317 0.039978046 0.033305205
0.02250498 0.0500685 0.03756122 -0.03925924 -0.02511623 0.014929254 0.030717459 -0.0010166392
0.013748743 -0.021009851 -0.016368404 -0.0012701857 -0.0024227356 0.059504185 0.041758668 0.04645606
0.06201882 9.6683165e-05 -0.010621299 -0.0009266414 -0.014193324 -0.012020305 -0.0060533877 0.05003494
0.0066639297 -0.017700423 0.014352275 0.02802665 0.0038870072 0.008955415 0.024224034 0.009809109
0.034020044 0.069580495 0.029877692 -0.034966085 -0.015034187 0.006378082 0.019896159 0.015527997
-0.0062973117 -0.010856175 0.030994926 -0.004265486 0.021834621 0.021231752 0.051511176 0.024072532
0.05404378 -0.0067462116 -0.0062263818 -0.002228291 -0.037483666 -0.052019868 0.036329087 0.060841233
0.0326153 -0.0073102512 0.038984206 0.03946076 0.029405927 0.025141584 0.0177515 0.004117718
0.06691435 0.07720374 0.035499897 -0.010870575 -0.021407582 0.010821084 0.008630255 0.0034494617
-0.043097522 -0.0068062735 0.007279512 0.0103619285 0.016574685 0.0017569294 -0.018122235 -0.018267065
-0.017751273 0.010343124 0.005196188 -0.028201807 -0.013154427 -0.018886248 -0.0019604343 0.024612358
0.030282224 0.039099403 0.057875313 0.053274527 0.032223135 0.014500547 0.0045975633 -0.0016153811
0.0050780415 0.0055477126 0.027963858 -0.017995354 0.0022690191 -0.0025205768 0.036252834 0.046154384
0.022063056 -0.019329283 0.008798663 0.021870455 0.014547246 -0.0003443144 -0.025675802 -0.03131852
-0.03349715 -0.03952141 -0.010037037 -0.027648654 -0.040763993 -0.0063980115 -0.0029290807 -0.0032168631
0.00092581986 0.027439818 0.024203116 0.0431046 -0.01138547 -0.007877581 0.02409918 -0.016286558
-0.042989776 -0.044946402 0.025298987 -0.0010956588 -0.022085255 -0.007408191 0.026147999 0.042437077
0.027225327 -0.0309911 -0.0393892 -0.010789564 0.013448267 -0.0076894327 -0.015795618 -0.027724406
-0.060290847 -0.0451916 -0.027212912 -0.071483575 -0.062012374 -0.011805193 0.02109757 -0.020097025
0.0022415717 0.0050249863 0.021750579 0.0375463 -0.024657905 -0.010974566 -0.007812582 -0.00795139
-0.023045389 0.0010993092 0.0003207136 0.023574425 0.0030137268 0.00204717 0.03203868 0.024469784
0.017375458 0.008780719 0.0032695595 -0.0071121966 0.034433797 -0.020772394 0.024622899 0.011363033
-0.020606592 -0.009638508 0.036721263 0.0037114604 0.034400526 0.06534971 0.009868065 -0.0043002567
0.0018333914 0.0029940049 0.0057688295 0.029406747 0.030186903 0.0010640188 0.02378344 -0.028436761
-0.06346418 -0.025257386 -0.036974795 -0.028048206 0.008656937 0.047508065 0.031692926 0.03509644
0.03696642 -0.0041749272 -0.007884364 0.008225652 0.021321787 -0.013661029 -0.010444641 0.050843492
-0.0037147806 -0.014858561 0.030637791 0.0422337 0.051335298 0.0694272 0.005518436 -0.00935376
0.013205003 -0.0043933396 -0.02810797 -0.000557006 0.0037347695 -0.026671467 0.015313584 -0.041602883
-0.06927087 -0.019932589 0.035719752 -0.016433269 0.0129104825 0.056808084 0.063459426 0.04611024
00000000: f33c 3fbc 6e18 35bd 49eb 01bc 4eb5 f4bb
00000010: d87a a9bb 903b 613d aec2 593d 79a3 633d
00000020: 9239 503d ca77 623d ba12 ed3c a619 9d3c
00000030: 8cae f83c b11c 913b 0b27 40bc 6f0a 29bd
00000040: b23a e5bc e83f 34bd 8782 793c cb85 3a3d
00000050: 54e6 d03b 119d 863c 05c0 233d 0a6b 083d
00000060: 5d5c b83c a114 4d3d cbd9 193d 4cce 20bd
00000070: 8dc0 cdbc d499 743c 2ea3 fb3c c040 85ba
00000080: 6842 613c da1c acbc 0817 86bc 5c7c a6ba
00000090: c2c6 1ebb a9ba 733d 230b 2b3d b648 3e3d
000000a0: 7207 7e3d 61c2 ca38 f504 2ebc dae9 72ba
000000b0: 1e8b 68bc d0f0 44bc 7f5b c6bb 70f1 4c3d
000000c0: 185d da3b 7a00 91bc ce25 6b3c 2598 e53c
000000d0: 29bd 7e3b bcb9 123c 7b71 c63c 63b6 203c
000000e0: 9a58 0b3d 3880 8e3d 10c2 f43c 9938 0fbd
000000f0: f351 76bc 3bff d03b 45fd a23c 2469 7e3c
00000100: ae59 cebb 19de 31bc 12e9 fd3c 7dc5 8bbb
00000110: 85de b23c 36ee ad3c 62fd 523d c233 c53c
00000120: 035d 5d3d 530f ddbb ad06 ccbb 8508 12bb
00000130: 7988 19bd c912 55bd cfcd 143d a834 793d
00000140: 9f97 053d d58a efbb e7ad 1f3d 9ba1 213d
00000150: b3e4 f03c b9f5 cd3c 986b 913c eced 863b
00000160: 640a 893d ff1c 9e3d 5768 113d 7f1a 32bc
00000170: f45e afbc ea4a 313c ea65 0d3c 5d10 623b
00000180: 0787 30bd 2907 dfbb f988 ee3b 14c5 293c
00000190: a2c7 873c c548 e63a 1575 94bc d0a4 95bc
000001a0: 1e6b 91bc 3576 293c c944 aa3b 7a07 e7bc
000001b0: aa85 57bc 55b7 9abc a17a 00bb db9f c93c
000001c0: 6d12 f83c b226 203d aa0e 6d3d 6436 5a3d
000001d0: 68fc 033d b493 6d3c 28a7 963b 32bb d3ba
000001e0: b365 a63b 96c9 b53b 7614 e53c fe6a 93bc
000001f0: d3b3 143b 4330 25bb da7d 143d 610c 3d3d
00000200: 95bd b43c 7258 9ebc 4428 103c ab29 b33c
00000210: 9257 6e3c 1985 b4b9 0f56 d2bc d947 00bd
00000220: 4f34 09bd 34e1 21bd 6272 24bc 6e7f e2bc
00000230: 25f8 26bd 69a6 d1bb d2f5 3fbb 02d2 52bb
00000240: b8b2 723a 78c9 e03c 9d45 c63c 738e 303d
00000250: 1f8a 3abc f810 01bc a56b c53c 636b 85bc
00000260: 0c16 30bd b819 38bd d23f cf3c 359c 8fba
00000270: 23ec b4bc 69c0 f2bb 5434 d63c 80d2 2d3d
00000280: a607 df3c 0ce1 fdbc 9256 21bd b6c6 30bc
00000290: 1f56 5c3c a3f7 fbbb d065 81bc 4b1e e3bc
000002a0: 89f3 76bd d41a 39bd 9ded debc fb65 92bd
000002b0: b000 7ebd 916a 41bc d0d4 ac3c 84a2 a4bc
000002c0: 55e7 123b a4a8 a43b 452e b23c 26ca 193d
000002d0: 60ff c9bc abce 33bc 5800 00bc 8c46 02bc
000002e0: afc9 bcbc b216 903a 7325 a839 271f c13c
000002f0: f281 453b d029 063b fe3a 033d db74 c83c
00000300: fa56 8e3c 01dd 0f3c 1b46 563b 6e0d e9bb
00000310: 740a 0d3d de2a aabc f6b5 c93c 042c 3a3c
00000320: 28cf a8bc d5ea 1dbc 0969 163d f93b 733b
00000330: 91e7 0c3d 12d6 853d aaad 213c 2be9 8cbb
00000340: 684e f03a 1137 443b 7308 bd3b 6be6 f03c
00000350: 864a f73c 8c76 8b3a 7dd5 c23c 36f4 e8bc
00000360: 82f9 81bd 94e8 cebc e272 17bd 5ac5 e5bc
00000370: d3d5 0d3c d197 423d 71d0 013d 49c1 0f3d
00000380: 1a6a 173d d4cd 88bb 6b2d 01bc e3c4 063c
00000390: 07ab ae3c 82d2 5fbc 0020 2bbc 4441 503d
000003a0: ad73 73bb 5271 73bc 1bfc fa3c 3ffd 2c3d
000003b0: f644 523d d92f 8e3d ffd3 b43b 8340 19bc
000003c0: cc59 583c 01f6 8fbb af42 e6bc 0a04 12ba
000003d0: 09c3 743b 1f7e dabc d4e5 7a3c c967 2abd
000003e0: e3dd 8dbd ab49 a3bc e04e 123d 109f 86bc
000003f0: 7d86 533c 98af 683d 04f7 813d 17de 3c3d

bias f4 [60]
-0.028808737 0.43831167 -0.38250846 -0.17414777 -0.0016643172 0.0011662716 0.1986406 0.23545092
0.2848499 0.36037487 -0.012818841 -0.32204086 -0.22328609 0.06131401 -0.30352262 -0.008608355
0.14792612 -0.08314529 -0.16257799 0.03673343 0.5179384 -0.085608 0.14985156 -0.1480874
0.3997229 -0.19834912 -0.07039206 0.31792998 0.16847464 -0.14864197 -0.15622146 -0.3453419
-0.071525656 -0.082085654 -0.24217418 0.31015038 0.38582787 -0.11867103 0.25434792 -0.104001984
0.15832251 -0.04015306 -0.0947037 0.0035745013 0.16829625 0.12575744 0.2591152 -0.08825921
0.3075917 -0.44616148 -0.21354558 0.19345845 0.08778852 0.41187173 -0.23369382 0.16590217
-0.039982162 -0.006816617 -0.03422876 0.06444645
00000000: 4d00 ecbc 636a e03e 26d8 c3be cb53 32be
00000010: 3825 daba 95dd 983a 7168 4b3e 0c1a 713e
00000020: d9d7 913e 0e83 b83e 1e06 52bc 8ae2 a4be
00000030: 1ca5 64be 6624 7b3d 5167 9bbe 0f0a 0dbc
00000040: f279 173e 1448 aabd d87a 26be cb75 163d
00000050: 9c97 043f 3f53 afbd b072 193e 39a4 17be
00000060: 7ba8 cc3e 081c 4bbe b629 90bd b8c7 a23e
00000070: 9e84 2c3e 9a35 18be 85f8 1fbe a7d0 b0be
00000080: 0b7c 92bd 861c a8bd 82fc 77be 08cc 9e3e
00000090: 3b8b c53e cc09 f3bd e439 823e fefe d4bd
000000a0: 4c1f 223e 8977 24bd 03f4 c1bd 2e42 6a3b
000000b0: da55 2c3e 8fc6 003e bfaa 843e 3fc1 b4bd
000000c0: a97c 9d3e 476f e4be b1ab 5abe f919 463e
000000d0: 78ca b33d dae0 d23e 6f4d 6fbe 42e2 293e
000000e0: 56c4 23bd ee5d dfbb 7533 0cbd 80fc 833d

weight f4 [60, 60]
0.050949346 0.028676677 0.11233379 -0.037532177 -0.06901801 -0.040952824 0.039334476 0.011364717
-0.09437776 0.12955797 -0.10417784 0.11752715 -0.06503456 0.09243325 -0.028699439 -0.033667136
0.080847815 -0.11099699 0.021459093 -0.056670774 0.1341085 -0.022718467 -0.07965553 0.14817218
0.050167423 0.028595049 0.059945583 0.07684989 0.017214261 0.019415634 0.053994842 0.05512327
0.040694002 -0.053054534 -0.04984134 0.009824772 0.013682342 -0.13386723 0.031993385 -0.008261294
0.006141267 -0.12524515 -0.1335511 -0.08936945 0.14303975 0.17297979 -0.11051764 -0.055302303
0.13145033 -0.06879202 0.05127622 -0.09481074 0.08256096 -0.051388375 0.05693539 0.06646157
-0.011159791 0.011699114 -0.07857339 0.039368697 -0.00079256477 0.120302804 -0.02447608 -0.026465328
-0.023131104 0.05843852 0.08290745 0.048905622 0.002200137 -0.0462687 -0.14548363 0.19974537
0.03189447 -0.081322476 -0.06591975 0.026290625 -0.025971426 -0.090798326 0.083488755 0.025083765
-0.030050095 0.083372496 0.0248855 0.06296426 -0.07301969 -0.09079183 -0.0077629653 0.07116753
-0.13624355 -0.02967749 -0.031319737 -0.02387942 0.033372015 0.12193763 0.084215984 0.097198285
-0.120711215 -0.10769681 0.1257362 0.06293922 0.045239903 0.022384802 -0.1322815 -0.14380257
0.03894331 -0.15800194 -0.05358272 -0.12638235 0.11985585 -0.05260154 0.14224641 -0.032409046
-0.08803338 0.02426669 -0.011835205 -0.11477039 0.019480621 0.05138006 -0.041616146 0.13181926
-0.028963046 0.039311122 0.08782439 -0.14081042 0.05524215 0.069955446 0.06569309 -0.107357055
-0.076190464 -0.1167506 -0.037164796 0.067461506 0.062232256 0.07232751 0.08569455 0.14290768
0.1019063 0.016722117 -0.070137426 -0.04198777 -0.08101702 0.1480408 0.051574007 0.009411046
-0.09107054 0.060603626 -0.12100436 -0.02114401 0.026976308 -0.09782608 0.08138218 0.10131677
-0.035611376 -0.06530558 0.12164636 0.02363374 0.12738673 0.00595983 0.043344174 -0.040618014
-0.113366134 -0.08575057 0.07146189 0.15185207 -0.12832083 -0.010485702 -0.113687016 0.14724173
-0.10889105 0.0484658 0.11590705 -0.1581768 -0.03505092 0.058267992 0.1239827 0.057920445
0.07454437 0.17299005 0.062585935 -0.08864397 -0.120702215 0.17450304 0.11928468 0.016151277
0.14087929 0.078349136 0.01027454 0.09156106 -0.10827255 -0.11747364 -0.09062155 -0.0067734173
0.0052623027 -0.119847275 0.16894054 0.093497664 -0.15058085 -0.07335532 -0.057246078 -0.11859088
-0.14119427 -0.0745663 0.0069904784 -0.12423933 0.022447895 0.183097 0.09275641 -0.0050705494
-0.12047979 -0.083045356 -0.050777562 0.09655174 0.11062205 0.054221723 0.09671366 0.20722629
0.058309313 0.045450892 -0.10027649 0.06045552 0.15685761 0.21444936 0.058210507 0.20203023
-0.034291502 0.002995234 -0.11818152 -0.0243105 0.064467385 0.1361976 0.19333848 -0.059718125
-0.20815586 0.12498465 -0.019479733 -0.12099923 0.09625496 0.016754275 -0.033813626 0.09712681
-0.093887836 -0.15164438 -0.11570836 0.043111145 0.02527362 0.07804346 0.083091944 -0.119585186
0.062548704 -0.078775816 0.072579816 -0.03946657 -0.0026342496 -0.10782349 0.08514283 0.081808284
00000000: 43b0 503d 5aeb ea3c 420f e63d 57bb 19bd
00000010: 5059 8dbd 26be 27bd 301d 213d 1433 3a3c
00000020: 2149 c1bd d8aa 043e 315b d5bd 13b2 f03d
00000030: d730 85bd a54d bd3d 161b ebbc 8de6 09bd
00000040: 8a93 a53d 6452 e3bd fbca af3c 9d1f 68bd
00000050: bd53 093e 141c babc 7022 a3bd 73ba 173e
00000060: 5b7c 4d3d 2a40 ea3c 8089 753d 7a63 9d3d
00000070: ec04 8d3c 890d 9f3c b229 5d3d f0c8 613d
00000080: c1ae 263d b64f 59bd 6f26 4cbd 15f8 203c
00000090: e72b 603c 7e14 09be 7f0b 033d 615a 07bc
000000a0: ae3c c93b 4440 00be 9fc1 08be 5507 b7bd
000000b0: 0379 123e 9d21 313e 1357 e2bd ab84 62bd
000000c0: ea9a 063e d5e2 8cbd 0307 523d 222c c2bd
000000d0: b815 a93d 9e7c 52bd 1535 693d 011d 883d
000000e0: 8ed7 36bc a4ad 3f3c 16eb a0bd 1241 213d
000000f0: 1fc4 4fba 5161 f63d 0f82 c8bc d1cd d8bc
00000100: 717d bdbc 3b5d 6f3d 62cb a93d 4351 483d
00000110: 2c30 103b 4084 3dbd a9f9 14be 0d8a 4c3e
00000120: c7a3 023d 668c a6bd ef00 87bd 705f d73c
00000130: 07c2 d4bc 79f4 b9bd 27fc aa3d 787c cd3c
00000140: 9e2b f6bc 33bf aa3d addc cb3c 68f3 803d
00000150: 598b 95bd 11f1 b9bd 7960 febb 48c0 913d
00000160: 6e83 0bbe 351e f3bc 2049 00bd c69e c3bc
00000170: 18b1 083d 70ba f93d 6e79 ac3d e50f c73d
00000180: 7137 f7bd 2590 dcbd fec0 003e 47e6 803d
00000190: 7a4d 393d 5560 b73c cd74 07be fb40 13be
000001a0: 0583 1f3d 43cb 21be 8e79 5bbd 606a 01be
000001b0: fc76 f53d b674 57bd 0ba9 113e 59bf 04bd
000001c0: d84a b4bd f0ca c63c 73e8 41bc bd0c ebbd
000001d0: d395 9f3c e673 523d b175 2abd a1fb 063e
000001e0: e943 edbc b304 213d 46dd b33d 9b30 10be
000001f0: 9845 623d cd44 8f3d 198a 863d 04de dbbd
00000200: bf09 9cbd f01a efbd 1d3a 18bd 4229 8a3d
00000210: 40e7 7e3d 7220 943d a080 af3d 6456 123e
00000220: 40b4 d03d d2fc 883c 36a4 8fbd 5efb 2bbd
00000230: 40ec a5bd 0298 173e 443f 533d ca30 1a3c
00000240: 3183 babd 823b 783d 22d1 f7bd 3436 adbc
00000250: 6bfd dc3c 0a59 c8bd b3ab a63d 2b7f cf3d
00000260: 3cdd 11bd efbe 85bd ba21 f93d 8c9b c13c
00000270: ab71 023e ad4a c33b a989 313d 135f 26bd
00000280: 812c e8bd ff9d afbd 9d5a 923d 1c7f 1b3e
00000290: 8966 03be 39cc 2bbc bdd4 e8bd 89c6 163e
000002a0: 4502 dfbd 1384 463d ad60 ed3d 19f9 21be
000002b0: 8e91 0fbd 6baa 6e3d a4ea fd3d fd3d 6d3d
000002c0: b8aa 983d 4e24 313e 0e2d 803d f88a b5bd
000002d0: b932 f7bd edb0 323e 874b f43d af4f 843c
000002e0: a942 103e 8375 a03d 8b56 283c 5d84 bb3d
000002f0: 00be ddbd 0596 f0bd cb97 b9bd 8bf3 ddbb
00000300: 656f ac3b 7d72 f5bd c0fe 2c3e b47b bf3d
00000310: de31 1abe 503b 96bd dd7a 6abd c6df f2bd
00000320: 3b95 10be 37b6 98bd 6210 e53b 3171 febd
00000330: a6e4 b73c c87d 3b3e 13f7 bd3d da26 a6bb
00000340: 1cbe f6bd af13 aabd 22fc 4fbd ebbc c53d
00000350: d08d e23d 9917 5e3d d011 c63d 2133 543e
00000360: bfd5 6e3d b72a 3a3d c35d cdbd 35a0 773d
00000370: 489f 203e 9d98 5b3e 246e 6e3d 03e1 4e3e
00000380: 3f75 0cbd b04b 443b 2709 f2bd d026 c7bc
00000390: 7a07 843d 6277 0b3e 86fa 453e fe9a 74bd
000003a0: cf26 55be f4f7 ff3d f693 9fbc 72ce f7bd
000003b0: 5221 c53d 4340 893c 2880 0abd 6cea c63d
000003c0: 4448 c0bd aa48 1bbe 81f8 ecbd 5095 303d
000003d0: 9f0a cf3c 40d5 9f3d 1c2c aa3d 14e9 f4bd
000003e0: 8919 803d 3755 a1bd baa4 943d b3a7 21bd
000003f0: 60a3 2cbb 90d2 dcbd 5d5f ae3d 1a8b a73d

bias f4 [60]
0.40882084 0.09030494 -0.171669 0.21298118 0.015894925 -0.20924674 0.1644841 -0.051365044
0.014319505 -0.19496204 -0.063477434 -0.05430331 -0.16179852 0.12315376 -0.3343839 0.21114168
0.17150892 0.492356 0.40460917 0.1184055 0.15909359 0.32878718 0.044836756 0.40623948
0.07247676 -0.15843128 -0.2421703 -0.30808946 -0.08186501 -0.086009845 0.25493833 -0.006035047
0.03898715 0.24826416 -0.3240222 -0.31050968 0.079713404 0.4028978 0.5190023 -0.0037825112
0.18448202 -0.25349966 -0.40166184 -0.003782897 -0.10518092 -0.002626592 0.3350642 0.21120267
0.027709281 0.44682783 0.47766855 -0.1616633 0.18361965 -0.15551835 0.0031219113 0.12187727
-0.1955673 -0.10438281 0.13454358 0.060074672
00000000: f750 d13e ccf1 b83d 00ca 2fbe bd17 5a3e
00000010: 1336 823c c744 56be 856e 283e 2764 52bd
00000020: 5b9c 6a3c 21a4 47be 7500 82bd 266d 5ebd
00000030: 83ae 25be 0a38 fc3d 5e34 abbe 8635 583e
00000040: 09a0 2f3e 1616 fc3e ef28 cf3e 957e f23d
00000050: 6ee9 223e cb56 a83e bfa6 373d 9ffe cf3e
00000060: b26e 943d cf3b 22be 7efb 77be e7bd 9dbe
00000070: d8a8 a7bd ee25 b0bd 4787 823e a5c1 c5bb
00000080: fdb0 1f3d f638 7e3e 3de6 a5be 20fb 9ebe
00000090: c840 a33d 9f48 ce3e 56dd 043f 02e4 77bb
000000a0: dbe8 3c3e b5ca 81be 9fa6 cdbe 7bea 77bb
000000b0: 1869 d7bd e722 2cbb 898d ab3e 8345 583e
000000c0: 93fe e23c 9ec6 e43e f990 f43e 108b 25be
000000d0: ca06 3c3e 3440 1fbe fb98 4c3b ca9a f93d
000000e0: cb42 48be a8c6 d5bd cbc5 093e dc10 763d

weight f4 [10, 60]
-0.17036088 -0.039201543 0.07899171 -0.018536346 0.043569237 -0.0060424847 0.08701818 -0.13617973
0.060916822 0.17544125 0.074314445 0.01592859 -0.02935335 -0.058074024 0.11133285 -0.20770457
0.028829211 0.060394935 -0.05571945 -0.108141236 0.0286596 0.0016357802 0.21637806 -0.0510694
0.0905716 0.0809273 -0.0016441015 0.0349647 -0.22253199 0.068802476 -0.09752463 -0.05777463
0.0955231 -0.06753526 0.13657415 0.06706624 -0.12533136 0.023002144 -0.19194491 0.076625325
-0.088097624 -0.14589135 -0.16982275 0.1529071 -0.08345254 0.16182882 0.104255974 0.16550842
-0.16354084 0.0034380807 0.07302645 -0.03774576 -0.05626891 0.14697778 0.056868095 -0.114181176
0.07030368 -0.09679779 -0.067643 0.10552019 -0.03735937 0.106793515 0.09308305 0.09239389
0.023998976 0.12509498 -0.13041998 -0.0012591081 -0.14894563 0.069841966 -0.026673349 0.13547203
0.16811864 -0.33184665 0.124640115 -0.16061026 -0.045407183 -0.02766509 0.09626802 -0.013650316
0.001356314 -0.2128177 -0.31858695 -0.27041763 0.096290804 0.18233323 0.13250433 -0.07132918
0.05518132 -0.11447654 -0.2038333 -0.20501761 -0.035819326 -0.18107428 -0.039809216 0.08515607
0.08211206 -0.14175785 -0.026045324 0.14644174 0.07688715 0.13902256 0.0064914287 0.005294179
0.1541789 0.09229171 -0.10677587 -0.19797367 0.08843835 -0.26302126 -0.11307984 -0.023513347
-0.14547351 0.12781191 -0.06476362 0.10333523 0.19015457 0.058148902 0.20957029 -0.15012825
0.15317672 0.12284865 -0.17004941 -0.0045532873 0.11938443 0.037877683 0.017018352 -0.06468375
-0.117080025 -0.06876266 0.11933719 0.0687459 -0.0770205 0.144162 -0.04679731 0.0081527755
0.1376437 -0.014817099 -0.03915849 0.10769061 0.04571495 0.16196378 0.16386841 0.014432369
0.0034328878 -0.20950048 0.037758198 -0.060603168 0.09894348 -0.07461479 0.1153663 -0.013650224
0.024911407 0.21038388 -0.15404779 0.00048405555 0.073363565 0.16874318 0.05861957 0.0054554
-0.0033129102 -0.29084525 -0.09535606 -0.011222867 -0.16899684 -0.09518889 0.09322673 -0.04836085
-0.0232383 0.036877062 0.03495261 -0.06517713 -0.16313753 -0.108049795 -0.053326998 -0.0119548
-0.031416662 -0.10560346 -0.11730656 0.03929386 -0.057717856 -0.052090075 0.13197412 -0.14989896
-0.13443767 -0.11373408 -0.18994659 -0.13064246 -0.18309101 -0.092471346 0.087496124 0.0080031
0.033099644 -0.042795125 0.014699663 0.13816287 -0.0058581214 0.027767062 0.09076428 0.12427571
-0.0030496384 -0.019465616 0.09960682 0.14751028 0.047718506 -0.003830278 0.14497265 0.14304286
0.10683724 0.100997694 0.00071899744 -0.057392802 -0.04370118 0.0440105 0.06606484 -0.09556274
-0.19073078 0.13644196 0.02793959 0.06422547 -0.040139697 -0.0461059 -0.012498062 -0.10519907
0.00025894254 -0.018976297 -0.20557734 -0.00016526629 0.12031477 -0.12454264 -0.09381786 0.043160416
0.105744705 -0.055125643 -0.20304766 -0.106251344 -0.07649942 -0.001645031 -0.15532403 0.0824506
0.07455319 -0.09415505 0.07551262 0.027703363 -0.030605141 -0.12731485 -0.10900313 0.063361526
-0.027746422 -0.13373427 0.018884957 -0.055485208 -0.065564 -0.11360521 -0.064909555 0.08788214
00000000: 1573 2ebe cc91 20bd 68c6 a13d 89d9 97bc
00000010: a875 323d 0900 c6bb 9636 b23d b372 0bbe
00000020: eb83 793d dfa6 333e 2c32 983d ad7c 823c
00000030: 7076 f0bc 07df 6dbd 7a02 e43d 82b0 54be
00000040: 3d2b ec3c ae60 773d 143a 64bd 2779 ddbd
00000050: 8ac7 ea3c ad67 d63a 3692 5d3e 262e 51bd
00000060: 9a7d b93d 36bd a53d e47e d7ba 2537 0f3d
00000070: 6ddf 63be 50e8 8c3d feba c7bd 17a5 6cbd
00000080: 9da1 c33d ed4f 8abd 18da 0b3e 065a 893d
00000090: dd56 00be fe6e bc3c 358d 44be bded 9c3d
000000a0: 876c b4bd 8b64 15be 04e6 2dbe ae93 1c3e
000000b0: 2ae9 aabd 74b6 253e 2884 d53d 0a7b 293e
000000c0: 4077 27be 6c51 613b e48e 953d 4c9b 1abd
000000d0: 3b7a 66bd 5881 163e 85ee 683d d2d7 e9bd
000000e0: 60fb 8f3d eb3d c6bd 6a88 8abd f81a d83d
000000f0: 2406 19bd 8fb6 da3d 53a2 be3d 0239 bd3d
00000100: 8099 c43c e618 003e d18c 05be a808 a5ba
00000110: 3485 18be 4e09 8f3d 1182 dabc 2eb9 0a3e
00000120: 4b27 2c3e cee7 a9be 5143 ff3d 0477 24be
00000130: e2fc 39bd e6a1 e2bc 2b28 c53d 93a5 5fbc
00000140: 59c6 b13a e2ec 59be d41d a3be 2e74 8abe
00000150: 1d34 c53d 90b5 3a3e 37af 073e 0815 92bd
00000160: cf05 623d ad72 eabd adb9 50be 23f0 51be
00000170: 49b7 12bd 896b 39be fd0e 23bd 4e66 ae3d
00000180: 5e2a a83d f828 11be 015d d5bc d3f4 153e
00000190: 0377 9d3d ee5b 0e3e 0db6 d43b cb7a ad3b
000001a0: 13e1 1d3e 7003 bd3d 4fad dabd 9cb9 4abe
000001b0: 2a1f b53d b9aa 86be 6796 e7bd 109f c0bc
000001c0: 02f7 14be 20e1 023e caa2 84bd 6ca1 d33d
000001d0: e1b7 423e 8b2d 6e3d 9899 563e 38bb 19be
000001e0: 5cda 1c3e 1398 fb3d 6f21 2ebe be33 95bb
000001f0: d37f f43d a125 1b3d 126a 8b3c ea78 84bd
00000200: a7c7 efbd 70d3 8cbd 0f67 f43d a7ca 8c3d
00000210: edbc 9dbd 349f 133e 89ae 3fbd 3893 053c
00000220: 78f2 0c3e 6bc3 72bc a764 20bd e58c dc3d
00000230: 993f 3b3d d5d9 253e 1fcd 273e be75 6c3c
00000240: 4dfa 603b 4b87 56be 57a8 1a3d 073b 78bd
00000250: e1a2 ca3d a4cf 98bd 2b45 ec3d 30a5 5fbc
00000260: 0213 cc3c df6e 573e b4be 1dbe d6c8 fd39
00000270: a33f 963d 03cb 2c3e 131b 703d 36c3 b23b
00000280: 691d 59bb abe9 94be 0a4a c3bd 1ee0 37bc
00000290: 820d 2dbe 65f2 c2bd a8ed be3d 0716 46bd
000002a0: 3f5e bebc 670c 173d 782a 0f3d 967b 85bd
000002b0: 860d 27be 3649 ddbd 696d 5abd 11de 43bc
000002c0: c2ae 00bd a046 d8bd 6c3e f0bd 99f2 203d
000002d0: 8f69 6cbd 675c 55bd 3924 073e 1d7f 19be
000002e0: 07aa 09be 6aed e8bd 5c81 42be 23c7 05be
000002f0: 367c 3bbe 9e61 bdbd 2b31 b33d 6f1f 033c
00000300: 7e93 073d f149 2fbd dbd6 703c 917a 0d3e
00000310: 7cf5 bfbb c077 e33c 9fe2 b93d 4384 fe3d
00000320: 71dc 47bb 5b76 9fbc a9fe cb3d ef0c 173e
00000330: 7b74 433d 6705 7bbb b673 143e d479 123e
00000340: 7ccd da3d e1d7 ce3d 1a7b 3c3a b714 6bbd
00000350: 0200 33bd 5b44 343d 014d 873d 66b6 c3bd
00000360: ee4e 43be 71b7 0b3e 91e1 e43c a588 833d
00000370: 8669 24bd 8ad9 3cbd acc4 4cbc 9c72 d7bd
00000380: aec2 8739 2e74 9bbc de82 52be 554b 2db9
00000390: 9767 f63d 3610 ffbd 9423 c0bd fac8 303d
000003a0: ae90 d83d 6dcb 61bd baeb 4fbe 4e9a d9bd
000003b0: baab 9cbd 159e d7ba 430d 1fbe dcdb a83d
000003c0: 58af 983d 5dd4 c0bd 5ca6 9a3d 2af2 e23c
000003d0: a2b7 fabc d35e 02be 083d dfbd b0c3 813d
000003e0: 774c e3bc a3f1 08be a0b4 9a3c 7544 63bd
000003f0: 6b46 86bd d9a9 e8bd 4def 84bd 8dfb b33d

bias f4 [10]
-0.068410195 -0.27445683 0.15846217 -0.011505129 0.31927 -0.13847485 0.2948036 -0.14502776
-0.0047288984 -0.10015609
00000000: a51a 8cbd 9b85 8cbe e843 223e 0280 3cbc
00000010: 5c77 a33e 5acc 0dbe 7ff0 963e 2882 14be
00000020: e0f4 9abb a31e cdbd
