Exercise2/saves/model_hl_2.pt (torch, 381421 bytes, 8 tensors)

weight f4 [30, 3072]
0.026689826 0.061139643 0.08629246 0.082420744 0.06443172 0.06037631 0.07267791 0.071939364
0.011601434 0.023888977 0.021808902 0.021765837 0.02762043 0.023382809 0.040049 0.06248816
0.06278204 0.029262068 0.034069322 0.00392781 -0.0037240002 0.029702393 0.039825674 0.0044864267
0.033667985 0.050820053 0.06552101 0.044463214 0.030575134 0.008578646 0.026992787 0.046333913
0.04610181 0.009927198 0.036414552 0.022773035 -0.0005571937 -0.040450245 -0.009591919 -0.012878046
-0.036213227 0.010693582 0.00010015153 0.0018070018 -0.023147099 0.004650592 -0.004807533 0.02078684
0.02513941 -0.015876262 -0.042540543 -0.0038531118 -0.036682826 -0.028480707 -0.028664796 -0.047202297
-0.013053765 -0.007590805 -0.012744245 -0.02298609 -0.011198229 -0.0043319413 -0.0067506297 -0.0021490888
0.047997944 0.008144728 0.020377226 0.014755182 0.010274973 -0.031786498 -0.019894095 0.0010067815
-0.023931678 -0.027810214 0.022420965 0.030833542 0.00380122 -0.008084883 -0.0004701181 0.010760102
0.042629525 -0.038940806 -0.014585826 -0.021927001 0.004410903 0.0013029003 -0.035085235 -0.03388805
0.026954222 0.0016071466 -0.02209632 -0.02930585 -0.005229158 0.011745422 0.03467654 0.043719154
0.06005099 0.009102042 -0.018398922 -0.019004459 -0.017912209 -0.057388622 -0.013737175 0.007054954
-0.045871306 -0.036043603 -0.0042170924 0.006399394 -0.02691894 0.010886571 0.0077377018 0.0041128313
0.016477417 -0.021874983 0.031837367 -0.015684828 -0.021020634 -0.0436151 -0.05416735 0.0004141282
0.015753804 -0.0038596082 -0.015950419 0.004288907 -0.011606997 -0.009334765 0.030789908 0.039145682
0.026513817 0.083116226 0.043835804 0.0035926208 -0.019646276 -0.010043144 0.009600356 -0.041627526
-0.037677422 -0.02908991 -0.002219953 -0.027809428 -0.051053118 -0.038931824 -0.018769227 -0.013527767
-0.007062124 -0.05131781 -0.026765183 -0.022000039 -0.027596872 -0.058581397 -0.017095178 0.0017736956
0.051944662 0.017385157 0.017995032 0.02497061 -0.035474487 -0.025824137 0.0556406 0.03964264
0.01897065 0.033642877 0.058147997 0.023313563 0.0031999801 -0.028622627 0.01729716 0.008779457
0.035956763 -0.023284571 -0.017449208 -0.037267562 -0.021037245 -0.016462442 -0.03519987 -0.067101486
-0.037779853 -0.01749789 -0.06307522 -0.0551027 -0.037420068 -0.07070344 -0.008711292 0.04256902
0.08923829 0.064587936 0.021945095 -0.015924877 -0.024503661 -0.0046636323 0.055399533 0.026187703
-0.03022987 -0.0049283663 -0.035126556 -0.009851987 -0.012498268 -0.029965835 0.019583553 -0.004881083
0.030894272 -0.032749675 -0.05545105 -0.05346353 -0.035072394 0.05251038 0.00035165297 -0.086895995
-0.046357438 -0.0011015091 -0.026249237 -0.038713515 -0.09690992 -0.064493164 -0.017139886 0.012879347
0.020953208 0.041066956 0.025711972 -0.025794262 -0.011236279 -0.0120835565 0.00022281021 0.021228552
-0.024128668 -0.01021196 -0.036485974 -0.04382827 -0.0048319125 0.0008855181 -0.022303568 -4.6993235e-05
0.003169723 -0.043204375 -0.049438573 -0.047235534 -0.03524602 -0.007526482 0.014676387 -0.0010589141
-0.032789834 -0.05912461 -0.015450746 -0.020404633 -0.084986605 -0.04869125 -0.040894635 -0.032912754
-0.009453134 -0.012945692 -0.014573784 -0.019679908 -0.02796523 -0.015361231 -0.0012930696 -0.01379038
00000000: 9fa4 da3c 906d 7a3d 1aba b03d 35cc a83d
00000010: c7f4 833d 264d 773d 28d8 943d f254 933d
00000020: f113 3e3c d1b2 c33c 95a8 b23c 454e b23c
00000030: 3d44 e23c 4e8d bf3c 6c0a 243d 96f3 7f3d
00000040: df93 803d 01b7 ef3c 468c 0b3d dcb4 803b
00000050: 5b0e 74bb 6f52 f33c 3f20 233d e002 933b
00000060: 71e7 093d b028 503d e12f 863d 0f1f 363d
00000070: b478 fa3c 738d 0c3c fa1f dd3c a1c8 3d3d
00000080: 40d5 3c3d b0a5 223c 6d27 153d 848e ba3c
00000090: a310 12ba 28af 25bd 6d27 1dbc 71fe 52bc
000000a0: 5254 14bd 2234 2f3c 7108 d238 ebd8 ec3a
000000b0: fc9e bdbc fe63 983b 8388 9dbb 2a49 aa3c
000000c0: 2af1 cd3c ef0e 82bc fe3e 2ebd 7d84 7cbb
000000d0: bb40 16bd 5f50 e9bc 6fd2 eabc 3257 41bd
000000e0: 75df 55bc 4abc f8bb 3dcd 50bc 534d bcbc
000000f0: c778 37bc f5f2 8dbb 6334 ddbb bad7 0cbb
00000100: 7e99 443d 7771 053c 24ee a63c b8bf 713c
00000110: 5c58 283c 8f32 02bd f1f8 a2bc fbf5 833a
00000120: 5e0c c4bc 3fd2 e3bc 2cac b73c a096 fc3c
00000130: e41d 793b 7576 04bc 2f7a f6b9 244b 303c
00000140: 4c9c 2e3d 6580 1fbd 63f9 6ebc 41a0 b3bc
00000150: 5689 903b 14c6 aa3a 89b5 0fbd 32ce 0abd
00000160: 1acf dc3c e4a6 d23a 5703 b5bc d212 f0bc
00000170: 5b59 abbb df6f 403c fd08 0e3d db12 333d
00000180: 07f8 753d bb20 153c 56b9 96bc 3daf 9bbc
00000190: a0bc 92bc 5510 6bbd e311 61bc 3e2d e73b
000001a0: 8de3 3bbd 75a2 13bd 892f 8abb 02b2 d13b
000001b0: 1c85 dcbc 975d 323c 8c8c fd3b eec4 863b
000001c0: a6fb 863c 2a33 b3bc e667 023d 787d 80bc
000001d0: 7733 acbc bfa5 32bd 95de 5dbd 591f d939
000001e0: 1f0e 813c 7bf1 7cbb 74aa 82bc f689 8c3b
000001f0: 462b 3ebc d8f0 18bc 1e3b fc3c 3957 203d
00000200: 8133 d93c d738 aa3d 2c8d 333d 2d72 6b3b
00000210: 3af1 a0bc 008c 24bc d04a 1d3c a081 2abd
00000220: a453 1abd f74d eebc a27c 11bb 99d0 e3bc
00000230: 131d 51bd fa76 1fbd ecc1 99bc 91a3 5dbc
00000240: 6469 e7bb a032 52bd a842 dbbc 6d39 b4bc
00000250: d612 e2bc 0cf3 6fbd 300b 8cbc 597b e83a
00000260: edc3 543d 516b 8e3c 516a 933c 2a8f cc3c
00000270: b24d 11bd 248d d3bc 66e7 633d 5260 223d
00000280: 5668 9b3c 1dcd 093d 982c 6e3d 16fc be3c
00000290: c2b6 513b 007a eabc c6b2 8d3c b6d7 0f3c
000002a0: 6647 133d 49bf bebc a4f1 8ebc dfa5 18bd
000002b0: 4d56 acbc 3edc 86bc bd2d 10bd 816c 89bd
000002c0: 0cbf 1abd bc57 8fbc 952d 81bd 5eb3 61bd
000002d0: c945 19bd f7cc 90bd cfb9 0ebc da5c 2e3d
000002e0: 91c2 b63d ae46 843d 33c6 b33c e374 82bc
000002f0: e7bb c8bc 62d1 98bb 9fea 623d 9887 d63c
00000300: a2a4 f7bc 227e a1bb dde0 0fbd 3a6a 21bc
00000310: 89c5 4cbc e97a f5bc b06d a03c 7ef1 9fbb
00000320: fc15 fd3c 8624 06bd a420 63bd 93fc 5abd
00000330: 12a8 0fbd 2015 573d 105e b839 87f6 b1bd
00000340: 4ce1 3dbd 8360 90ba a408 d7bc 1092 1ebd
00000350: b578 c6bd fe14 84bd f268 8cbc e603 533c
00000360: 10a6 ab3c d335 283d eaa1 d23c 7d4e d3bc
00000370: 5f18 38bc 1cfa 45bc 29a2 6939 80e7 ad3c
00000380: 7ca9 c5bc 1150 27bc 5172 15bd 4685 33bd
00000390: 0555 9ebb 1d22 683a f9b5 b6bc 9a1a 45b8
000003a0: 21bb 4f3b 12f7 30bd 1a80 4abd 0c7a 41bd
000003b0: 215e 10bd b5a0 f6bb 3b75 703c 43cb 8aba
000003c0: a24e 06bd a62c 72bd 2025 7dbc 9e27 a7bc
000003d0: 750d aebd 7a70 47bd 2281 27bd 86cf 06bd
000003e0: 51e1 1abc 2b1a 54bc e1c6 6ebc c237 a1bc
000003f0: 5717 e5bc acad 7bbc 377c a9ba 0cf1 61bc

bias f4 [30]
0.43416637 0.21118923 0.09408573 0.12343247 -0.13474286 -0.27404067 0.04333676 -0.16868213
0.13337374 0.4726149 0.15217853 -0.13537619 -0.18887974 0.17990996 0.35530156 -0.16071089
-0.13140838 -0.29992238 0.19655141 0.08393636 0.21763144 0.339621 -0.23408975 0.27386168
0.4385772 0.14692311 0.061419632 0.15909262 -0.04367506 -0.041662507
00000000: 0e4b de3e fd41 583e 05b0 c03d 2aca fc3d
00000010: 08fa 09be 0f4f 8cbe e381 313d 02bb 2cbe
00000020: 2093 083e 95fa f13e b0d4 1b3e 0ea0 0abe
00000030: b169 41be 513a 383e 16ea b53e 6591 24be
00000040: eb8f 06be 6d8f 99be c644 493e d4e6 ab3d
00000050: c7da 5e3e cee2 ad3e 39b5 6fbe 9937 8c3e
00000060: 318d e03e 0373 163e 2793 7b3d 2de9 223e
00000070: 9fe4 32bd 4ea6 2abd

weight f4 [30, 30]
0.14992927 0.23042932 -0.051689062 0.23139748 -0.18307686 0.037539966 0.10580473 -0.086373255
-0.1631494 -0.09309668 0.20818889 0.093873076 0.11604225 0.06605842 -0.037213035 -0.08591634
0.05521686 0.044833425 -0.11596541 -0.000345141 -0.09639044 -0.018868739 -0.024652699 -0.12674055
-0.039020743 -0.05112207 -0.038921136 -0.13154735 -0.06640924 -0.15110376 0.10586164 -0.16969408
-0.099057816 0.071410336 0.10249561 0.15513527 0.086521156 -0.11500112 0.10607308 -0.016176056
-0.058285367 0.055132963 -0.08067754 0.19102898 -0.14445631 -0.11572668 0.025694786 -0.057848062
-0.06901325 -0.20398317 0.0048977896 -0.13384591 0.043403607 0.0040119644 0.14297073 0.019156156
-0.010484114 -0.08433238 -0.2252283 0.20725831 0.0210737 0.035205357 0.11547789 -0.14294884
-0.13648535 0.04273869 -0.07021694 0.22073421 -0.0036119106 -0.059089806 0.1243476 0.060639236
0.2463306 0.04985853 -0.11189511 -0.24030529 -0.17604305 -0.04664748 -0.08335431 0.12289315
-0.04243911 -0.014899048 0.004019852 0.06863449 0.013334555 0.08709344 0.24628568 -0.035094693
-0.23055229 0.058476884 0.17225839 -0.023670511 0.13126528 -0.059694905 0.09195614 0.16674714
0.18872163 0.22617628 -0.043095846 -0.21588722 -0.03197913 0.15069206 -0.082635395 0.1921632
-0.06817978 0.08309628 0.25967795 -0.084158964 -0.16663136 -0.018158553 0.18579856 -0.006982343
0.22675736 -0.13440478 -0.008753448 0.1559542 -0.16840017 -0.08270294 -0.1927874 0.20647407
0.039808813 0.035296887 -0.033837833 -0.07899846 0.16601622 0.21319996 0.0047519864 -0.032134183
0.19267452 0.1156636 0.022878999 0.19330336 -0.16092433 -0.06183009 -0.06901323 0.16343209
0.24773595 0.14240201 0.1435426 0.22136582 0.17025717 0.103882864 0.3131908 -0.06214313
0.112946264 0.2741717 0.18748032 0.19642785 0.12020595 0.07468337 -0.14369884 0.12264264
-0.059625 0.004185765 -0.038862836 -0.118700385 0.020620737 0.02708677 0.057749495 0.18325031
-0.08095182 0.029511752 0.07066263 -0.17743976 0.11407056 -0.1245082 -0.018678423 0.09252064
-0.011925309 -0.008136305 0.17470238 -0.022669498 -0.051421743 0.1747051 0.06682932 0.06149436
-0.022595873 0.22735822 -1.5255763e-05 0.20178412 -0.026202379 0.11423061 0.022287136 0.08174046
0.09397941 0.14787136 -0.18550302 -0.13965069 0.058161028 -0.090128615 0.1673936 -0.19516745
0.010904393 0.015554914 0.13107206 0.14097449 0.046283055 -0.13430141 0.03148246 0.1300097
0.011989058 0.19501749 0.007809625 -0.0854262 0.10771728 0.006296225 0.1306921 -0.042076312
-0.13461378 0.10857049 -0.073492974 0.180609 -0.037364505 -0.11558848 0.21798033 -0.051089626
0.22307467 0.35229707 -0.020374576 -0.008101735 -0.12492671 -0.19586831 -0.1211026 -0.08401331
-0.13295448 -0.0024891905 0.024714032 -0.081257604 -0.10299243 0.1324954 -0.0042455574 -0.095428
-0.14369746 0.22112268 0.11257008 -0.16265483 -0.061523043 -0.0029039031 0.15679967 -0.069131084
0.13372147 -0.23015662 0.19659731 0.091964774 0.18645531 0.06994528 0.027694497 -0.10588124
-0.134263 0.23311923 0.0017872393 0.035215005 -0.21648796 -0.008896199 -0.21601218 0.09384307
00000000: 0f87 193e aaf5 6b3e e9b7 53bd 76f3 6c3e
00000010: 8078 3bbe 82c3 193d 26b0 d83d 76e4 b0bd
00000020: a310 27be 79a9 bebd 782f 553e 8740 c03d
00000030: 8fa7 ed3d a349 873d b26c 18bd e8f4 afbd
00000040: 132b 623d 41a3 373d 467f edbd 0af4 b4b9
00000050: 5a68 c5bd 9d92 9abc 75f4 c9bc 46c8 01be
00000060: 37d4 1fbd 6065 51bd c56b 1fbd 59b4 06be
00000070: 9101 88bd f2ba 1abe fdcd d83d 49c4 2dbe
00000080: d3de cabd 953f 923d 38e9 d13d c8db 1e3e
00000090: 0132 b13d b585 ebbd d83c d93d a683 84bc
000000a0: a3bc 6ebd 1ad3 613d 443a a5bd 1a9d 433e
000000b0: 5bec 13be 1c02 edbd df7d d23c 17f2 6cbd
000000c0: d256 8dbd f7e0 50be a37d a03b e70e 09be
000000d0: fbc7 313d cc76 833b eb66 123e 5fed 9c3c
000000e0: 90c5 2bbc 74b6 acbd 3fa2 66be 863b 543e
000000f0: c1a2 ac3c 7e33 103d ac7f ec3d 2e61 12be
00000100: d1c2 0bbe c40e 2f3d e6cd 8fbd 2608 623e
00000110: ceb5 6cbb 2708 72bd f4a9 fe3d d960 783d
00000120: 173e 7c3e 7538 4c3d 4329 e5bd 9712 76be
00000130: a144 34be 6e11 3fbd aab5 aabd 67af fb3d
00000140: a2d4 2dbd 231b 74bc f6b8 833b 3d90 8c3d
00000150: 2d79 5a3c 0c5e b23d 5032 7c3e 74bf 0fbd
00000160: e615 6cbe 7585 6f3d 8164 303e a9e8 c1bc
00000170: 686a 063e a582 74bd 8053 bc3d c3bf 2a3e
00000180: 3e40 413e c19a 673e 4585 30bd 8a11 5dbe
00000190: 8cfc 02bd 054f 1a3e bf3c a9bd 6ec6 443e
000001a0: d7a1 8bbd 622e aa3d 82f4 843e 895b acbd
000001b0: 69a1 2abe 3fc1 94bc fa41 3e3e 23cc e4bb
000001c0: 1533 683e 68a1 09be 9f6a 0fbc 75b2 1f3e
000001d0: 1871 2cbe 2960 a9bd 0f6a 45be f06d 533e
000001e0: 910e 233d 7893 103d 8a99 0abd f2c9 a1bd
000001f0: 2800 2a3e 1751 5a3e 8db6 9b3b 229f 03bd
00000200: 784c 453e 0ae1 ec3d bd6c bb3c 51f1 453e
00000210: 59c9 24be 8c41 7dbd cf56 8dbd be5a 273e
00000220: 7eae 7d3e d5d1 113e d5fc 123e b9ad 623e
00000230: e557 2e3e 8ac0 d43d 8b5a a03e cb89 7ebd
00000240: 5f50 e73d 3c60 8c3e d7fa 3f3e 6224 493e
00000250: 8a2e f63d 98f3 983d ca25 13be 102c fb3d
00000260: 5839 74bd be28 893b a32e 1fbd 3019 f3bd
00000270: d2ec a83c 13e5 dd3c bc8a 6c3d f8a5 3b3e
00000280: 11ca a5bd a1c2 f13c 92b7 903d c5b2 35be
00000290: d39d e93d 28fe febd 7e03 99bc 767b bd3d
000002a0: 5f62 43bc 234e 05bc 2ee5 323e 62b5 b9bc
000002b0: 9b9f 52bd e5e5 323e cfdd 883d 83e1 7b3d
000002c0: fb1a b9bc 98d0 683e 01f3 7fb7 7fa0 4e3e
000002d0: 5fa6 d6bc bdf1 e93d 8393 b63c 8b67 a73d
000002e0: 4778 c03d 976b 173e 81f4 3dbe 9700 0fbe
000002f0: 423a 6e3d 5a95 b8bd 3a69 2b3e fad9 47be
00000300: 57a8 323c 0ada 7e3c c137 063e 9e5b 103e
00000310: 4d93 3d3d 4f86 09be c1f3 003d 4321 053e
00000320: c16d 443c aab2 473e e2e7 ff3b eef3 aebd
00000330: e19a dc3d 9050 ce3b 26d4 053e 3658 2cbd
00000340: 32d8 09be 345a de3d 7c83 96bd 91f1 383e
00000350: 860b 19bd a7b9 ecbd 3c36 5f3e 5b43 51bd
00000360: b06d 643e 4860 b43e 95e8 a6bc 24bd 04bc
00000370: 93d9 ffbd b491 48be a404 f8bd 2c0f acbd
00000380: 3825 08be b021 23bb 1575 ca3c 636a a6bd
00000390: b2ed d2bd e0ac 073e 511e 8bbb c16f c3bd
000003a0: 6d25 13be fc6d 623e 248b e63d fd8e 26be
000003b0: 96ff 7bbd 694f 3ebb 1890 203e 9994 8dbd
000003c0: 48ee 083e 2dae 6bbe ce50 493e 0758 bc3d
000003d0: 24ee 3e3e 793f 8f3d 92df e23c 43d8 d8bd
000003e0: 3d7c 09be cfb6 6e3e cd41 ea3a 9c3d 103d
000003f0: 05af 5dbe 5dc1 11bc 4c32 5dbe cc30 c03d

bias f4 [30]
-0.052392468 0.08523883 0.0038918855 -0.3328829 0.05109103 0.15648712 0.43517295 0.28833634
0.24733263 0.1788858 0.0063668555 0.21751975 0.631917 0.16064276 0.15907162 0.17326501
0.005116123 -0.42433017 -0.090285726 0.12835975 -0.032222293 -0.09366095 -0.2970049 -0.056818787
0.48206654 0.11250465 0.26493943 0.3195535 -0.47614008 0.51251453
00000000: 7c99 56bd b291 ae3d 010f 7f3b a16f aabe
00000010: d444 513d 293e 203e fdce de3e d2a0 933e
00000020: c444 7d3e d72d 373e 0ea1 d03b 7fbd 5e3e
00000030: 50c5 213f 897f 243e ace3 223e 626c 313e
00000040: 26a5 a73b ce41 d9be b9e7 b8bd bd70 033e
00000050: 86fb 03bd 50d1 bfbd 0711 98be d1ba 68bd
00000060: 6dd1 f63e d768 e63d 24a6 873e 849c a33e
00000070: a2c8 f3be 2734 033f

weight f4 [30, 30]
-0.11043671 -0.06876184 -0.029704072 -0.11348635 0.097112715 -0.124853194 0.06550825 0.038066007
0.19656919 0.0008089946 0.11162457 0.023471713 0.0964217 0.29861015 0.21127364 -0.07164595
-0.12837294 -0.07645638 0.13965231 0.20600112 -0.1741008 -0.0393688 0.109508045 0.071644746
0.050851595 -0.14176244 0.059158128 0.26397356 -0.046678934 0.0503853 0.07958415 -0.08396876
-0.13614112 0.021839073 0.066756405 0.15415023 0.18309171 -0.14262553 -0.071999185 0.00980137
-0.19112116 0.019821716 0.046939258 -0.033653297 -0.13864024 -0.21657972 0.091235094 0.015554401
-0.03871706 -0.14966053 0.04263653 -0.03782423 0.07765024 -0.021794928 0.12933801 0.20606089
0.224646 0.19257946 0.14867902 0.13171902 -0.09014696 0.2154358 -0.025393045 0.113579184
-0.081118785 0.12176357 0.13762946 0.0124307135 -0.15106364 0.08174703 0.1417043 -0.12914169
-0.06615199 0.13141136 0.07154404 0.18655258 0.10867807 0.05757299 0.015499026 0.1935231
0.08478722 -0.18556105 -0.0052903392 0.13911565 -0.038250323 -0.12162691 0.11034762 0.049411446
-0.123590454 0.053667452 0.069603354 0.2764063 0.033188123 -0.020582927 0.0370242 0.13153791
-0.0094480235 0.3064894 0.043712653 -0.13057016 -0.15185842 0.0069122156 0.1494985 0.035702344
0.00426091 0.28689662 0.00055688096 -0.15072542 0.12191907 0.04768261 -0.057640128 -0.07546594
-0.1406446 -0.035705894 0.21301758 -0.11457325 0.105895475 -0.1153885 -0.18391661 0.09490627
-0.12340323 0.029508078 0.08008428 0.006535434 0.06322846 0.024246082 -0.042766415 -0.12553273
-0.13853686 0.023782836 0.0046717767 -0.029371072 -0.25031695 0.14201684 0.1207811 0.019645788
0.124220885 0.08076181 -0.013880142 -0.039568778 -0.07016514 0.2177355 0.20086172 0.053206265
-0.022188632 -0.0073057436 0.09752098 -0.20132875 0.13963561 -0.12893021 -0.090711616 0.11818115
0.16167702 0.034214783 -0.04639011 -0.15914747 -0.07210445 -0.11294746 0.10340274 -0.07616225
0.14947933 -0.14384972 -0.06259052 -0.09143505 -0.18450917 -0.17928988 -0.0044836947 -0.14324501
0.058567308 -0.09559508 -0.08443675 -0.16221009 -0.13958654 -0.09216053 -0.10755289 -0.087324105
0.14974813 0.03370758 -0.16477987 -0.122017406 -0.13195321 0.20931967 0.08868796 0.018637968
0.14232892 0.22812562 -0.13734867 0.08673853 0.0055470844 0.13457246 -0.10813694 0.21063218
-0.03014893 -0.017419564 0.15795974 -0.11265913 0.15926242 -0.14862001 0.17883927 -4.9118393e-05
0.14875394 0.17390367 0.20165582 0.05062756 -0.12768999 -0.013747707 0.1119278 -0.27347612
0.20123293 -0.236348 0.09024932 -0.06348156 0.05339812 0.058464333 -0.040946405 -0.14645799
0.15749116 0.11283865 0.08701359 0.15197316 -0.0543937 0.037006296 -0.069577135 -0.1864136
-0.12132215 0.06506252 0.010135538 0.019207982 0.022287542 0.11103363 -0.24206601 -0.008684235
0.020186724 0.21585545 0.01452767 -0.038674477 0.12739055 0.051673234 0.08849503 -0.2019684
0.17666183 0.09479158 0.24985108 -0.025718227 0.10089502 0.16689007 -0.07501684 0.13941072
-0.098227814 -0.06303686 -0.06446805 0.04031788 0.111714385 -0.090830304 -0.17569533 -0.16749574
00000000: a42c e2bd 02d3 8cbd f455 f3bc 886b e8bd
00000010: 08e3 c63d 08b3 ffbd 3029 863d 1aeb 1b3d
00000020: 6f49 493e b512 543a 6c9b e43d c047 c03c
00000030: be78 c53d 6ee3 983e 1e58 583e 1dbb 92bd
00000040: 3274 03be 2a95 9cbd 0401 0f3e f5f1 523e
00000050: 7b47 32be 2e41 21bd c145 e03d 7bba 923d
00000060: c349 503d 2c2a 11be cb4f 723d 8b27 873e
00000070: 6932 3fbd d160 4e3d 04fd a23d d0f7 abbd
00000080: 9468 0bbe dbe7 b23c 95b7 883d 8fd9 1d3e
00000090: 657c 3b3e 6d0c 12be 4f74 93bd ed95 203c
000000a0: 44b5 43be 2761 a23c 6143 403d 0ad8 09bd
000000b0: b5f7 0dbe 13c7 5dbe 77d9 ba3d e3d7 7e3c
000000c0: c895 1ebd 9c40 19be a4a3 2e3d 94ed 1abd
000000d0: 1707 9f3d 478b b2bc 2f71 043e a001 533e
000000e0: 9a09 663e 8d33 453e 503f 183e 5ae1 063e
000000f0: f89e b8bd 349b 5c3e 1305 d0bc 349c e83d
00000100: 9b21 a6bd 2e5f f93d bdee 0c3e 31aa 4b3c
00000110: 6db0 1abe fd6a a73d ef1a 113e b83d 04be
00000120: b27a 87bd b390 063e af85 923d a407 3f3e
00000130: 9c92 de3d a8d1 6b3d a0ef 7d3c eb2a 463e
00000140: eca4 ad3d b703 3ebe 955a adbb 5574 0e3e
00000150: 5fac 1cbd 8817 f9bd effd e13d a863 4a3d
00000160: fe1c fdbd 67d2 5b3d 348c 8e3d 2085 8d3e
00000170: 45f0 073d 879d a8bc b0a6 173d e0b1 063e
00000180: e2cb 1abc 2eec 9c3e 0a0c 333d 2fb4 05be
00000190: c680 1bbe de7f e23b 2316 193e 9f3c 123d
000001a0: 1b9f 8b3b 1de4 923e a6fb 113a c457 1abe
000001b0: b5b0 f93d d74e 433d 0e18 6cbd e38d 9abd
000001c0: 2305 10be 5840 12bd 4821 5a3e 61a5 eabd
000001d0: badf d83d ce50 ecbd a354 3cbe 385e c23d
000001e0: d5ba fcbd edba f13c 3a03 a43d 3227 d63b
000001f0: ec7d 813d b89f c63c d62b 2fbd a78b 00be
00000200: 9bdc 0dbe 39d4 c23c b415 993b 9a9b f0bc
00000210: 8b29 80be dd6c 113e 155c f73d 34f0 a03c
00000220: 8567 fe3d 7366 a53d 8969 63bc df12 22bd
00000230: beb2 8fbd 0ef6 5e3e b2ae 4d3e d0ee 593d
00000240: efc4 b5bc 0565 efbb 14b9 c73d 2029 4ebe
00000250: a3fc 0e3e 4806 04be 03c7 b9bd f508 f23d
00000260: a98e 253e cd24 0c3d 8e03 3ebd 8ef7 22be
00000270: 7fab 93bd ff50 e7bd d1c4 d33d f4fa 9bbd
00000280: 1c11 193e 574d 13be 752f 80bd 4d42 bbbd
00000290: f9ef 3cbe c497 37be f5eb 92bb d2ae 12be
000002a0: 46e4 6f3d 5ac7 c3bd 2ded acbd 671a 26be
000002b0: c6ef 0ebe a9be bcbd b144 dcbd fbd6 b2bd
000002c0: 9357 193e f610 0a3d 0ebc 28be 43e4 f9bd
000002d0: be1e 07be e557 563e 08a2 b53d a7ae 983c
000002e0: acbe 113e c399 693e 21a5 0cbe f8a3 b13d
000002f0: 51c4 b53b 5dcd 093e e676 ddbd f6af 573e
00000300: e4fa f6bc 79b3 8ebc 33c0 213e d4b9 e6bd
00000310: b015 233e d82f 18be a421 373e 7904 4eb8
00000320: f452 183e ce13 323e dd7e 4e3e d85e 4f3d
00000330: 2ac1 02be 103e 61bc 673a e53d 1005 8cbe
00000340: 0110 4e3e 3605 72be a3d4 b83d 9f02 82bd
00000350: fdb7 5a3d 4c78 6f3d 6bb7 27bd 15f9 15be
00000360: 5d45 213e f317 e73d 2e34 b23d da9e 1b3e
00000370: eecb 5ebd ea93 173d 757e 8ebd 35e3 3ebe
00000380: bf77 f8bd 803f 853d 870f 263c 0f5a 9d3c
00000390: 5d94 b63c 9a65 e33d 27e0 77be 5248 0ebc
000003a0: a15e a53c 3609 5d3e 7705 6e3c 2169 1ebd
000003b0: ab72 023e 50a7 533d e23c b53d ced0 4ebe
000003c0: d7e6 343e 1722 c23d f6d8 7f3e 08af d2bc
000003d0: 0ca2 ce3d 3be5 2a3e 6ea2 99bd afc1 0e3e
000003e0: aa2b c9bd 7819 81bd d307 84bd 5d24 253d
000003f0: 83ca e43d 3d05 babd 7ae9 33be 0184 2bbe

bias f4 [30]
-0.07510486 0.27839476 -0.057743017 0.32530317 -0.40537432 -0.04744135 -0.27559856 -0.18298586
-0.29100168 -0.04663745 0.16062862 0.17157264 -0.046002347 -0.3387129 0.15023975 0.4470823
0.009791879 -0.047331095 0.12263278 -0.12874116 -0.12941727 -0.20804341 -0.21547705 -0.18575029
-0.21252787 0.23949793 0.25689992 -0.09315515 -0.16093785 0.20760477
00000000: 94d0 99bd c289 8e3e f183 6cbd 238e a63e
00000010: 398d cfbe dc51 42bd 411b 8dbe a560 3bbe
00000020: 2cfe 94be e906 3fbd d47b 243e bdb0 2f3e
00000030: f56c 3cbd c76b adbe 73d8 193e f9e7 e43e
00000040: 1e6e 203c 40de 41bd e526 fb3d b9d4 03be
00000050: f685 04be 5509 55be 04a6 5cbe 5335 3ebe
00000060: e8a0 59be f23e 753e 6388 833e 21c8 bebd
00000070: e4cc 24be 5896 543e

weight f4 [10, 30]
-0.05212448 0.079060055 0.095325984 -0.12744224 0.085013 -0.07525919 0.041977547 0.041229747
0.19251826 0.25575563 -0.017147895 -0.12697774 0.19014591 -0.16771947 0.17377034 0.1556505
0.15728799 -0.033130813 -0.06330948 0.24147017 0.052559305 -0.1242647 -0.2253643 0.03862098
-0.2047462 -0.2749996 -0.05691363 -0.24660748 -0.18230507 -0.1325343 0.08138304 -0.013531222
-0.15725023 -0.24330376 0.23084669 -0.050421968 0.15223321 0.0126678 0.23786797 0.023005337
-0.040712297 -0.13418938 0.15549782 0.14650092 0.18985447 -0.17204978 0.09663736 -0.19053833
-0.19920427 -0.08755564 0.1819592 0.12386702 0.085685015 0.08699351 0.17149712 0.085002325
-0.115686655 0.13628162 0.20982577 -0.1356058 0.14956895 0.17509632 0.2038571 0.050246757
0.041958224 -0.10627816 -0.1003142 0.060093854 -0.16763327 0.19805272 -0.20138867 -0.036667455
-0.359322 -0.03834436 -0.04645156 0.14935327 -0.10706217 -0.14926393 -0.04535468 0.027731195
-0.18147436 0.061173245 0.11860581 -0.12036409 -0.13534075 -0.046527922 -1.1936662e-05 0.3566167
-0.37551934 0.2355481 -0.042986177 0.12239258 0.06929473 0.003456403 0.010093668 0.1073761
0.00056400674 0.088799685 -0.027010813 -0.13488555 -0.09694429 -0.17959166 -0.049601823 -0.07799498
-0.18674791 -0.07212063 0.19590758 -0.09943166 0.20400022 0.061182786 -0.11844324 -0.18765424
0.040752843 0.08306289 -0.18337396 0.10962344 0.13876744 0.0325034 -0.0010069761 0.11155695
-0.018724816 0.2048377 0.06224268 -0.070457496 -0.074098974 -0.13196371 -0.064548425 -0.1532431
-0.21591426 0.0911959 0.12949584 0.19994476 -0.2182459 -0.21124545 0.09573596 0.12415592
0.116298184 -0.17909382 0.020348078 -0.09524719 0.02487786 -0.14197172 -0.048069432 -0.1597379
-0.18998942 0.22588247 -0.0793584 0.032391544 -0.14530617 0.13625234 0.21407552 -0.13564524
0.038505383 0.0032776792 -0.10306985 0.086517386 -0.0021562825 0.049200937 -0.050186627 -0.12328212
-0.14736119 -0.12640995 -0.05165041 -3.0512592e-05 -0.21875805 0.12429508 0.23164053 0.07154778
0.13426596 -0.0064838133 0.07027306 -0.0774548 0.16305998 0.08852848 -0.20765641 -0.05838422
0.0001683187 0.06155615 -0.04312343 -0.019240353 -0.09722779 -0.04343166 -0.1465523 0.19692706
-0.26657367 0.14020751 0.18308362 -0.11650811 0.044333063 -0.15314215 0.03824211 0.10569577
0.14075112 -0.35016575 -0.17088509 0.13104904 -0.08541696 -0.09049323 0.049741287 -0.04963387
-0.19225699 -0.061396398 -0.30320418 -0.06277819 0.09162538 0.0072785243 0.20115933 -0.066364095
-0.016995644 -0.02061819 -0.12901188 -0.18874434 0.021789083 0.12773669 -0.2615028 -0.044520013
-0.013301887 -0.24918593 -0.08763146 0.26420957 -0.008632299 0.11786178 -0.079431325 0.07141506
-0.01379703 -0.02922949 -0.06388518 -0.12958252 0.28934163 0.001603318 0.15207633 -0.043163817
0.10014428 0.14273846 -0.008168694 0.17871791 -0.21422495 0.041553617 -0.23591347 -0.18662728
-0.009946021 0.075641446 0.15569633 -0.2809267 -0.017562695 0.09473391 -0.008702318 -0.12177327
0.082238175 -0.05169422 0.1904131 0.0150092505 0.19792031 -0.15368327 0.22643477 -0.29806864
00000000: 7b80 55bd 3dea a13d 453a c33d 3880 02be
00000010: 4c1b ae3d 7d21 9abd a6f0 2b3d 86e0 283d
00000020: 8223 453e 67f2 823e be79 8cbc 7406 02be
00000030: 9cb5 423e a7be 2bbe daf0 313e d862 1f3e
00000040: 1a10 213e 2db4 07bd 67a8 81bd f543 773e
00000050: 6d48 573d 7e7e febd e6c5 66be 0831 1e3d
00000060: fda8 51be bfcc 8cbe 441e 69bd ac86 7cbe
00000070: 2eae 3abe 12b7 07be 27ac a63d 0fb2 5dbc
00000080: 3406 21be 9f24 79be 1363 6c3e 4487 4ebd
00000090: 06e3 1b3e 9b8c 4f3c a993 733e b075 bc3c
000000a0: f0c1 26bd f168 09be d23a 1f3e 5604 163e
000000b0: 3669 423e d12d 30be cfe9 c53d 7b1c 43be
000000c0: 34fc 4bbe 5f50 b3bd 8353 3a3e fead fd3d
000000d0: a07b af3d a729 b23d f19c 2f3e b315 ae3d
000000e0: 20ed ecbd 698d 0b3e 91dc 563e 3fdc 0abe
000000f0: 9a28 193e 734c 333e eabf 503e 8bcf 4d3d
00000100: 63dc 2b3d 5da8 d9bd 8871 cdbd f924 763d
00000110: 0ea8 2bbe 55ce 4a3e d538 4ebe 9d30 16bd
00000120: 0ef9 b7be fa0e 1dbd fe43 3ebd 10f0 183e
00000130: 6943 dbbd a5d8 18be d4c5 39bd 882c e33c
00000140: 6ad4 39be cc90 7a3d 9ae7 f23d 7381 f6bd
00000150: c496 0abe 1094 3ebd 9343 48b7 7796 b63e
00000160: 1244 c0be 8533 713e 4612 30bd f6a8 fa3d
00000170: 65ea 8d3d d284 623b e95f 253c 00e8 db3d
00000180: dad9 133a 9cdc b53d c845 ddbc 701f 0abe
00000190: ba8a c6bd e0e6 37be 482b 4bbd d5bb 9fbd
000001a0: d83a 3fbe fbb3 93bd ff9b 483e d3a2 cbbd
000001b0: 6fe5 503e cd9a 7a3d 5f92 f2bd 6f28 40be
000001c0: 74ec 263d e01c aa3d 62c6 3bbe 4182 e03d
000001d0: 0d19 0e3e 4922 053d 83fc 83ba f877 e43d
000001e0: c964 99bc f9c0 513e 2ef2 7e3d 054c 90bd
000001f0: 34c1 97bd 7f21 07be f731 84bd c2eb 1cbe
00000200: a118 5dbe ebc4 ba3d 8f9a 043e 52be 4c3e
00000210: da7b 5fbe ba50 58be 3711 c43d 7645 fe3d
00000220: be2d ee3d 5f64 37be 03b1 a63c f510 c3bd
00000230: a7cc cb3c 0961 11be 74e4 44bd 5592 23be
00000240: 968c 42be bc4d 673e a886 a2bd ffac 043d
00000250: 24cb 14be bc85 0b3e 9d36 5b3e 96e6 0abe
00000260: d2b7 1d3d 55ce 563b 4916 d3bd 0730 b13d
00000270: 6b50 0dbb ec86 493d 7e90 4dbd 567b fcbd
00000280: dae5 16be 9c71 01be 618f 53bd 4bf5 ffb7
00000290: 1c02 60be 6b8e fe3d 2d33 6d3e a487 923d
000002a0: 047d 093e 2b76 d4bb 52eb 8f3d 9fa0 9ebd
000002b0: 32f9 263e 6b4e b53d e2a3 54be 4b24 6fbd
000002c0: b57e 3039 4d22 7c3d 32a2 30bd f29d 9dbc
000002d0: 5d1f c7bd 65e5 31bd ce11 16be 3fa7 493e
000002e0: 587c 88be 8f92 0f3e 467a 3b3e ce9b eebd
000002f0: 9696 353d 4cd1 1cbe c2a3 1c3d 0677 d83d
00000300: 1021 103e ed48 b3be 80fc 2ebe b831 063e
00000310: 16ef aebd 8454 b9bd 85bd 4b3d e34c 4bbd
00000320: 04df 44be ca7a 7bbd 943d 9bbe da91 80bd
00000330: 16a6 bb3d b080 ee3b b6fc 4d3e e6e9 87bd
00000340: 733a 8bbc 7ae7 a8bc b11b 04be 3246 41be
00000350: 057f b23c 68cd 023e b2e3 85be 9e5a 36bd
00000360: 28f0 59bc 992a 7fbe 1f78 b3bd 7a46 873e
00000370: 7c6e 0dbc 8461 f13d e4ac a2bd 0f42 923d
00000380: f00c 62bc af72 efbc 3cd6 82bd 48b1 04be
00000390: 9624 943e 6d26 d23a e6b9 1b3e 8bcc 30bd
000003a0: 7218 cd3d 082a 123e fcd5 05bc d401 373e
000003b0: c95d 5bbe 2034 2a3d 4d93 71be 391b 3fbe
000003c0: a3f4 22bc e7e9 9a3d dc6e 1f3e a0d5 8fbe
000003d0: a4df 8fbc da03 c23d 2b94 0ebc 4464 f9bd
000003e0: 7d6c a83d 52bd 53bd a7fb 423e 5ce9 753c
000003f0: 9fab 4a3e 265f 1dbe 84de 673e 749c 98be

bias f4 [10]
-0.1464673 -0.2647199 0.18579751 -0.19397183 0.256337 -0.11289716 0.14118633 0.022120671
0.1138901 -0.092911735
00000000: 86fb 15be 5e89 87be b441 3e3e 8da0 46be
00000010: 9a3e 833e a036 e7bd 2693 103e 6936 b53c
00000020: 363f e93d 8248 bebd
