Exercise2/saves/model_hl_10.pt (torch, 416901 bytes, 24 tensors)

weight f4 [30, 3072]
0	0x3e132c80	0.14372444
1	0x3dd2c9bc	0.10292384
2	0x3dad2d2b	0.08455881
3	0x3db31ec5	0.08746103
4	0x3dd4c79a	0.103896335
5	0x3d056336	0.032565318
6	0x3dc9faff	0.09862327
7	0x3e246629	0.16054596
8	0x3da3cfa1	0.079985864
9	0x3d034685	0.032049675
10	0x3db0d1c3	0.08633759
11	0x3dc4ea3b	0.096149884
12	0x3d94eb87	0.07271486
13	0x3d54973e	0.05190205
14	0x3d305cee	0.043057375
15	0x3b57c605	0.0032924425
16	0xbcf4e0cb	-0.029892346
17	0x3d44eea0	0.048079133
18	0xbb586fd3	-0.0033025637
19	0xbcb0d29c	-0.021584801
20	0xbb4f6f09	-0.0031651875
21	0x3ace3480	0.0015732199
22	0xbb421cf9	-0.002961932
23	0x3d737f52	0.059447594
24	0x3d1cbb73	0.038264703
25	0xbc338414	-0.010956783
26	0x3cd4a516	0.025957625
27	0x3d46402a	0.048401035
28	0x3bc80431	0.0061040153
29	0x3cbe8d8e	0.023260858
30	0x3d4ec25a	0.050478317
31	0xbb9122c3	-0.0044291927
32	0x3d823121	0.06357027
33	0x3c04a4c3	0.008095923
34	0x3d2cf481	0.042225365
35	0x3d66bc0f	0.05633169
36	0x3d2c0c6f	0.042004045
37	0x3ca8765f	0.020564256
38	0x3da85771	0.08219803
39	0x3d9d8931	0.07692183
40	0x3cad1c38	0.02113162
41	0xbd26b67b	-0.04070137
42	0xbbea4033	-0.0071487664
43	0x3d129cd2	0.035794087
44	0x3cbcc329	0.023042278
45	0xbcaf6bd3	-0.02141372
46	0xbaf55d11	-0.0018719753
47	0xbd235d5b	-0.039883953
48	0xbdb9cb7a	-0.09072013
49	0xbd6e55ea	-0.058187403
50	0xbd1f1415	-0.03883751
51	0xbc5ad57b	-0.013356562
52	0xbd0ca75d	-0.034339298
53	0xbd694fea	-0.056960978
54	0xbcf6b4a3	-0.030115431
55	0x3ca5f680	0.020259142
56	0xbb6f58be	-0.00365214
57	0xbda173b9	-0.078834005
58	0xbd9cbca1	-0.076531656
59	0xbd0130a1	-0.031540517
60	0xbba8eefd	-0.0051554427
61	0x3b2f2094	0.00267223
62	0x3c1dbd21	0.009627611
63	0x3c7e81fa	0.0155339185
64	0xbd321bd0	-0.043483555
65	0xbdb80602	-0.08985521
66	0xbd80c2da	-0.06287165
67	0xbd23809d	-0.039917577
68	0xbc115474	-0.008870233
69	0x3c03c0e2	0.008041592
70	0x3d34f33c	0.04417728
71	0x3cb1d698	0.021708772
72	0xbd32943c	-0.0435984
73	0x39bcad3c	0.00035987224
74	0x3cb5d3ff	0.022195814
75	0xbc8ffbe2	-0.017576162
76	0xbd72fa82	-0.059320934
77	0xbdd2f4ee	-0.10300623
78	0xbd7e78fa	-0.06212709
79	0xbdb2ff4b	-0.087400995
80	0xbe1dfea9	-0.15429176
81	0xbe011373	-0.12605076
82	0xbcd4d885	-0.02598215
83	0xbce63006	-0.028099071
84	0xbd9f4d79	-0.077784486
85	0xbdb13e04	-0.08654407
86	0xbd054bf1	-0.032543126
87	0x3d2edb24	0.042689458
88	0xbdaf5f56	-0.08563106
89	0xbd7067db	-0.058692794
90	0xbd7ad882	-0.061241634
91	0xbbfd36b5	-0.007727469
92	0xbbb1dd38	-0.0054279827
93	0xbb8c650e	-0.0042845076
94	0x3c89bd64	0.016813941
95	0x3c448a18	0.011995815
96	0xbd0e3a6c	-0.034723684
97	0xbb00a470	-0.0019629262
98	0xbd73c470	-0.05951351
99	0xbc044ac1	-0.008074463
100	0xbd20313c	-0.039109454
101	0xbd39b738	-0.045340747
102	0xbd2c6115	-0.042084772
103	0xbd0ce437	-0.03439733
104	0xbd9e9416	-0.07743089
105	0xbb02ae36	-0.0019940264
106	0x3d6f64d0	0.05844575
107	0x3d5cf6fa	0.053946473
108	0xbc973699	-0.018458651
109	0xbd4efd86	-0.050534748
110	0xbdae88ba	-0.08522172
111	0xbdf10a60	-0.11769557
112	0xbdd4432e	-0.10364376
113	0xbd1b71f4	-0.03795047
114	0x3b9c3ff1	0.0047683646
115	0xbcf0c79b	-0.029392054
116	0xbde27ef7	-0.11059373
117	0xbda8c7c0	-0.08241224
118	0xbd81211e	-0.06305145
119	0x3c2ffb76	0.010741105
120	0xbd240a8e	-0.04004913
121	0x3c5760ca	0.013145635
122	0x3b5f4fe1	0.003407471
123	0x3d10c244	0.035341516
124	0x3b0a9d55	0.0021150906
125	0xbc2ca2aa	-0.010536829
126	0x3c06efb9	0.008235865
127	0xbcf114b3	-0.029428815
128	0xbcdde646	-0.027087342
129	0x3bb7997a	0.0056030126
130	0xbbbdcf2d	-0.0057925195
131	0x3c0dd53d	0.008656797
132	0x3c5d3a70	0.013502702
133	0xbd082756	-0.03324064
134	0xbc18d164	-0.009327266
135	0xbbb4e956	-0.00552098
136	0xbcb9c992	-0.022679124
137	0x3c900867	0.017582132
138	0x3c2bd936	0.010488799
139	0xbceb5fe9	-0.028732257
140	0xbcda9b59	-0.026685404
141	0x3d68f1fc	0.0568714
142	0x3c35a58a	0.011086831
143	0xbd77ec7a	-0.060528256
144	0x3bfc77e3	0.0077047213
145	0x3b91bc31	0.004447483
146	0xbca162f1	-0.0197005
147	0xbd43c26c	-0.047792837
148	0xbcff6e24	-0.031180449
149	0xbb636345	-0.003469662
150	0xbcbef295	-0.023309032
151	0xbd1f8c84	-0.038952366
152	0x3cd74314	0.026277103
153	0x3d8a8e73	0.06765451
154	0x3cfbaec4	0.030722983
155	0x3c1b80ea	0.009491185
156	0x3c7ba858	0.0153599605
157	0xbd150fe1	-0.036392096
158	0xbd2b7a0f	-0.04186445
159	0xbd3da31f	-0.046298143
160	0x3cc46a3a	0.023976434
161	0x3cf88ac4	0.030339606
162	0x3d653c11	0.055965487
163	0x3c886177	0.016648037
164	0xbcc78ce9	-0.024359183
165	0xbc4d86d7	-0.012544355
166	0x3d1b48d5	0.037911255
167	0x3d46717a	0.048448063
168	0xbd0b167d	-0.033956993
169	0xbd33a0d5	-0.043854553
170	0xbdd25b7e	-0.10271357
171	0xbe4e1215	-0.20124085
172	0xbe20c071	-0.1569841
173	0xbce3339c	-0.02773457
174	0xbc6b30c6	-0.01435489
175	0xbda2ad7d	-0.079432465
176	0xbbb09b1b	-0.0053895838
177	0x3c9ea747	0.019366873
178	0x3cf101c9	0.029419797
179	0xbc220653	-0.009889203
180	0x3c960db4	0.018317081
181	0xbcaa8d54	-0.020819344
182	0xbc5d866a	-0.013520816
183	0x3ceaf59a	0.028681565
184	0x3d3450e9	0.044022474
185	0xbc916688	-0.017749086
186	0x3cee03ab	0.029054483
187	0x3d0bebf3	0.034160566
188	0xbd47a657	-0.04874262
189	0xbd792276	-0.06082388
190	0xbd7f56b3	-0.062338542
191	0x3cea3d2b	0.02859362
192	0x3db50872	0.088395014
193	0x3d0a4aca	0.03376273
194	0x3d90ff5b	0.07079955
195	0x3d2a3821	0.041557435
196	0x3c1bf49c	0.009518769
197	0x3d2110a9	0.03932253
198	0x3d54d96c	0.051965162
199	0x3d6b5a73	0.057459306
200	0xbb93ad84	-0.0045067687
201	0xbd8806c2	-0.06641914
202	0xbda1d604	-0.07902148
203	0xbdabae67	-0.08382874
204	0xbd78e953	-0.06076939
205	0xbd295c0a	-0.04134754
206	0xbcc406d8	-0.023929045
207	0xbd650f39	-0.05592272
208	0xbdbd65f3	-0.09247961
209	0xbad2e36c	-0.0016089506
210	0xbbc2455c	-0.0059286784
211	0xbc527f8b	-0.012847791
212	0xbbf5aa1e	-0.007497086
213	0xbd60e28a	-0.054903544
214	0xbd035854	-0.03206666
215	0x3b951a8f	0.004550285
216	0x3d4dd4ba	0.0502517
217	0xbc7fccaf	-0.015612765
218	0x3d4fbaea	0.050715365
219	0x3d0ec6e6	0.034857653
220	0xbda91d08	-0.082574904
221	0xbd73d10e	-0.059525542
222	0xbd62c74f	-0.055365857
223	0xbba106f3	-0.0049141585
224	0x3d6a012f	0.057130035
225	0x3c671162	0.0141032655
226	0x3da65ffc	0.08123776
227	0x3daddc71	0.084893115
228	0x3c11e409	0.0089044655
229	0x3c4a09a1	0.012331397
230	0x3b008cbf	0.0019615141
231	0x3d1563ab	0.036472004
232	0x3cb56890	0.022144586
233	0x3bcc033f	0.006225973
234	0x3d1549d6	0.03644737
235	0xbd878c26	-0.06618528
236	0xbd81d272	-0.063389674
237	0xbc02c429	-0.007981339
238	0xbd1a3f60	-0.037658095
239	0xbd1de374	-0.038546994
240	0xbd33e74e	-0.04392176
241	0xbb8f1f0c	-0.0043677147
242	0xbd34c7cc	-0.044135854
243	0xbd7a6759	-0.061133716
244	0xbd0bf02a	-0.034164585
245	0xbdc3004d	-0.09521542
246	0xbdad4321	-0.084600694
247	0xbd5d3cdd	-0.054013122
248	0x3c20d4b4	0.009816337
249	0xbc0b2b2c	-0.00849418
250	0x3d22daf1	0.03975958
251	0x3d5dfac0	0.054194212
252	0xbd063d4f	-0.032773312
253	0xbd86bd7f	-0.06579112
254	0xbbf0f87b	-0.00735384
255	0xbd09ae69	-0.033613596

bias f4 [30]
0	0x3dce2f63	0.10067632
1	0x3d734b07	0.059397724
2	0x3def5533	0.11686172
3	0x3d8196ad	0.06327567
4	0xbe6077be	-0.21920678
5	0x3e01a465	0.12660368
6	0x3df67eb7	0.12035888
7	0x3d10a3cb	0.035312455
8	0xbddc682d	-0.107620575
9	0x3e8ed262	0.27894884
10	0x3df95edf	0.12176298
11	0x3e2cee8b	0.16887872
12	0xbbe737e7	-0.0070562246
13	0xbe61e518	-0.22060049
14	0xbd687d25	-0.056759972
15	0xbdbe372b	-0.09287866
16	0xbdc3fb5e	-0.09569429
17	0xbe1821cc	-0.14856642
18	0x3e05005c	0.12988418
19	0xbe3dd025	-0.18536432
20	0x3d14a886	0.03629353
21	0x3dc6429a	0.09680672
22	0x3e414ed5	0.18877728
23	0xbe167d19	-0.14696158
24	0x3e704a4f	0.23465846
25	0x3c04aff0	0.008098587
26	0xbe928a44	-0.28621113
27	0xbe28c0b0	-0.16479754
28	0x3e16f744	0.14742762
29	0x3e91b545	0.2845861

weight f4 [30, 30]
0	0x3c746a41	0.014917911
1	0xbd557c03	-0.05212022
2	0x3e010ef7	0.12603365
3	0xbe5544e6	-0.20827064
4	0xbd761b79	-0.060084794
5	0x3e5b9d6c	0.2144677
6	0xbe46e6dd	-0.19424005
7	0x3cc1407d	0.02359032
8	0x3e1438db	0.14474814
9	0xbe9b234c	-0.30300367
10	0xbd75b787	-0.05998948
11	0xbe1acd07	-0.15117274
12	0x3d77b9ac	0.060479805
13	0x3d0eee12	0.03489501
14	0xbdd947b7	-0.10609382
15	0xbde50e44	-0.111843616
16	0xbceb52fe	-0.028726097
17	0xbe046a61	-0.12931205
18	0xbc7e9999	-0.01553955
19	0x3e7f4ed9	0.24932422
20	0x3e527a74	0.20554525
21	0xbe1df22a	-0.1542441
22	0x3b5b8275	0.0033494506
23	0x3c9fbfee	0.019500699
24	0xbf0ebc10	-0.5575571
25	0xbd6aa7b3	-0.057288837
26	0xbd3d4905	-0.046212215
27	0xbbf841c4	-0.0075761992
28	0xbe068328	-0.1313597
29	0xbe31b6a6	-0.17354831
30	0x3e52aeff	0.20574568
31	0xbd37b0b4	-0.04484625
32	0xbe04499d	-0.12918706
33	0x3d43fedc	0.047850475
34	0x3dc270aa	0.09494145
35	0x3e237b88	0.15965092
36	0xbe6cfd60	-0.2314353
37	0xbb7d2f4d	-0.003863293
38	0x3de962f4	0.11395827
39	0xbd93255b	-0.07184859
40	0xbe04a11a	-0.1295208
41	0xbde371e9	-0.11105711
42	0x3b187187	0.0023261027
43	0x3d78be97	0.060728636
44	0x3e408788	0.18801701
45	0xbe104788	-0.14089787
46	0x3e63d2ea	0.22248426
47	0x3e11a1a1	0.14221813
48	0x3e1bc721	0.1521268
49	0x3e17b05d	0.14813371
50	0x3dd789b3	0.10524311
51	0x3cdc92b8	0.02692543
52	0x3e01a1c6	0.12659368
53	0xbc00480f	-0.00782968
54	0xbe39f3d9	-0.18159427
55	0xbe554a4e	-0.20829126
56	0x3deabed5	0.114621796
57	0x3e17f810	0.14840722
58	0xbdb88075	-0.09008876
59	0xba07abab	-0.0005175422
60	0xbd917dc1	-0.07104064
61	0xbe72b648	-0.23702347
62	0x3d95632f	0.072943084
63	0x3deea6a5	0.11652879
64	0xbde0d3b8	-0.10977882
65	0xbdeea1ea	-0.116519764
66	0x3df73caa	0.120721176
67	0x3e300c17	0.17192112
68	0xbc937313	-0.017999208
69	0xbd990be8	-0.07472974
70	0xbdff5343	-0.12467053
71	0x3e6fe3a2	0.23426679
72	0xbdcb2dfd	-0.09920881
73	0x3e0ec0a6	0.13940677
74	0xbd5e1a44	-0.054224268
75	0xbdc09e0c	-0.09405145
76	0x3e063411	0.131058
77	0xbde30747	-0.110853724
78	0x3d4db01f	0.05021679
79	0xbdbde837	-0.09272807
80	0xbca95ac0	-0.020673156
81	0x3de3f8cb	0.11131438
82	0x3df99365	0.121863164
83	0x3b14999e	0.002267457
84	0x3d15b649	0.036550794
85	0x3e2238f6	0.15842041
86	0x3e29d41a	0.16584817
87	0xbdf47dcf	-0.119380586
88	0x3d483717	0.048880663
89	0xbe8586c9	-0.26079395
90	0x3eb0bf7c	0.3452109
91	0x3e34dcc7	0.17662345
92	0x3dce6528	0.10077888
93	0x3e8eb76d	0.27874318
94	0x3d4d4243	0.05011202
95	0xbdf1d5ce	-0.11808358
96	0xbe2c87ff	-0.16848753
97	0xbca847e5	-0.020542094
98	0xbcc42e9d	-0.023948008
99	0xbd6c696e	-0.057717733
100	0x3d2397a1	0.039939526
101	0x3d968ec3	0.073514484
102	0x3e0fc4ad	0.1403987
103	0x3d91633c	0.070990056
104	0xbc7430e5	-0.0149042355
105	0x3e20335d	0.15644594
106	0xbd9953aa	-0.07486661
107	0x3dbd48a9	0.092423744
108	0xbcb656d1	-0.022258194
109	0x3e284a25	0.16434534
110	0x3d7e54db	0.062092643
111	0x3e20f7cf	0.15719531
112	0x3e63df14	0.22253066
113	0x3c683eba	0.014175111
114	0xbe484043	-0.19555764
115	0xbcf722ea	-0.030168016
116	0x3dad330b	0.08457001
117	0xbe3cb273	-0.18427448
118	0xbda71c2a	-0.08159669
119	0x3da34744	0.07972577
120	0xbe0b3129	-0.13592972
121	0x3e791f8d	0.24328442
122	0x3e09ae45	0.13445385
123	0xbda45f3f	-0.08025979
124	0x3dce660d	0.100780584
125	0xbdfa7e8f	-0.122311704
126	0x3d5a3d97	0.053281393
127	0xbe5995e3	-0.21248583
128	0xbdf6638c	-0.12030706
129	0xbdd3b97d	-0.103381135
130	0x3dcafbe4	0.099113256
131	0x3e4b7263	0.19867854
132	0xbe2e193e	-0.17001817
133	0xbb48308e	-0.003054652
134	0xbd4749f8	-0.048654526
135	0xbd5dd4f3	-0.054158162
136	0x3e4827bb	0.19546406
137	0xbd874720	-0.06605363
138	0x3d0279fa	0.031854607
139	0x3e1a04dd	0.15040918
140	0x3e26341c	0.16230816
141	0x3d9f0155	0.07763926
142	0x3e04dc11	0.12974574
143	0x3cae1eec	0.02125498
144	0x3d366ace	0.04453545
145	0xbc81fcb3	-0.015867567
146	0xbdc2ba34	-0.09508172
147	0xbdedee0e	-0.11617671
148	0x3dc50e2a	0.09621842
149	0xbd3eddca	-0.046598233
150	0xbd09c998	-0.03363952
151	0xbd0d6874	-0.034523442
152	0xbdf4bd90	-0.11950219
153	0x3cca8b81	0.024724724
154	0xbe33bce2	-0.17552522
155	0xbd15637f	-0.03647184
156	0xbdf04829	-0.117325135
157	0xbc0d628f	-0.008629455
158	0xbd1fa116	-0.038971983
159	0xbdc8b73d	-0.09800575
160	0xbd9cf14e	-0.07663213
161	0x3e59b0d7	0.21258865
162	0x3dd069a6	0.10176401
163	0xbe523d84	-0.20531279
164	0x3d1d3c98	0.038387865
165	0x3dc1f307	0.09470182
166	0x3dd201b4	0.10254231
167	0xbe2c189c	-0.16806263
168	0x3e82d9d7	0.25556824
169	0x3e5c5c3d	0.21519561
170	0xbc2d4313	-0.010575074
171	0xbe5e82e6	-0.21729621
172	0x3d9e476d	0.07728467
173	0x3d4c890c	0.049935386
174	0xbe671121	-0.22565128
175	0x3d83dff6	0.064392015
176	0xbe367d6b	-0.1782128
177	0xbe4209c5	-0.1894904
178	0x3d5db98e	0.054132037
179	0x3e169652	0.1470578
180	0x3e40bc67	0.1882187
181	0x3e9dfa46	0.30855006
182	0xbd3513ae	-0.04420822
183	0x3e0cbed8	0.13744676
184	0xbcae0c17	-0.021246
185	0x3d8572da	0.06516047
186	0xbeac9bf6	-0.3371274
187	0x3d1704c1	0.036869768
188	0x3e51e3aa	0.20497003
189	0xbda03d2e	-0.07824169
190	0xbd87a5b1	-0.066234
191	0xbe0b232d	-0.13587637
192	0xbe6cd7e4	-0.2312923
193	0xbe543a3c	-0.2072534
194	0x3d90de3f	0.0707364
195	0xbe695d1e	-0.22789428
196	0xbcbe2f55	-0.023215929
197	0x3e221336	0.15827641
198	0x3ce1ce5f	0.027564226
199	0x3e51de23	0.20494895
200	0x3e337f90	0.1752913
201	0xbdadef3c	-0.08492896
202	0x3cbcef84	0.023063429
203	0xbdf46de5	-0.11935023
204	0xbd146fff	-0.03623962
205	0xbe163fe3	-0.14672808
206	0x3e31539d	0.17317052
207	0xbe1edcfe	-0.1551399
208	0xbe04089e	-0.12893912
209	0xbe36ac92	-0.17839268
210	0x3e9248fb	0.28571305
211	0x3c4d25f4	0.012521256
212	0xbdd1353a	-0.1021523
213	0x3e1c5b1e	0.15269133
214	0xbe7f8c2d	-0.24955817
215	0xbbc769f3	-0.006085628
216	0x3dcdc37c	0.10047051
217	0xbe46c9ff	-0.19412993
218	0x3d23d0a1	0.039993886
219	0x3e11fbdd	0.14256234
220	0x3ced640a	0.028978366
221	0x3e12566c	0.1429078
222	0xbe74ed89	-0.23918737
223	0xbd4bf93a	-0.049798228
224	0x3dc13451	0.09433807
225	0xbe550703	-0.20803456
226	0x3d95ab10	0.07308018
227	0x3dd4f77b	0.10398766
228	0xbe078500	-0.13234329
229	0x3da04bd1	0.07826961
230	0x3c07d267	0.00828991
231	0xbd84dd4c	-0.064875215
232	0xbe240029	-0.16015686
233	0xbe84bdd6	-0.25926083
234	0xbe2d60ba	-0.1693143
235	0x3e269c96	0.1627067
236	0xbda063e3	-0.07831552
237	0xbe025ac4	-0.12729937
238	0xbdbbfbeb	-0.09178909
239	0x3e024f48	0.12725556
240	0x3cf07be5	0.029355953
241	0x3e780d45	0.24223812
242	0x3b60f4c8	0.0034325588
243	0x3e13bbd6	0.14427122
244	0x3e01bf89	0.12670721
245	0xbd318fe5	-0.04335012
246	0xbe664444	-0.22486979
247	0xbd8bcca0	-0.068261385
248	0x3de9a6e0	0.11408782
249	0xbe5012ab	-0.20319621
250	0x3cabccaa	0.020971615
251	0xbe8d9212	-0.27650505
252	0xbe01443f	-0.1262369
253	0xbe18ecec	-0.14934129
254	0x3c567226	0.013088739
255	0x3d7ac97b	0.061227303

bias f4 [30]
0	0x3e8c3a49	0.27388218
1	0xbe0c9d15	-0.13731797
2	0x3e20c601	0.15700532
3	0x3e473771	0.19454743
4	0x3db1b2ad	0.08676658
5	0x3e9d5623	0.3072978
6	0x3e0e691a	0.1390728
7	0x3e657414	0.22407562
8	0x3d585be2	0.052822
9	0x3e9569b0	0.29182196
10	0x3d0da38c	0.0345798
11	0x3e02e27e	0.12781712
12	0x3de6bb63	0.1126621
13	0xbe7c3d94	-0.24632865
14	0x3e031485	0.12800796
15	0xbdba603a	-0.09100385
16	0xbea66837	-0.32501385
17	0x3d8579b8	0.06517357
18	0x3ee4bfb5	0.4467751
19	0xbd9fb98a	-0.07799061
20	0x3e0f18ef	0.13974355
21	0xbd9f7980	-0.07786846
22	0x3e3240c3	0.17407517
23	0x3dedd8ea	0.11613639
24	0x3d3269ea	0.04355804
25	0x3d6b0c57	0.057384815
26	0x3dd180de	0.102296576
27	0xbe410ebf	-0.18853281
28	0x3c10819c	0.008819964
29	0xbe4d11d8	-0.20026338

weight f4 [30, 30]
0	0xbb9e388c	-0.0048285183
1	0xbd909697	-0.07059973
2	0x3e1208dc	0.14261192
3	0x3e22df54	0.15905505
4	0x3e1fb586	0.1559659
5	0xbcdfb5b5	-0.027308324
6	0x3d86f41d	0.0658953
7	0x3c952e3e	0.018210527
8	0x3ea55425	0.3229076
9	0x3e22e53c	0.15907758
10	0x3cdc8720	0.026919901
11	0xbea21837	-0.316591
12	0xbdb34d1e	-0.08754943
13	0xbe3ee121	-0.18640567
14	0xbdf13490	-0.117776036
15	0xbdd439e0	-0.10362601
16	0xbe355ac3	-0.17710404
17	0x3d9141f3	0.07092657
18	0xbdccb06f	-0.099945895
19	0xbdba873a	-0.09107824
20	0x3d406278	0.046968907
21	0x3da2e28f	0.07953369
22	0x3d8a12bd	0.06741855
23	0x3d7a618e	0.06112819
24	0x3dc71895	0.097214855
25	0xbde5b1b5	-0.112155356
26	0x3e0f64e3	0.14003329
27	0xbe863b18	-0.2621696
28	0xbdac746f	-0.084206454
29	0x3e0c259c	0.13686222
30	0x3e0c6f58	0.1371435
31	0xbab95a40	-0.0014141276
32	0x3c2c9961	0.010534615
33	0x3da9f9f6	0.082996294
34	0xbd8c56cb	-0.06852492
35	0xbe8d36b1	-0.2758079
36	0x3e1f7d05	0.15575035
37	0x3e4aa7b6	0.19790539
38	0xbea398ec	-0.31952608
39	0xbc837d58	-0.01605098
40	0x3d90eb54	0.07076135
41	0xbe0b72c4	-0.13617998
42	0x3e0e7df5	0.13915236
43	0x3d28b3fb	0.041187268
44	0x3d32f1ae	0.043687515
45	0xbe1ab0ac	-0.15106457
46	0xbcdd877d	-0.027042145
47	0x3e2d9441	0.16951086
48	0x3ce70581	0.028200867
49	0x3dd07cc1	0.10180045
50	0xbe5198b8	-0.20468414
51	0x3e08b779	0.1335124
52	0x3e046601	0.12929536
53	0x3c8409cd	0.016117955
54	0x3c84eab9	0.016225206
55	0x3dc710ad	0.097199775
56	0x3e25294d	0.16129036
57	0x3b03f665	0.0020135876
58	0x3db11de6	0.08648281
59	0x3ca5cd28	0.020239428
60	0x3e747b68	0.23875201
61	0xbdbb2e8c	-0.091397375
62	0x3d6ed857	0.058311787
63	0xbdfe3ab7	-0.12413543
64	0x3d1763c8	0.036960393
65	0x3e16488f	0.14676116
66	0x3e7f3cf6	0.24925599
67	0x3e19aeeb	0.15008132
68	0x3e5068c2	0.20352462
69	0x3e20aa26	0.15689906
70	0x39982f3a	0.00029026886
71	0xbe6efd5d	-0.23338838
72	0xbba31249	-0.004976545
73	0xbcba0bd3	-0.022710716
74	0x3df60f83	0.120146774
75	0x3ec9dd5b	0.39426693
76	0xbb80fbdd	-0.0039362744
77	0xbdc8c6cd	-0.09803543
78	0xbdd35d41	-0.10320521
79	0x3db3a3df	0.0877149
80	0xbe9aecc7	-0.30258772
81	0x3e1ebf6a	0.15502706
82	0x3e0a81f5	0.13526137
83	0xbe2f7f25	-0.17138346
84	0xbdca57a5	-0.09879998
85	0x3d3b637b	0.04574917
86	0x3e687dd9	0.22704257
87	0x3b179559	0.002312979
88	0xbda42b20	-0.08016038
89	0x3e1f16ea	0.15536085
90	0xbe1051ef	-0.14093755
91	0xbe018218	-0.12647283
92	0x3e0610c2	0.1309233
93	0xbcec76dd	-0.028865272
94	0xbdfd83f3	-0.12378683
95	0xbdd9795e	-0.10618852
96	0x3dca5d83	0.09881117
97	0x3e35e8f6	0.17764649
98	0x3e6ebf35	0.23315127
99	0x3e3f396c	0.18674248
100	0x3e209394	0.15681297
101	0xbdbed3a1	-0.09317709
102	0x3e027c98	0.12742841
103	0x3e039bc4	0.12852389
104	0xbdd5f705	-0.10447506
105	0xbe613adb	-0.21995108
106	0x3e2b3a51	0.16721465
107	0x3cab674a	0.020923276
108	0x3b14f203	0.0022727258
109	0x3e00cf31	0.12579037
110	0xbd90901f	-0.07058739
111	0xbd3cbc00	-0.04607773
112	0x3d003fd9	0.03131089
113	0xbe15768f	-0.14596008
114	0x3def4fbe	0.116851315
115	0xbe2d9ff6	-0.16955552
116	0x3d2fc111	0.04290873
117	0x3d92de68	0.07171327
118	0x3e051cf4	0.12999326
119	0x3e494669	0.19655766
120	0x3d4ad8cd	0.049523164
121	0xbdeb991e	-0.11503814
122	0xbe24a6f7	-0.16079317
123	0x3d8a31a2	0.06747748
124	0xbce6c0f6	-0.028168183
125	0x3e221842	0.15829566
126	0x3dc94cb9	0.09829087
127	0x3e1752c2	0.14777663
128	0x3da302a8	0.07959491
129	0x3d157485	0.036488075
130	0x3d1412c0	0.036150694
131	0xbeb69f61	-0.3566847
132	0xbe54a5e3	-0.20766406
133	0xbe95b3d3	-0.29238757
134	0x3d497d4f	0.04919177
135	0x3ddd6d95	0.10811917
136	0xbe8c763f	-0.27433965
137	0x3e624fbf	0.22100733
138	0xbd3b5a71	-0.04574055
139	0x3df49138	0.11941761
140	0x3e38cc31	0.18046643
141	0xbe1c9fbd	-0.1529531
142	0x3d6a5ee2	0.057219394
143	0xbdf74a88	-0.120747626
144	0xbe5a4e97	-0.21319042
145	0xbea6b653	-0.32560977
146	0xbc059d78	-0.008155219
147	0x3dca4174	0.098757654
148	0xbe822eb2	-0.2542625
149	0x3d4ece07	0.05048945
150	0xbe8359df	-0.25654504
151	0xbcb0ff91	-0.021606239
152	0x3c955372	0.018228266
153	0xbc98fc79	-0.018675076
154	0xbd8a835d	-0.06763337
155	0x3e80e6bf	0.25176045
156	0xbe09ac7c	-0.13444704
157	0xbdde3c93	-0.10851397
158	0x3d148e3b	0.036268454
159	0xbdeab884	-0.11460975
160	0x3e01ea3a	0.12687007
161	0xbe68a1eb	-0.22718017
162	0xbf0579dd	-0.52139074
163	0x3d1cf597	0.03832015
164	0xbda4046f	-0.08008658
165	0xbd1b526c	-0.0379204
166	0xbe0d7d4c	-0.13817328
167	0x3e108e5e	0.14116809
168	0xbd80d2f7	-0.06290238
169	0xbe0ffa44	-0.14060313
170	0x3dbfa126	0.093569085
171	0xbbf0c934	-0.007348204
172	0xbe2f3cb4	-0.17113
173	0xbe657e61	-0.22411491
174	0x3c47744c	0.012173723
175	0xbe5186ad	-0.20461531
176	0xbc418324	-0.0118110515
177	0xbdf8fdf7	-0.12157815
178	0xbd91443e	-0.07093094
179	0x3e18e7c0	0.14932156
180	0xba4bf35b	-0.0007780098
181	0x3d4ea650	0.050451577
182	0xbcd1f428	-0.025629118
183	0x3e4041b8	0.1877507
184	0x3d3927bf	0.04520392
185	0xbd8fd445	-0.07022909
186	0xbd274307	-0.040835407
187	0xbc7f4951	-0.015581445
188	0x3e05d0f7	0.13067995
189	0x3de5146e	0.11185537
190	0xbddeebf4	-0.10884848
191	0xbe91ea54	-0.2849909
192	0xbd84d685	-0.06486229
193	0xbdd1c919	-0.102434345
194	0x3e45ceb9	0.1931714
195	0x3e4a50d4	0.19757396
196	0xbd8324ba	-0.064034894
197	0xbe4c870e	-0.19973394
198	0x3e2af536	0.16695103
199	0xbe04116e	-0.12897274
200	0xbe231327	-0.15925275
201	0x3e4ad93c	0.19809431
202	0xbe2dad1b	-0.16960566
203	0xbd2184d9	-0.039433334
204	0xbe14d8cc	-0.14535826
205	0x3e10293e	0.14078233
206	0x3e02cf06	0.12774286
207	0xbd3ca1a5	-0.046052594
208	0x3dc0e614	0.09418884
209	0xbd207e7a	-0.039183117
210	0xbec761c3	-0.38941774
211	0xbe322310	-0.17396188
212	0xbd4410ad	-0.047867466
213	0x3d803b9a	0.06261368
214	0xbe4fcc1f	-0.2029271
215	0x3e5fabce	0.21842882
216	0xbc8d8067	-0.017273141
217	0x3e5fef27	0.21868573
218	0x3d40d1c8	0.047075063
219	0xbc2e82de	-0.010651318
220	0xbd4d4f60	-0.050124526
221	0x3cc30602	0.023806576
222	0x3e873a77	0.26411793
223	0xbd630ff2	-0.05543513
224	0x3da48d0a	0.080347136
225	0x3ea53bdf	0.3227224
226	0xbdb80a19	-0.08986301
227	0x3e167734	0.1469391
228	0x3c8cdc94	0.017195024
229	0xbe4df7b6	-0.20114025
230	0x3e413072	0.18866137
231	0x3e2c31f3	0.16815929
232	0xbd8a9fec	-0.06768784
233	0xbda2c472	-0.07947625
234	0xbd5e5e65	-0.05428924
235	0x3cb7da3e	0.022442933
236	0xbcd207de	-0.025638517
237	0xbdefacf3	-0.11702909
238	0xbe03a528	-0.12855971
239	0x3dd80782	0.10548307
240	0x3e3c451c	0.18385738
241	0x3d9cb08a	0.0765086
242	0xbd74bc6e	-0.059750013
243	0xbe03c55d	-0.12868257
244	0xbe22517e	-0.158514
245	0xbe4b7466	-0.19868621
246	0x3e79b571	0.2438562
247	0x3dc6379a	0.09678574
248	0x3e4d7c81	0.20067026
249	0xbe80965b	-0.25114712
250	0x3dd0aa34	0.10188714
251	0xbe38d8cf	-0.18051456
252	0x3ed5a008	0.41723657
253	0x3cba0c48	0.022710934
254	0xbde8e7c0	-0.11372328
255	0x3e77b56a	0.24190298

bias f4 [30]
0	0xbd09ddf0	-0.03365892
1	0xbbfe3af0	-0.0077584907
2	0x3dd3ecc9	0.103478976
3	0x3dbac5c0	0.09119749
4	0xbd60ebf2	-0.054912515
5	0x3e447876	0.19186577
6	0x3e496155	0.19666035
7	0x3c26df1b	0.010185028
8	0xbcd4c298	-0.025971696
9	0x3dc9d623	0.098552965
10	0xbe30c14f	-0.17261241
11	0x3dc63ed2	0.09679951
12	0x3d069756	0.03285917
13	0xbdca69b0	-0.098834395
14	0x3caa82ec	0.020814382
15	0x3a153b46	0.00056927314
16	0xbceabb39	-0.028653728
17	0xbdeb3f04	-0.11486629
18	0xbe87051e	-0.26371092
19	0x3df4d5c7	0.11954837
20	0xbd508606	-0.050909065
21	0x3dfa34cb	0.12217101
22	0x3dab2dd1	0.08358348
23	0x3c8d9fa3	0.017288035
24	0xbdd72a1f	-0.10506081
25	0x3d31abaa	0.043376602
26	0x3e84957c	0.25895298
27	0xbd12d5d1	-0.035848442
28	0x3e1d448b	0.15358178
29	0xbdd34230	-0.10315359

weight f4 [30, 30]
0	0xbe5e4ca2	-0.2170892
1	0x3e106a54	0.14103061
2	0x3e1b2986	0.15152559
3	0xbe2cba4b	-0.1686794
4	0x3d16e482	0.036839016
5	0x3d666d8b	0.056256812
6	0x3e35ecb0	0.1776607
7	0x3e224cf5	0.1584967
8	0xbc8ded36	-0.017325025
9	0xbd89b50e	-0.067239866
10	0xbea13fa1	-0.31493858
11	0x3ce23ed2	0.027617846
12	0x3d13187c	0.035912022
13	0xbdfe5f0b	-0.12420472
14	0x3e28d09f	0.16485833
15	0x3e42664e	0.18984339
16	0x3d04c209	0.03241161
17	0x3e375a53	0.1790555
18	0xbd5dd701	-0.05416012
19	0xbddec33f	-0.10877084
20	0xbe90460b	-0.2817844
21	0xbdd0b263	-0.101902746
22	0x3e870e24	0.26377976
23	0x3e572ad0	0.21012425
24	0x3d00f037	0.031479087
25	0x3e126bcd	0.14298935
26	0x3d40607d	0.04696702
27	0xbccaf8b1	-0.024776788
28	0xbbf775da	-0.007551891
29	0x3d891877	0.066941194
30	0x3d425593	0.04744489
31	0x3d92b13f	0.07162713
32	0x3d92e8bc	0.07173297
33	0xbe20032f	-0.15626214
34	0xbe2152a1	-0.15754177
35	0x3db2731a	0.0871336
36	0x3e541e4f	0.20714687
37	0x3e4fb70e	0.20284674
38	0x3dd8746b	0.1056908
39	0x3cfc3e63	0.030791467
40	0x3dcb17d0	0.09916651
41	0xbd246330	-0.040133655
42	0xbe3c7670	-0.18404555
43	0x3e42001d	0.18945356
44	0x3d64a4a9	0.055821095
45	0xbe01cb1e	-0.1267514
46	0x3e06e7e0	0.13174391
47	0xbdbb46b0	-0.09144342
48	0xbe005c1e	-0.1253514
49	0xbd984b52	-0.07436241
50	0xbcc88a01	-0.024479868
51	0xbbfdaab3	-0.007741296
52	0x3e026e53	0.12737398
53	0xbc9a62ec	-0.018845998
54	0xbcb74eb5	-0.022376398
55	0xbdd10978	-0.10206884
56	0x3da86132	0.082216635
57	0x3c3b34f1	0.011426196
58	0x3cb54d35	0.022131542
59	0xbd0bcb8b	-0.03412966
60	0x3ba57dc6	0.0050503938
61	0xbe229718	-0.1587795
62	0x3dc2f181	0.095187195
63	0xbe42192d	-0.18954916
64	0xbe8ce4b8	-0.2751825
65	0x3d93cc2b	0.07216676
66	0xbb4f0be0	-0.0031592771
67	0x3de5e892	0.11226
68	0xbd87b868	-0.066269696
69	0xbe413491	-0.18867709
70	0x3dfbe7e2	0.123000875
71	0xbe2fa343	-0.17152123
72	0xbe0e808c	-0.13916224
73	0x3e1c1c12	0.15245083
74	0x3d3d12a4	0.046160355
75	0x3def66a1	0.11689497
76	0x3e69d4e8	0.22835124
77	0x3bc2a094	0.0059395526
78	0xbc82edf3	-0.015982604
79	0x3c4c76d9	0.012479507
80	0x3e25d897	0.16195904
81	0xbd5f81f1	-0.05456728
82	0x3dd7950a	0.10526474
83	0xbd8422d3	-0.06451955
84	0x3e47d206	0.19513711
85	0x3e246bde	0.16056773
86	0xbd73dd4a	-0.05953721
87	0x3c25972d	0.010106844
88	0x3db6330d	0.08896456
89	0x3dabcfd6	0.08389251
90	0xbdfeb58c	-0.12436971
91	0x3d081e75	0.03323217
92	0x3d1b1bc7	0.037868287
93	0x3e7c7d7a	0.2465724
94	0xbe70d6a5	-0.2351938
95	0xbd8150ab	-0.06314214
96	0x3d8c6940	0.06856012
97	0xbd864c09	-0.06557471
98	0x3d09fef7	0.03369042
99	0xbe098042	-0.13427833
100	0x3dab1143	0.08352902
101	0x3e16f481	0.14741708
102	0x3e5f903f	0.2183237
103	0x3c5198eb	0.012792806
104	0x3e0e4989	0.13895239
105	0x3e0337f0	0.12814307
106	0xbe0786a8	-0.13234961
107	0xbe07cb1c	-0.13261074
108	0x3dedf749	0.116194315
109	0x3e042493	0.12904577
110	0x3e5adb9d	0.21372838
111	0xbd34f5b3	-0.04417963
112	0xbd70ca13	-0.058786463
113	0xbd3ba7d0	-0.045814335
114	0xbe8be61a	-0.2732399
115	0xbd28e4a8	-0.04123369
116	0xbdd1aad0	-0.10237658
117	0xbd86926b	-0.06570896
118	0x3e92b095	0.28650346
119	0xbdd0e831	-0.10200537
120	0x3c956a6b	0.01823922
121	0x3c23728b	0.00997604
122	0x3e4e21f8	0.20130146
123	0x3e2b0776	0.16702065
124	0xbd24a5fe	-0.040197365
125	0xbdeb37c7	-0.11485248
126	0xbd898531	-0.06714857
127	0xbcc4f4f8	-0.024042591
128	0xbd615a89	-0.05501798
129	0x3e35c4ed	0.17750902
130	0xbca8b652	-0.02059475
131	0x3cd217ec	0.025646172
132	0x3ea7a6ed	0.32744542
133	0xbcb7bca5	-0.02242882
134	0xbd49ca2c	-0.04926507
135	0x3e054ad1	0.13016821
136	0xbe246031	-0.16052319
137	0x3e00f624	0.12593895
138	0x3e590cf1	0.21196343
139	0x3e5152e3	0.20441775
140	0xbd2dfec8	-0.042479306
141	0xbc12a2e1	-0.008949966
142	0x3e12f207	0.14350139
143	0x3e77b1b9	0.2418889
144	0xbc1bceaf	-0.009509726
145	0x3e647bce	0.22312853
146	0x3d66b4c3	0.05632473
147	0x3bc24303	0.0059283986
148	0x3bc020ae	0.0058632707
149	0xbd5e11ba	-0.054216124
150	0xb92d1b4b	-0.00016508733
151	0x3de8af50	0.11361563
152	0x3e2619de	0.16220805
153	0xbd91472e	-0.070936546
154	0x3ea318f4	0.31854975
155	0x3eb23280	0.34804153
156	0xbd3b3347	-0.0457032
157	0x3e8f81b3	0.2802864
158	0xbe610c05	-0.21977241
159	0xbd9a17de	-0.075240836
160	0xbe835ba4	-0.25655854
161	0xbcd34a32	-0.025792215
162	0xbe300361	-0.17188789
163	0xbebdfab4	-0.37105334
164	0xb9fa9d39	-0.00047800856
165	0x3c34a128	0.011024751
166	0x3c7a720a	0.015285978
167	0xbe325cac	-0.17418164
168	0xbde52c25	-0.111900605
169	0xbd41d73d	-0.047324408
170	0xbeba31de	-0.3636617
171	0x3e83a544	0.25712025
172	0x3dfa4a9d	0.122212626
173	0xbe09e015	-0.13464387
174	0x3e80ca62	0.25154406
175	0x3df94d75	0.12172977
176	0x3e29b483	0.16572766
177	0xbcd2ca39	-0.025731193
178	0x3c94b933	0.018154716
179	0x3d89942a	0.06717713
180	0x3b9a2d6a	0.004705121
181	0x3e247f96	0.16064295
182	0xbe15d5f3	-0.14632396
183	0xbe14916d	-0.145086
184	0xbd3f2995	-0.046670515
185	0x3be192aa	0.006883939
186	0x3e4834f1	0.19551446
187	0xbe477629	-0.19478668
188	0x39f7f1d6	0.00047291693
189	0x3dde95ba	0.10868402
190	0xbe96c423	-0.29446515
191	0x3e193c3e	0.14964387
192	0xbe5083be	-0.20362756
193	0xbd04d9f2	-0.03243441
194	0x3e34470d	0.17605229
195	0xbdd2fd63	-0.10302236
196	0x3e3aea30	0.18253398
197	0x3e580295	0.21094735
198	0x3dafe30b	0.08588227
199	0xbbb72b82	-0.0055899033
200	0xbd5e009d	-0.054199804
201	0x3e033317	0.12812458
202	0xba54edd3	-0.0008122597
203	0x3e3d4b01	0.18485643
204	0x3e8f1bb1	0.27950814
205	0x3da5ccf2	0.08095731
206	0x3e83c24f	0.25734183
207	0x3e05477e	0.13015553
208	0x3dd2ed37	0.102991514
209	0x3e298b3c	0.1655702
210	0x3dd9f753	0.106428765
211	0xbe2825a9	-0.16420616
212	0xbe86c2ee	-0.26320595
213	0x3d820a28	0.063495934
214	0x3becea91	0.007230111
215	0xbe40f41e	-0.18843123
216	0x3c9221f1	0.01783845
217	0xbd4a52c1	-0.049395327
218	0xbda0473a	-0.078260854
219	0x3cece5b7	0.02891813
220	0xbec166d8	-0.37773776
221	0xbe19ddd2	-0.15026024
222	0xbd761d7e	-0.06008672
223	0x3e19b8e6	0.1501194
224	0x3d8e6715	0.06953255
225	0xbdc82600	-0.09772873
226	0x3db378c4	0.087632686
227	0x3d3325b0	0.043737113
228	0x3da6eaad	0.081502296
229	0x3ca25964	0.019818015
230	0x3dcd29d3	0.10017743
231	0x3e758326	0.2397581
232	0x3d53edd3	0.05174048
233	0x3de09837	0.10966533
234	0x3e3b914b	0.18317144
235	0xbde5e96a	-0.11226161
236	0xbdfceb1a	-0.123495296
237	0xbe99e3ae	-0.30056518
238	0x3c888160	0.016663253
239	0xbd32e128	-0.043671757
240	0xbdfe1da5	-0.12407998
241	0x3dcfc8fc	0.101457566
242	0x3df1d694	0.11808506
243	0xbd535b65	-0.051600832
244	0x3e8be7ff	0.27325436
245	0x3ec8625d	0.39137545
246	0x3cf9b500	0.030481815
247	0x3e1a07cd	0.15042038
248	0x3e0d1046	0.13775739
249	0x3e08c383	0.13355832
250	0xbe98d951	-0.298533
251	0xbc9bd44e	-0.019022133
252	0xbe693d15	-0.22777207
253	0x3c73196e	0.014837606
254	0x3e2a5124	0.16632515
255	0xbd66801d	-0.056274522

bias f4 [30]
0	0xbcc00f5a	-0.02344482
1	0x3e71082d	0.23538275
2	0x3ccc8d65	0.024969766
3	0x3dd034f6	0.101663515
4	0x3db6b7e5	0.08921794
5	0xbcc2cf6a	-0.023780543
6	0x3e18fbc2	0.14939788
7	0xbdc35189	-0.09537036
8	0x3da935ac	0.0826219
9	0xbe58e582	-0.211813
10	0xbe93d908	-0.2887652
11	0xbdd8bffc	-0.10583493
12	0x3c92e4ed	0.017931426
13	0xbcbe032f	-0.023194877
14	0xbd93a6c3	-0.07209542
15	0x3e46cb48	0.19413483
16	0x3e72750a	0.2367746
17	0x3d852025	0.06500272
18	0x3ddf9a5b	0.10918113
19	0x3e57484d	0.21023674
20	0x3d8770b4	0.06613293
21	0x3df0ef75	0.11764423
22	0xbde5d316	-0.11221902
23	0xbe5dcd62	-0.21660379
24	0x3e0cbd58	0.13744104
25	0x3ea1ae69	0.31578377
26	0xba8716f8	-0.0010306528
27	0xbd87660a	-0.06611259
28	0xbe4dd7c4	-0.2010184
29	0xbe0b846d	-0.13624735

weight f4 [30, 30]
0	0x3cc92425	0.024553368
1	0xbc11cd72	-0.00889908
2	0xbe0c0751	-0.13674666
3	0x3b73ed77	0.0037220397
4	0x3cae251e	0.021257933
5	0xbe7b85eb	-0.24562804
6	0x3d3acf6e	0.045607977
7	0x3e0d2e63	0.13787226
8	0xbd5f08f7	-0.05445191
9	0x3c29eebd	0.010371861
10	0xbda016fb	-0.07816883
11	0x3e277293	0.163523
12	0x3e7faf4d	0.24969216
13	0x3e997fce	0.2998032
14	0xbcc4bf4d	-0.024017
15	0xbe37c7d4	-0.17947322
16	0xbea8c818	-0.3296516
17	0x3e3a018c	0.18164653
18	0xbdd58242	-0.10425235
19	0x3e5e53f5	0.21711715
20	0xbdb81f66	-0.08990364
21	0x3e1bf8a2	0.15231565
22	0x3dd58953	0.10426583
23	0xbd98aa51	-0.0745436
24	0xbc55c3d6	-0.013047179
25	0xbd295749	-0.041343007
26	0x3dda7c50	0.10668242
27	0x3dd554f1	0.10416592
28	0xbdb4920c	-0.08816919
29	0xbdd4e946	-0.10396056
30	0xbd984a5a	-0.074360564
31	0xbe4d9d7e	-0.2007961
32	0xbe64c7b3	-0.22341804
33	0xbbb9e07e	-0.0056725135
34	0x3e624975	0.22098334
35	0x3cd8453e	0.026400205
36	0x3da0f9c1	0.07860137
37	0x3e64e8d3	0.2235444
38	0xbd380104	-0.044922844
39	0xbe375d9f	-0.17906807
40	0xbdde16a4	-0.10844162
41	0x3df19a4e	0.117970094
42	0xbd90e6f2	-0.07075299
43	0x3d933703	0.07188227
44	0x3dcc9e5a	0.09991141
45	0x3d693f86	0.056945346
46	0xbe279ace	-0.16367647
47	0xbd3d843b	-0.046268683
48	0xbe4d15fd	-0.20027919
49	0x3df65f08	0.120298445
50	0xbdddb148	-0.10824829
51	0x3d9975a0	0.07493138
52	0x3e4cab12	0.19987133
53	0xbc50dc59	-0.0127478475
54	0x3dc0c4fd	0.094125725
55	0xbbaf8339	-0.005356219
56	0x3e6594e6	0.22420081
57	0xbc81ca56	-0.015843552
58	0x3e1e8978	0.15482128
59	0x3da090c8	0.07840115
60	0x3e40da0c	0.18833178
61	0x3d828f18	0.06374949
62	0xbe0463fb	-0.12928765
63	0xbd9a1115	-0.075227894
64	0xbe044af4	-0.12919217
65	0x3eaaacc5	0.33334938
66	0xbdc5105b	-0.0962226
67	0xbeaf6e03	-0.3426362
68	0x3e36605b	0.17810194
69	0x3dc27952	0.09495796
70	0x3deff44e	0.11716519
71	0x3df6af92	0.12045206
72	0x3e6bee46	0.23040113
73	0xbe08a5fa	-0.13344565
74	0xbe7ec5af	-0.24880098
75	0x3cfd8442	0.030946855
76	0x3df292e4	0.118444234
77	0x3cb08261	0.021546545
78	0x3e53c38e	0.20680067
79	0x3dd30703	0.10304072
80	0xbd49cfff	-0.049270626
81	0xbe41bcf4	-0.18919736
82	0xbe3a8506	-0.18214807
83	0xbd15d064	-0.03657569
84	0xbe191d5a	-0.14952603
85	0x3d518433	0.051151466
86	0xbe3105d4	-0.1728738
87	0xbf00c5fb	-0.50302094
88	0xbe724b35	-0.23661502
89	0x3e82a643	0.25517473
90	0xbe26cdba	-0.16289416
91	0x3d9691d2	0.07352032
92	0x3d14c563	0.036321055
93	0xbe02efac	-0.1278674
94	0x3c75b209	0.01499606
95	0xbcc521c0	-0.024063945
96	0xbc508f82	-0.012729527
97	0xbbd9c940	-0.0066463053
98	0xbdca0670	-0.09864509
99	0x3d0c8f9c	0.034316644
100	0xbdfff3b7	-0.12497657
101	0xbe137144	-0.14398676
102	0xbdf59288	-0.11990839
103	0xbdec76e1	-0.11546112
104	0xbd1821ec	-0.037141725
105	0xbda6a4c0	-0.08136892
106	0xbd0bbe90	-0.03411728
107	0x3e26643c	0.16249174
108	0xbe0df0fc	-0.1386146
109	0x3dacb5e8	0.08433133
110	0xbe087825	-0.13327082
111	0xbe0615b0	-0.1309421
112	0xbd6a4574	-0.057195142
113	0x3d02be68	0.031919867
114	0xbde6f03f	-0.11276292
115	0x3e01bfe2	0.12670854
116	0x3d2950d4	0.04133685
117	0xbb515600	-0.003194213
118	0x3c8ae843	0.016956454
119	0xbccb3678	-0.024806246
120	0xbc353a01	-0.0110611925
121	0xbe52ffa1	-0.20605327
122	0xbe80ac08	-0.2513125
123	0x3d974333	0.07385864
124	0x3e513088	0.2042867
125	0xbe393cac	-0.1808955
126	0xbd081c49	-0.0332301
127	0x3e0152a3	0.1262918
128	0xbe66faf1	-0.22556664
129	0xbdffe1c6	-0.12494235
130	0x3e4acb9e	0.19804236
131	0x3db72cf0	0.08944118
132	0x3ed35cbf	0.41281697
133	0xbe42d758	-0.1902746
134	0x3e0b5279	0.1360568
135	0x3b7cac60	0.0038554892
136	0xbe7ff2d3	-0.24994974
137	0x3cd67c82	0.026182417
138	0x3d56ca22	0.052438863
139	0xbdefab19	-0.11702556
140	0xbcd3e8a3	-0.025867766
141	0xbca047ca	-0.019565482
142	0x3c0390e3	0.008030149
143	0x3e1d8da1	0.15386058
144	0x3e308c5d	0.17241044
145	0xbe2cf23b	-0.16889279
146	0xbcd93dac	-0.026518665
147	0xbe1ca974	-0.15299016
148	0x3e0b2f4e	0.13592264
149	0xbba137df	-0.0049199904
150	0x3e2cfc42	0.16893104
151	0x3cf3dec2	0.029769305
152	0x3d836960	0.06416583
153	0xbd88c6c2	-0.06678535
154	0x3dc52a03	0.09627154
155	0x3e9b4f6f	0.3033404
156	0xbbfd95c0	-0.007738799
157	0xbe06c964	-0.13162762
158	0xbd29b460	-0.041431785
159	0x3e17e2c6	0.14832601
160	0xbc2831f4	-0.010265816
161	0xbd022059	-0.03176913
162	0xbdf6ff54	-0.12060419
163	0x3e40a42e	0.1881263
164	0x3cb6b3a9	0.022302466
165	0x3e6e2446	0.23256025
166	0x3e3b3c4c	0.1828472
167	0xbd9fc3cf	-0.078010194
168	0x3d1f4c8b	0.038891356
169	0x3e6e19c4	0.23252016
170	0x3e4ca99b	0.19986574
171	0x3db6fb49	0.089346476
172	0xbe51eaae	-0.2049968
173	0x3e34c62d	0.17653723
174	0x3e173d64	0.14769512
175	0x3da22dfc	0.07918927
176	0xbe100499	-0.14064254
177	0xbe275f34	-0.16344911
178	0xbeaea6b6	-0.34111565
179	0xbe7b2eef	-0.24529622
180	0x3e1c6eb0	0.15276599
181	0xbdc31ddd	-0.0952718
182	0xbb693fdf	-0.0035591049
183	0xbdd34349	-0.10315568
184	0xbdd584f7	-0.10425752
185	0x3dcdd944	0.10051206
186	0xbcd77800	-0.026302338
187	0x3d26d217	0.0407277
188	0xbdea8188	-0.114504874
189	0x3dbe1bed	0.0928267
190	0xbe80a0f4	-0.25122797
191	0xba3aa958	-0.0007120571
192	0x3dd6e44d	0.10492764
193	0xbd79f94a	-0.061028756
194	0xbe1e94bf	-0.1548643
195	0x3e152be3	0.14567523
196	0x3e266da1	0.16252758
197	0x3d90772a	0.07053979
198	0x3e9014d6	0.28140897
199	0x3d9ca836	0.07649271
200	0x3dd1b046	0.102386996
201	0x3e3890e1	0.18024017
202	0xbdd8e1af	-0.10589921
203	0x3df82d2e	0.12117992
204	0xbceacf0b	-0.028663179
205	0xbd0bd43c	-0.03413795
206	0x3d2a06ae	0.041510276
207	0x3e1a5bdb	0.15074103
208	0xbe76c79e	-0.24099585
209	0xbd8ff793	-0.07029643
210	0x3d985cce	0.07439576
211	0x3d5782c6	0.05261495
212	0x3d6484ee	0.055790834
213	0xbe13ac64	-0.1442123
214	0x3be6dacf	0.007045127
215	0xbd2b6278	-0.041841954
216	0x3e497092	0.19671848
217	0x3e652856	0.22378668
218	0x3dd46bfa	0.103721574
219	0xbd0ba5c8	-0.03409365
220	0x3e381db0	0.17980075
221	0xbda6b152	-0.0813929
222	0xbe7052c0	-0.23469067
223	0xbc9134a1	-0.01772529
224	0xbdde383e	-0.10850571
225	0xbbf5e7d5	-0.007504443
226	0xbe046614	-0.12929565
227	0x3e2c486b	0.168245
228	0xbcc384af	-0.02386698
229	0x3e19fc6e	0.150377
230	0xbe04421c	-0.12915844
231	0x3e17bf7b	0.14819138
232	0x3dd35e98	0.10320777
233	0x3e83290a	0.25617248
234	0x3dcc00da	0.099611
235	0xbdbef98b	-0.0932494
236	0x3c6ef2a0	0.0145842135
237	0x3e3eab1b	0.18619959
238	0x3e6b702f	0.22992013
239	0x3e47c408	0.19508374
240	0xbdc3ef91	-0.09567178
241	0xbda454a0	-0.080239534
242	0x3d3cdb4f	0.046107586
243	0x3d9d4a11	0.07680143
244	0x3e271610	0.1631701
245	0xbddcfe95	-0.10790745
246	0x3d4139da	0.047174312
247	0x3e111dc1	0.14171506
248	0x3df818e7	0.12114125
249	0xbe119e18	-0.14220464
250	0x3e7d55d8	0.24739778
251	0x3db4f81b	0.08836385
252	0x3dea5587	0.11442094
253	0xbd53b38a	-0.051684894
254	0x3dac1f8f	0.08404457
255	0x3e5c39a5	0.21506365

bias f4 [30]
0	0x3e7cc942	0.24686149
1	0xbc8be4d2	-0.017076883
2	0xbcf78799	-0.030216025
3	0xbd12fe7e	-0.035887234
4	0xbd7384da	-0.05945287
5	0x3e99cd5d	0.30039492
6	0x3cb71e24	0.02235324
7	0x3d8b9aa0	0.06816602
8	0xbd8944b2	-0.06702556
9	0x3c439889	0.011938223
10	0x3e7b402d	0.245362
11	0x3bc84d05	0.006112697
12	0x3ea19de4	0.31565773
13	0xbd65c7da	-0.056098796
14	0x3db1a267	0.08673554
15	0xbe67c4a2	-0.22633603
16	0x3e85107d	0.25989142
17	0x3e55c165	0.20874555
18	0x3e295625	0.16536768
19	0xbdcf1df2	-0.101131335
20	0x3e729ffa	0.23693839
21	0x3e91d4ff	0.28482816
22	0xbe18b65c	-0.14913315
23	0xbe4f5cb2	-0.20250204
24	0x3ea670fe	0.3250808
25	0xbd70a752	-0.05875332
26	0x3e8c0641	0.2734852
27	0x3e05c028	0.13061583
28	0xbd9c6ed7	-0.076383285
29	0x3e9287df	0.28619286

weight f4 [30, 30]
0	0xbe13ed6e	-0.14446041
1	0xbced0ef8	-0.028937802
2	0x3b1f9e40	0.00243558
3	0x3d06c58c	0.03290324
4	0xbdc3e407	-0.09564977
5	0xbda31d60	-0.07964587
6	0x3db42f60	0.087980986
7	0x3cd80428	0.02636917
8	0x3d16b6a8	0.03679529
9	0xbdd5ba2c	-0.104359
10	0xbd9887dc	-0.07447788
11	0xbd5725a4	-0.05252613
12	0xbc0916c0	-0.00836724
13	0x3be3e940	0.006955296
14	0x3d17e444	0.037082925
15	0x3d4d0888	0.050056964
16	0xbcb1fd58	-0.021727249
17	0xbe32c5a2	-0.17458203
18	0xbe05a873	-0.1305254
19	0xbdc29019	-0.09500141
20	0x3c644fd0	0.013935044
21	0x3ca95180	0.020668745
22	0x3e3ad558	0.18245447
23	0xbe356975	-0.1771601
24	0xbd6c42c4	-0.05768086
25	0x3d46dadc	0.048548564
26	0xbc003d50	-0.007827118
27	0x3d7b2388	0.061313182
28	0xbe09c33c	-0.13453382
29	0x3dfcb408	0.12339026
30	0x3d7ac2d6	0.061220966
31	0x3e2df866	0.16989288
32	0x3c48585a	0.012228096
33	0x3dc7bf9f	0.09753346
34	0x3e5b94fc	0.21443552
35	0xbd267e4c	-0.04064779
36	0xbe451b80	-0.19248772
37	0x3e234251	0.15943266
38	0x3e301cba	0.17198458
39	0xbd430cb9	-0.047619555
40	0x3bd6912e	0.0065480685
41	0xbb7212b7	-0.0036937424
42	0xbe8a0acc	-0.26961362
43	0x3e1ec49b	0.15504687
44	0xbe285644	-0.16439158
45	0x3efb1c3a	0.49044973
46	0x3e3b7a27	0.18308316
47	0xbe393016	-0.1808475
48	0xbda3e544	-0.08002713
49	0x3e47c142	0.19507316
50	0x3daaf287	0.0834704
51	0x3ea7fa0f	0.32807967
52	0x3e1cfa68	0.15329897
53	0x3d340825	0.04395308
54	0xbe8846a8	-0.26616406
55	0x3e14c0ef	0.14526723
56	0xbd85b076	-0.06527798
57	0xbe119be4	-0.14219624
58	0xbd23235b	-0.03982864
59	0x3c31bbf8	0.010848038
60	0x3e297bd0	0.16551137
61	0x3e282f07	0.1642419
62	0x3e8e23a9	0.27761582
63	0xbdb1731b	-0.08664533
64	0xbdaa8368	-0.08325845
65	0xbd809df6	-0.06280129
66	0xbe4cfd05	-0.20018394
67	0x3e0b1cac	0.13585156
68	0x3e2b6458	0.16737497
69	0x3e134cbb	0.14384739
70	0xbd5b423c	-0.053529963
71	0x3cfd5a0f	0.030926732
72	0xbe6e672c	-0.23281544
73	0xbd1ef278	-0.038805455
74	0xbb3d6cbd	-0.0028903924
75	0xbe58eb02	-0.21183398
76	0xbd207ebd	-0.039183367
77	0x3d674aab	0.056467693
78	0xbcad47f2	-0.02115247
79	0x3de28a6c	0.11061558
80	0xbd76ae99	-0.060225103
81	0xbde83a8b	-0.11339291
82	0xbe2631d8	-0.16229951
83	0xbc5d276e	-0.01349817
84	0xbd0efaf2	-0.03490729
85	0x3daabe4b	0.08337077
86	0x3dabfce5	0.08397845
87	0xbc9f9f46	-0.019485127
88	0xbb629b65	-0.0034577486
89	0x3e00c9dd	0.12577005
90	0xbd3c29ca	-0.04593829
91	0x3e0e671f	0.13906525
92	0x3de540fc	0.111940354
93	0x39c0cdff	0.00036774573
94	0x3e0bcd1d	0.13652463
95	0xbd945cf2	-0.072442904
96	0x3c411e22	0.011786969
97	0xbe8689c8	-0.26276994
98	0xbdfe6012	-0.12420668
99	0x3de5749c	0.11203882
100	0x3d243cab	0.04009692
101	0x3dee0f16	0.11623971
102	0x3f12c5a6	0.5733284
103	0xbded3ebb	-0.115842305
104	0xbc8566d3	-0.016284382
105	0xbc4139d1	-0.01179357
106	0x3d9bdfb9	0.07611031
107	0xbd88320f	-0.06650173
108	0x3e3996d3	0.18123941
109	0x3d0035ad	0.03130119
110	0x3e50ddd2	0.20397118
111	0xbd02db86	-0.031947635
112	0xbc348243	-0.011017385
113	0xbe399a09	-0.18125166
114	0xbe0f6a79	-0.1400546
115	0x3e0b2b71	0.1359079
116	0xbcc7ab4d	-0.024373675
117	0x3cf5da13	0.030011212
118	0x3d965267	0.07339936
119	0xbdae23b9	-0.08502907
120	0xbdf1298b	-0.11775502
121	0x3e7fab18	0.24967611
122	0xbe183a11	-0.148659
123	0xbd996b28	-0.074911416
124	0x3dc79386	0.09744935
125	0xbe16841c	-0.14698833
126	0xbe8ad6aa	-0.271169
127	0xbe5c6118	-0.21521413
128	0xbda8601b	-0.08221456
129	0x3d595129	0.053055916
130	0x3e1504d5	0.14552625
131	0x3e31138c	0.17292613
132	0x3ee57c3b	0.44821343
133	0xbd2fb150	-0.042893708
134	0x3c93f389	0.018060463
135	0xbe33beca	-0.17553249
136	0x3d842987	0.06453233
137	0x3d093199	0.033494566
138	0xbd2d377c	-0.042289242
139	0xbe1d7a63	-0.15378718
140	0x3e03911d	0.12848325
141	0x3e7fe1ea	0.24988523
142	0xbe539540	-0.20662403
143	0xbe10bf2d	-0.14135428
144	0x3d124bdf	0.035716888
145	0xba93e879	-0.0011284492
146	0x3da99e16	0.082821056
147	0xbd6d5971	-0.057946626
148	0xbe320cd8	-0.17387712
149	0x3d8a49fd	0.067523934
150	0x3d44467c	0.04791878
151	0x3e37cd78	0.17949474
152	0xbc614dd9	-0.0137514705
153	0x3db939af	0.090442054
154	0x3e3108df	0.1728854
155	0x3dbd6e1f	0.092495196
156	0x3c0f96c1	0.00876397
157	0xbe43cc70	-0.19120955
158	0x3e4ef9c8	0.20212471
159	0x3b3bd0cd	0.002865839
160	0xbe91d498	-0.2848251
161	0x3d659398	0.05604896
162	0x3e92a64d	0.28642502
163	0x3e2b8929	0.16751541
164	0x3e3eaff9	0.18621816
165	0x3e923ed5	0.28563562
166	0xbe7aba71	-0.24485184
167	0xbe68b44b	-0.22725026
168	0x3e292cba	0.16520968
169	0x3e54c954	0.20779926
170	0x3ddb600d	0.107116796
171	0x3ce1cf8d	0.027564788
172	0x3dd6959b	0.10477754
173	0xbdeeccd8	-0.116601646
174	0xbdb81b02	-0.08989526
175	0xbd97e48f	-0.07416641
176	0x3d66f7cb	0.056388658
177	0xbd3570d3	-0.04429705
178	0x3e056da2	0.13030103
179	0x3da20df2	0.07912816
180	0xbdbfa678	-0.09357923
181	0xbd73a5f3	-0.059484433
182	0xbc694af0	-0.014239058
183	0xbd17fb14	-0.03710468
184	0xbbded381	-0.0068001156
185	0x3e09c8d8	0.13455522
186	0x3dc1b7cc	0.094588846
187	0xbe27ee85	-0.16399582
188	0xbdc221b6	-0.09479086
189	0xbe0a2f28	-0.13494551
190	0x3cf88975	0.030338982
191	0x3e091d98	0.13390195
192	0x3dc3491f	0.09535431
193	0xbc2c3fdb	-0.010513271
194	0xbe762140	-0.24036121
195	0xbe00afb3	-0.12567024
196	0xbcf8cd30	-0.030371279
197	0xb9ee970e	-0.00045507442
198	0xbd1aa8ff	-0.037758823
199	0x3daa33a8	0.08310634
200	0xbdae894c	-0.08522281
201	0x3d1a1535	0.03761788
202	0x3d627f69	0.05529729
203	0xbe81b305	-0.25331894
204	0x3e5f6a40	0.21817875
205	0xbe6c7fee	-0.23095676
206	0xbd9a376b	-0.075301014
207	0xbdca0d69	-0.09865839
208	0xbe4bb3c7	-0.19892798
209	0x3ddf5b3e	0.10906075
210	0xbe0f82f9	-0.14014806
211	0xbe06fe0a	-0.13182846
212	0x3e37b96c	0.17941827
213	0x3e2c3839	0.16818322
214	0xbdba772a	-0.0910476
215	0x3e1603a6	0.1464983
216	0x3e5a9df8	0.21349323
217	0x3de35a61	0.11101223
218	0x3c96882d	0.01837548
219	0xbdc7cd8d	-0.097560026
220	0xbd27798a	-0.040887393
221	0x3b70fd77	0.003677217
222	0x3e25ebf7	0.16203295
223	0x3db69bf0	0.089164615
224	0xbe15bfce	-0.14623949
225	0xbed1e058	-0.40991473
226	0x3eca26bf	0.39482686
227	0x3e92a0e5	0.28638378
228	0x3ce712ea	0.028207261
229	0xbb8bee92	-0.004270383
230	0x3e2b6c5f	0.16740559
231	0x3ddc7191	0.107638486
232	0xbde7525c	-0.11295006
233	0x3ca40663	0.020022577
234	0x3e9f5854	0.31122077
235	0x3d623604	0.055227295
236	0x3de3c3fb	0.11121365
237	0xbceb01c2	-0.028687362
238	0x3e5e0ae4	0.21683842
239	0x3e7bc177	0.2458552
240	0x3e7efa61	0.249002
241	0xbc14e01f	-0.009086638
242	0x3e06354c	0.13106269
243	0x3d83cce6	0.06435566
244	0x3d8c733b	0.06857916
245	0xbcbe3f93	-0.023223674
246	0x3e03a1f3	0.12854747
247	0x3d650425	0.055912156
248	0xbd8f271a	-0.0698988
249	0x3e689cdf	0.22716092
250	0x3c806e57	0.015677614
251	0x3dfdc39c	0.12390825
252	0xbe2de34e	-0.16981241
253	0x3d0dce2a	0.03462044
254	0x3e6bda88	0.23032582
255	0xbe02e7c2	-0.12783721

bias f4 [30]
0	0xbdd0dc6a	-0.10198291
1	0x3ce407df	0.027835784
2	0xbd2d01a6	-0.0422379
3	0x3d8c0cbe	0.06838368
4	0x3e499183	0.19684415
5	0x3e5a599c	0.21323246
6	0x3e0c7c71	0.13719346
7	0x3eb14ab1	0.34627298
8	0xbdc9bc62	-0.09850384
9	0x3eab3292	0.3343702
10	0x3e2e860d	0.17043324
11	0xbd714092	-0.05889947
12	0x3e558fc9	0.20855631
13	0x3e806529	0.2507718
14	0x3e5dae24	0.2164846
15	0xbdeeaa99	-0.11653633
16	0xbdaf0da9	-0.08547527
17	0xbda274d3	-0.07932439
18	0x3d54909c	0.051895723
19	0xbdb3367e	-0.08750628
20	0xbd9bcd84	-0.07607558
21	0xbc978acf	-0.018498806
22	0xbe1514db	-0.14558737
23	0xbdc4673c	-0.09590003
24	0x3dbfc605	0.09363941
25	0xbe4a76b3	-0.19771843
26	0xbc9b334e	-0.018945362
27	0x3c82626f	0.015916077
28	0x3c4d00f0	0.012512431
29	0xbdc9e5c3	-0.09858277
